models/sf/na10_uc.pt (torch_old, 558344 bytes, 150 tensors)

encoder.0.weight f4 [128, 6]
000000 ed ee ce 3d e6 2e a3 3c 4a 0c fb bc 45 89 a0 3d
       0.10104165 0.019919824 -0.030645508 0.07838682
000010 9f 08 5d be 8e 85 fd 3d a9 f2 77 3d b1 f5 84 3d
       -0.2158532 0.12378989 0.060534153 0.064921744
000020 5b 4f 55 bd f7 47 60 bd fb 38 0f 3c 5d 10 03 be
       -0.052077632 -0.05475613 0.008741613 -0.12799211
000030 1b a0 c6 bd 91 77 3d 3d b6 7b 9d bd 8d 9c 0d be
       -0.096985064 0.046256606 -0.076896116 -0.1382925
000040 bf 59 55 3e f6 ac 7a bc 8f cc d6 bc ac 2c b7 3d
       0.20835017 -0.015300026 -0.026220588 0.08944067
000050 f7 c1 8e bd d2 54 53 bd 85 f4 13 3e 3f 64 1a be
       -0.069705896 -0.051594563 0.14448746 -0.15077303
000060 36 e4 2c 39 2c c1 d8 bd e4 18 06 be 49 0e f3 bc
       0.00016488213 -0.105837196 -0.13095433 -0.029669898
000070 e0 ee 12 3d 90 5c 04 3e d2 d4 2a be c0 7c 52 3c
       0.03587234 0.12925935 -0.16682747 0.0128471255
000080 90 b4 4f 3c ed 8c c0 bb 0f 3d ce 3c e9 a0 16 3e
       0.012677327 -0.0058761747 0.0251756 0.1470982
000090 22 c3 4c bd 81 44 32 bd 09 86 ab bd 72 f0 23 3d
       -0.04999078 -0.04352236 -0.083751746 0.04002423
0000a0 84 38 3d 3e 34 4c e1 3d 20 bf 76 bc 2b 7c 2d 3d
       0.1847859 0.11000863 -0.015060216 0.042354744
0000b0 39 b2 9a 3d cc a9 55 3d 1d 01 74 be 26 e5 ac bd
       0.075535245 0.052163884 -0.2382855 -0.08442144
0000c0 0b 05 26 bd 55 0f ce 3d 0b b7 e0 bb e0 c8 ce bc
       -0.040532153 0.10061518 -0.006857758 -0.025242269
0000d0 9c eb 91 be c2 96 94 ba eb 5a 3c 3d fc 3e 3b 3d
       -0.28500068 -0.0011336433 0.045985144 0.045714363
0000e0 77 87 ae bd 71 83 df 3d 20 71 ba 3e 71 41 ac bd
       -0.085219316 0.10913742 0.36414433 -0.084109195
0000f0 37 f1 f3 ba d4 9a 24 b9 0c 17 b0 3c 31 9f 05 bd
       -0.0018611316 -0.00015697937 0.021495365 -0.03262252
000100 5c d7 19 3e 3a d7 4d 3c cc d8 fa 3c d3 6d 07 3d
       0.1502356 0.012563521 0.030620955 0.03306372
000110 1e ff e2 bc c8 ef 12 bc a5 63 4e be 93 39 d2 bd
       -0.02770954 -0.008968301 -0.20155199 -0.10264888
000120 d5 ae 71 3d 8a 0d 8e bd 2a f0 1a 3c 90 aa bd bd
       0.059004623 -0.06936176 0.009456674 -0.09261048
000130 08 96 b6 bd 9f 07 36 3e 86 38 e4 bc 21 af 4c bd
       -0.08915335 0.17776345 -0.027858984 -0.049971703
000140 91 f1 3d bd 1f f0 8e 3d db ff 57 3e 53 38 43 3c
       -0.046372954 0.06979393 0.21093695 0.011915284
000150 c1 10 02 bd 4b e8 24 3c 5a be 4f 3b bf 13 8f bd
       -0.03175426 0.010065149 0.0031699152 -0.06986188
000160 24 4c 6d 3e 93 93 f8 bd c3 fb 9c 3d 2c 7e 17 bd
       0.23173577 -0.121375225 0.07665207 -0.03698556
000170 2d 6d bf 3d 12 06 07 be fb ba 2c be 8a f6 3c 3d
       0.093469955 -0.1318591 -0.16868202 0.046133555
000180 a2 23 12 3e 4b 7e 43 bd 65 20 c1 bd fb 21 c0 bd
       0.14271405 -0.047727864 -0.09430007 -0.09381481
000190 5c 42 0b 3e 13 4c 2f be d2 e2 5b 3d 0b cd cd 3c
       0.13599533 -0.17118864 0.05368311 0.025122186
0001a0 5e 20 de bc 37 48 a9 bc fb 41 02 be 0a 61 94 bd
       -0.027115043 -0.020664318 -0.12720482 -0.07245071
0001b0 b3 43 5d 3c 66 95 12 3e 46 96 d3 bc 24 60 ca 3d
       0.01350491 0.14314803 -0.025828492 0.098816186
0001c0 0a 64 bc bd ba 6f 14 bb aa e6 da bb f0 d5 1f 3b
       -0.091987684 -0.0022649602 -0.0066803293 0.0024388991
0001d0 06 ca 33 3e 50 02 5a 3c 34 0f 91 bd a0 c6 92 3b
       0.17557535 0.013306215 -0.07082978 0.0044792444
0001e0 f7 5b 9b bd aa 20 a8 bd e9 c7 99 bd 02 d3 2f 3e
       -0.075859 -0.08209355 -0.07508833 0.17170337
0001f0 96 e7 e2 3d 9a f6 84 be 4e 22 bd bd 92 7f a1 3d
       0.11079328 -0.25969392 -0.09235059 0.0788566
000200 db 6d 2b bc 4d 4e 29 bd 1d 70 49 bd de fd d5 bd
       -0.010463203 -0.04133444 -0.049179185 -0.10448812
000210 ec b0 70 3c c8 b7 a6 bd 65 df 39 bd 96 b5 1d bd
       0.014690619 -0.08140522 -0.04537906 -0.038503252
000220 3c c3 37 be 6c c0 0b be 9b 8d 96 bc 5d 4b 25 bd
       -0.1794557 -0.13647622 -0.01837807 -0.040355075
000230 c2 54 06 bd 76 50 b5 bc 19 96 01 3e 74 cc a7 3e
       -0.032795675 -0.022133093 0.12654914 0.32773173
000240 cc 58 48 bc 12 ab 7f 3c 56 3b 30 3b d4 a9 3b 3b
       -0.012228202 0.015604751 0.0026890836 0.002863516
000250 3b 63 9a 3d 0c 3c 63 3e a9 ff cb bc 43 12 33 bd
       0.07538458 0.22190875 -0.024902182 -0.043718588
000260 e9 24 ce 3d 41 20 0c 3e 82 e5 ea bd f0 04 70 3e
       0.10065634 0.13684179 -0.114695564 0.23439384
000270 61 e7 a8 3c 4f 53 1b 3e b4 16 63 3e 4e 3a 45 3d
       0.020618143 0.15168498 0.2217663 0.048151307
000280 49 fa 83 3c 14 f1 f7 bd a4 a1 f6 bb b8 40 ce 3d
       0.016110556 -0.12106529 -0.0075265933 0.10070938
000290 6b 07 8d bd 56 a6 ba bd 7b 3f f0 bd 97 b2 01 3e
       -0.068861805 -0.09113757 -0.11730858 0.12665783
0002a0 0d 31 d0 3b 79 c9 8b 3e 87 9c 85 bd 50 6b d0 bd
       0.0063535036 0.2730215 -0.06523996 -0.10176718
0002b0 85 8c 1d 3e 1b d6 26 3d 35 2f 2f 3e ce 4a 26 3b
       0.15385635 0.04073153 0.17107852 0.0025374177
0002c0 83 c8 fd 3c 61 c3 67 3d a7 34 b7 3d 7e ee f0 bc
       0.0309794 0.056582812 0.089455895 -0.029410597
0002d0 8f 4d 1e 3b 81 a4 f2 bd 6f c5 14 bd 6c 49 17 3d
       0.0024155115 -0.11847783 -0.0363211 0.036935255
0002e0 35 ae 04 be b0 18 1a bd 9b 86 78 bd 13 df 0f 3c
       -0.1295708 -0.0376212 -0.060675245 0.008781212
0002f0 9a 6f 90 bc 53 2c 48 3d 40 31 89 bd 7d 1d 87 be
       -0.01763134 0.048870396 -0.06698847 -0.26389685
000300 c1 16 52 bd ad 92 d8 3c 9c 8a 97 3d bc c6 5f 3e
       -0.05129123 0.026437128 0.073994845 0.21853155
000310 9b e2 88 bd 20 c1 f8 bd d6 75 d4 bd d7 fb 1c be
       -0.066838466 -0.12146211 -0.10374038 -0.15330444
000320 db bc 38 bd 64 89 2f be 4e 14 8d 3c 9c 29 3a 3e
       -0.04510198 -0.17142254 0.017221596 0.18179935
000330 17 da c6 3b 84 75 09 3c 7b b4 46 3d ab 66 85 3c
       0.006068479 0.008389834 0.048511963 0.016284307
000340 0d 49 95 3d 00 f8 9b be 3b f9 92 bb 00 c1 ab 3c
       0.07289324 -0.30462646 -0.004485277 0.020966053
000350 83 e2 21 3c 45 34 2d 3e ea 09 06 3e 2e 66 50 be
       0.009880665 0.1691447 0.1308972 -0.20351478
000360 56 d4 bd bc 50 88 9e 3c 5c 8c 0b be 37 bb 02 3e
       -0.023172539 0.019352108 -0.13627762 0.1276673
000370 85 7b 79 3b 66 a2 0c 3e 57 6d 4c 3d 20 df 63 ba
       0.0038068008 0.13733825 0.049908962 -0.0008692611
000380 ac 5c d0 3b fd be 48 3d ab f3 36 be fd c1 0e bd
       0.0063587036 0.049010266 -0.1786639 -0.03485297
000390 bf 2f c6 bc 5f ba b8 bc d1 ac 80 bd 84 59 15 bd
       -0.024192689 -0.022549806 -0.06282962 -0.036462322
0003a0 1e ce b1 be 80 8c a0 3d c2 ad 06 3d cc 9b 41 bc
       -0.34727567 0.07839298 0.032880552 -0.01181693
0003b0 1f 11 9e bd 9f c6 3c 3e 91 6b 5e be 6d d1 1b be
       -0.07718109 0.18435143 -0.21720721 -0.15216608
0003c0 ce 26 99 bd bb c6 f8 bd e1 83 b4 3c 87 52 b2 3c
       -0.074781045 -0.1214728 0.022035541 0.021767868
0003d0 17 c5 52 3e 4d 06 5a 3e f0 85 a8 bc e2 9e 06 bd
       0.20582996 0.21291466 -0.020571679 -0.032866366
0003e0 03 79 a3 3d 03 90 5a bd 46 fa 04 3e 9a 1c 75 bc
       0.079820655 -0.053359997 0.12986097 -0.014960432
0003f0 53 06 fc bd 7e 84 c0 bd da 32 b8 bd 63 45 22 be
       -0.12305894 -0.09400271 -0.08994074 -0.15846781

encoder.0.bias f4 [128]
000000 2f f7 f6 3c 39 b8 30 3d 2d 5b 1a bd a3 9d 33 3d
       0.030147163 0.04314444 -0.03768461 0.043851506
000010 af 32 fa bb 5b 20 c6 bc 45 38 c2 3c 7e 73 8a 3d
       -0.0076354365 -0.02418535 0.023708472 0.0676031
000020 2f ab ee 3b fb 62 80 3d cb b5 81 3d 8e ec 69 3d
       0.0072835903 0.06268879 0.063335024 0.05711036
000030 ca 32 5e bc 06 82 79 3c 77 59 9b 3d 7d 17 ee 3c
       -0.013561914 0.015228754 0.075854234 0.029063934
000040 25 ea 06 3d ae 5b 96 3d 8f 68 8c bc 30 bf ad 3a
       0.03293814 0.07341705 -0.017139701 0.0013255831
000050 66 9c 19 3a 5e 9c 22 3d b9 0b b1 3d d8 df 36 bd
       0.0005859792 0.039699905 0.08644814 -0.044647068
000060 2f c6 d9 3d ec 91 4c 3d f9 57 2b bc de 52 7a 3b
       0.10633504 0.04994385 -0.010457986 0.0038196365
000070 ea a2 08 3d 79 0c f5 bb 01 2d 07 3d 35 3f 9f 3c
       0.033358492 -0.0074782935 0.033001903 0.01943932
000080 bf d1 d0 3c 95 1e eb ba 76 d9 56 3d de 37 90 3c
       0.02549064 -0.0017938191 0.05245348 0.017604765
000090 63 c9 65 3c 6c 22 94 3d 6a 7c a4 3d 8c d9 73 3d
       0.014025065 0.07233128 0.080315426 0.05953364
0000a0 e8 e3 6c 3d 1c 6f ba bc 15 76 09 bd 4f 10 8f 3c
       0.057834536 -0.02275806 -0.033559877 0.017463831
0000b0 0e d5 2d bd 3f 7e 27 bd 41 2f 5b 3d 7a e3 4c 3d
       -0.042439513 -0.040891882 0.05351186 0.050021626
0000c0 2f b6 07 3d 0f 1c f8 bc dd 36 8b 3d 27 bc 69 3d
       0.03313273 -0.030286817 0.06797574 0.0570642
0000d0 a8 8d 90 bc 34 2a 8c 3c 2a 19 2f 3d 92 f1 36 bd
       -0.017645672 0.017109968 0.042748608 -0.044663973
0000e0 e4 6b a7 3d d5 78 dd 3c 4c 15 d8 3b 90 34 48 3d
       0.081748754 0.027035156 0.0065943357 0.048878253
0000f0 dd ec 5b 3d 77 0f 6a bb af 73 2f 3d 65 60 39 3d
       0.053692687 -0.0035714784 0.042834934 0.045257945
000100 99 89 47 bc 33 e4 cc ba 9b f9 84 3d 43 9f 65 3c
       -0.012178802 -0.0015631974 0.06492921 0.014015022
000110 82 f5 60 bc aa 7d 01 3d 31 fa c3 ba 6c 41 d1 3c
       -0.013730409 0.031613983 -0.0014951882 0.02554389
000120 e7 07 bd 3d b4 ad c1 3d 00 eb 08 3d 68 fe ec 3a
       0.09230023 0.09456959 0.03342724 0.001808119
000130 61 b0 03 3c 59 6f 83 3d 64 e4 bb 3c ba 75 97 ba
       0.0080376575 0.06417722 0.022936054 -0.0011555471
000140 e6 9e 7b bb 67 d2 59 3c 98 99 31 3d f7 a3 f3 3a
       -0.0038394271 0.013294793 0.04335937 0.0018588294
000150 2a d0 8a 3d c5 67 29 3c bd e5 1e 3d 5a 6e ad bc
       0.067779854 0.010339682 0.038793314 -0.021170784
000160 8c 3a 89 3d 8f 8d 17 3d 82 26 bb bc b0 f9 19 3c
       0.0670062 0.037000235 -0.02284551 0.009397909
000170 56 28 75 bd 67 e3 9c 3d b1 80 f5 3c 49 c8 32 3d
       -0.05985292 0.07660561 0.029968591 0.043648038
000180 c6 af 18 bd f2 67 61 3d ff eb 07 3d 00 85 ce 3d
       -0.037277006 0.05503077 0.033184048 0.100839615
000190 38 da 54 3d d7 c9 83 3d 14 72 67 3d af 7b 74 bc
       0.051965922 0.06434982 0.056505278 -0.014922067
0001a0 18 b0 fc bb 63 43 18 3c c7 76 a5 3d d1 25 2d 3b
       -0.0077114217 0.00929341 0.080792956 0.0026420245
0001b0 f5 05 a1 3c c0 95 d2 3d f8 3a 82 3c 19 e7 d8 3c
       0.01965616 0.10282469 0.01589726 0.026477383
0001c0 f5 f3 36 3d a9 ac 1a bc ad e0 28 3d 64 a3 1c 3d
       0.04466625 -0.009440579 0.041229893 0.03824176
0001d0 61 f0 94 bc 47 30 23 3d ff 35 4a 3d 2b d8 c3 bc
       -0.018181028 0.039840963 0.0493679 -0.023906788
0001e0 da 92 08 3d 09 52 25 3d 1e d0 e9 3c 2c 93 f2 3c
       0.033343174 0.040361438 0.02854162 0.029611193
0001f0 11 e5 56 3d f3 eb eb 3c 26 ce ec 3c 18 d9 23 3d
       0.05246455 0.028799033 0.028906893 0.04000196

messages.W_query f4 [1, 128, 128]
000000 e1 9d 2c bd a4 86 a4 3d 30 84 db bd 5c 83 49 3b
       -0.042142753 0.08033493 -0.10718572 0.0030748462
000010 b7 1d 03 3c b2 27 72 bd bc 79 ba 3d 19 4a c4 bc
       0.00800269 -0.059119888 0.0910525 -0.023961114
000020 9f 3b af bd 2b 2f e0 bc a1 a8 85 bd a2 51 64 bd
       -0.08556294 -0.027366241 -0.06526304 -0.055741914
000030 74 9b 8c bc cb 8e bb 3d b2 a2 14 3d 8d 1d 52 3d
       -0.01716397 0.09158095 0.03628797 0.051297713
000040 ac e9 6f 3d 86 1d 4d 3c ce 52 aa bc e6 ac 2e 3d
       0.058572456 0.012519246 -0.020791437 0.042645358
000050 3a 2f 5b 3d 00 4a c2 3d 83 43 0d 3d 97 2d 31 bd
       0.053511836 0.09486771 0.034488212 -0.04325637
000060 8d 8b 2b bd 11 54 0f 3e 70 ed 99 3d da fc 48 3d
       -0.041881133 0.13996913 0.07515991 0.049069263
000070 fb b1 1c be dc a7 1e bd 15 9e b1 bd 39 47 be bd
       -0.15302269 -0.038734302 -0.0867273 -0.092909284
000080 24 c7 87 bc 4c ca e3 bd 46 79 da 3d 7a d6 8e bb
       -0.01657445 -0.111225694 0.10667662 -0.0043590637
000090 ea e8 cf bd 1a f7 5e be dc 14 29 bd e3 9a eb 3d
       -0.10151847 -0.2177395 -0.04127966 0.11504152
0000a0 2f 15 ae bd b6 82 9f bc 15 4c f4 bd 39 9c fb 3d
       -0.08500134 -0.019471508 -0.11928574 0.122856565
0000b0 be ad 90 bd e0 09 fc 3d 7b 3b 73 3a 9a 7c a0 bd
       -0.07064389 0.12306571 0.00092785776 -0.07836266
0000c0 a2 ac 1a b9 05 ad f4 3d 8d 1d 87 bd 6f 5d 96 bb
       -0.00014750895 0.11947063 -0.06597433 -0.004588775
0000d0 60 5b df 3d ab 32 7f 3d d3 d5 06 3e ca 4a 20 3e
       0.109061 0.06230418 0.13167505 0.1565353
0000e0 58 e3 13 3d 49 25 e8 bd 40 ce c3 bd fa a5 5e 3d
       0.036105484 -0.113352366 -0.095608234 0.054357506
0000f0 b0 78 29 be b8 f7 a7 bd b8 24 63 3c ff 72 52 3e
       -0.16549945 -0.082015455 0.013863735 0.2055168
000100 9d 89 9e 3b e4 5d d5 3c 4a 1c 7b bd 56 25 c9 bd
       0.004838182 0.026045747 -0.061306275 -0.098215744
000110 21 82 61 3d 91 d1 f5 3d d2 9d 86 bd 72 77 a1 bb
       0.05505574 0.12002862 -0.065730706 -0.004927569
000120 50 8a 30 3e e9 b3 57 bb 96 f6 d4 bc 4a 66 a7 3d
       0.17240262 -0.0032913631 -0.025996488 0.08173807
000130 51 e9 b4 3d 2b 87 06 3e c4 ff 6e 3b 53 e6 d7 bd
       0.08833564 0.131375 0.0036468366 -0.10541978
000140 bb 63 17 bd 35 10 40 3e b5 7c 04 be c9 fd 81 bd
       -0.036960345 0.18756182 -0.12938197 -0.06347234
000150 0e 29 0d be 81 d0 90 bd 35 cb 12 bc cf 9f cc bd
       -0.13785192 -0.07071019 -0.008959581 -0.099914186
000160 75 82 d1 3d 2e 7d 0f be a5 72 80 3d 9a 41 c8 3c
       0.10229961 -0.14012596 0.06271867 0.024445344
000170 3f 77 27 bd 58 73 0c be 97 38 6d bd 0f 5e 02 3e
       -0.040885206 -0.13715875 -0.057915296 0.12731193
000180 4f be aa bd c2 28 4d be ab ea e7 bc 28 50 aa bd
       -0.0833708 -0.20035079 -0.02831014 -0.0831607
000190 de 61 39 be 33 50 1e 3e e9 6a fa bd ab 3c 41 3e
       -0.1810374 0.15460281 -0.12227423 0.18870799
0001a0 ce 3b 90 3d 28 64 eb 3d 3c 66 09 3e 5c 1e 14 3d
       0.07042657 0.11493713 0.13417906 0.036161765
0001b0 be fc 5e bd 37 96 46 bd be c6 10 3e 3f e2 a3 bd
       -0.054440252 -0.0484831 0.14138314 -0.080021374
0001c0 50 1f 76 bd c3 77 95 bc 52 b1 1d bd e4 8b 18 bd
       -0.060088456 -0.018245583 -0.038499184 -0.037242785
0001d0 7d 19 64 3d c4 ff d8 3d e3 50 9e 3d fe b4 03 3d
       0.05568837 0.105956584 0.07730272 0.03215503
0001e0 13 55 66 bd 25 0a ef 3d 83 fb b3 3d 78 c3 e6 3c
       -0.056233477 0.11671857 0.087882064 0.028169379
0001f0 79 7a 57 3d 3b 08 f9 bc 34 47 84 bd 8f ce 77 3d
       0.052607033 -0.030399432 -0.064588934 0.060499724
000200 96 ee c6 bd 96 56 8a bd a8 c5 3c bd 48 f6 0f bd
       -0.097134754 -0.06754796 -0.046086937 -0.03514698
000210 f0 65 9e bd c1 e4 53 bd c3 bc 9c bb f2 b2 24 3d
       -0.07734287 -0.05173183 -0.0047832443 0.040209718
000220 a0 3f d6 bb 08 17 fa ba 60 a6 cd 3c 73 5a d3 3d
       -0.0065383464 -0.001908035 0.025103748 0.10319986
000230 c4 69 17 bc 68 b9 bf bb 17 0e 99 bc 29 93 01 bd
       -0.009241525 -0.0058509596 -0.018683476 -0.031634483
000240 57 fd 07 3d 57 70 b2 3c 65 e8 ab bc 99 59 fd bb
       0.033200588 0.021782083 -0.020984838 -0.007731628
000250 c0 46 fd 3d b1 fa ed bb f0 85 ea bd a0 be bd bd
       0.1236701 -0.0072625508 -0.11451328 -0.092648745
000260 2b b7 d4 bb a1 29 a9 bd 65 4d e0 3b 9b 84 c8 3c
       -0.006491562 -0.08259893 0.0068451636 0.024477294
000270 5e 4a 9a 3d 95 32 ad 3d 64 2c b3 3d ae 33 03 bd
       0.07533716 0.084569134 0.08748701 -0.032031707
000280 46 e0 1c 3e f9 c6 eb bd d6 87 a1 bd 30 4f b2 bc
       0.15319929 -0.115125604 -0.07887237 -0.021766275
000290 ae 9a 8b 3d fb e3 0c 3d cb 22 f3 bd f0 66 e1 bd
       0.06816612 0.034397107 -0.118718706 -0.11005962
0002a0 86 0b e5 3d b8 5d 1c bd 15 b5 aa 3d d7 21 03 be
       0.111838385 -0.038175315 0.0833532 -0.12805878
0002b0 70 31 88 3d 1f 3f bf bd d1 a8 c8 3d 33 19 9c 3d
       0.066500545 -0.09338211 0.09797824 0.07621994
0002c0 4f 5a 55 3d 09 bf c7 bd 60 2b 8d 3c 5b 65 8a 3d
       0.052088078 -0.09753234 0.017232597 0.06757613
0002d0 4d 48 37 bd 70 82 db 3d 5b 90 88 bd 65 55 e8 bd
       -0.044746686 0.10718238 -0.066681586 -0.11344413
0002e0 bd 11 aa bb e4 ec 64 3d f5 a3 ef bc 1e a9 2e 3d
       -0.005190103 0.05588998 -0.029252985 0.04264175
0002f0 ae 1f 83 3d 78 5e 30 bb 85 b2 9f 3c 37 81 c7 bc
       0.06402527 -0.0026911777 0.019494304 -0.024353607
000300 2c 01 49 3d c5 2e 97 3c d6 d4 5b be bd 36 60 3d
       0.049073383 0.018454919 -0.21467909 0.054739702
000310 08 7d 2c bc 53 3a f7 bd 31 fe 3c 3d fd 9a 1f 3e
       -0.010527857 -0.12071671 0.046140853 0.15586467
000320 2d 97 48 39 7f 4c ff 3c 40 bd 10 3d d0 27 5a bd
       0.00019129804 0.031164406 0.035336733 -0.053260624
000330 b0 8e 9f bc a2 f9 2a bd 36 ba 87 3d 94 2c 9e 39
       -0.019477218 -0.041741975 0.06627314 0.00030169322
000340 ea bc e5 bd 73 9d 07 be 60 95 b2 3d 16 57 67 bc
       -0.11217673 -0.13243656 0.08719897 -0.014119884
000350 e7 50 50 bb 12 20 04 3e 04 97 d3 bd 5e 47 eb 3d
       -0.0031786503 0.12902859 -0.10331538 0.114882216
000360 c7 7f 92 3b a0 ce 1b 3d bd dc e4 bb 40 fa 57 bd
       0.0044707987 0.03803885 -0.006984322 -0.05272889
000370 66 40 2e 3b 09 e2 e1 3d 99 8b b0 3d 5c f0 88 bb
       0.0026588677 0.11029441 0.08620376 -0.0041790437
000380 32 b6 f6 bc cb b8 a8 3d 69 96 04 bc ae bd 08 3c
       -0.030116174 0.082383715 -0.008092501 0.008346004
000390 d2 db c7 3d 82 bc ce bd 5e 1e 98 bc a7 f5 a0 3c
       0.09758724 -0.10094549 -0.018569168 0.019648386
0003a0 29 22 6c bd d8 ce 94 3c 9e 51 0a be 49 67 fd bd
       -0.057649765 0.018165037 -0.13507697 -0.12373216
0003b0 22 a6 80 3d 9c d9 68 3d 8a bc 33 bd ca 9b ec 3d
       0.06281687 0.056848153 -0.043880977 0.11553152
0003c0 3a c5 81 bd f9 b8 a1 3d 1f c2 f9 3d 92 a8 c0 bc
       -0.06336446 0.07896609 0.12195229 -0.02351788
0003d0 d5 bf a0 3d 8a 6d e1 bd f3 c6 b7 bd cc c4 91 3d
       0.07849089 -0.11007221 -0.089734934 0.07117614
0003e0 30 96 cf bc 67 f9 bf 3d 99 d2 08 be 9f ab 9f bd
       -0.02534017 0.093737416 -0.13361587 -0.07796406
0003f0 db 38 25 3b 8b 01 9c bc 73 ca 8b bd 45 53 c6 bc
       0.002521089 -0.019043704 -0.068257235 -0.024209628

messages.W_key f4 [1, 128, 128]
000000 1f 42 49 bd f6 2a be 3d ff 54 80 bd 88 49 93 3d
       -0.049135324 0.09285538 -0.06266212 0.07191759
000010 7a a2 d2 3c f1 c6 97 3c f5 cc 8d 3d d7 98 f4 bd
       0.02571224 0.01852748 0.06923858 -0.119432144
000020 ce 00 07 3d 8e 04 28 bd 98 2e a1 3d 77 3f 50 be
       0.03295975 -0.04101997 0.07870215 -0.2033671
000030 04 ad 9c bc b0 ac d2 bd 86 da ab 3d 5b 84 8f bc
       -0.019125469 -0.10286844 0.083912894 -0.017519167
000040 57 c6 26 bd 86 ab 6b 3c 6e f3 d3 3d 72 1f 01 3d
       -0.040716495 0.014384156 0.10349165 0.03152413
000050 f9 fa 3e bb 66 d0 0a 3e f9 8d 1f bd fd f5 e5 3c
       -0.002914129 0.1355606 -0.038953755 0.028071398
000060 29 99 01 bc 41 1b f6 3c 80 6d 9c 3c 28 ca 42 3d
       -0.007910051 0.030042293 0.019095182 0.047556072
000070 19 a2 ed bd 68 33 59 3d 75 a2 5a 3d 5e ce 25 bc
       -0.11603183 0.05302754 0.053377587 -0.010120003
000080 bf 68 1c 3d 74 5a 1e bd 58 81 1f 3c 24 86 bc 3d
       0.03818583 -0.03866048 0.009735428 0.09205273
000090 1c 86 5a 3d 48 81 0a be e2 d3 ec 3d eb ea 8f bc
       0.053350553 -0.1352588 0.11563851 -0.017568072
0000a0 61 8c af bd d3 4a c3 3d 6e 46 e4 bd 66 5d 87 bd
       -0.08571697 0.09535756 -0.11146246 -0.06609611
0000b0 20 ad 24 bd 9d 6d a0 3d 7e 63 96 3d 52 6e d0 bd
       -0.040204167 0.07833407 0.073431954 -0.10177292
0000c0 af 8f 27 bc 42 ca 7f 3d 8b ff 83 3d 88 b2 93 ba
       -0.010227128 0.062448747 0.06445225 -0.0011268416
0000d0 bd 93 69 3e 3a b7 17 bd 4e 80 83 bd 2e 6c 1c 3e
       0.22810264 -0.037039973 -0.064209566 0.15275642
0000e0 f9 68 97 bd 69 e9 4e bd 1a e4 ad 3d 57 41 6a bd
       -0.07393069 -0.050515566 0.084907725 -0.05719122
0000f0 e4 f9 84 bd d3 18 90 bd 1a 38 68 bd a3 fa 6f 3d
       -0.06492975 -0.07035985 -0.056694128 0.058588635
000100 f5 e2 79 3c 20 1d e0 3d ac 5e b3 bd b4 a5 e2 3d
       0.015251865 0.10943055 -0.087582916 0.110667616
000110 62 72 54 3d a5 3a 33 3d 23 ad 79 3c b4 96 fa bb
       0.051866896 0.0437571 0.015239033 -0.0076473597
000120 64 9f 81 bb 73 7a 27 3d bd 88 4f bb 3c 00 8b bd
       -0.0039557684 0.04088826 -0.0031667196 -0.06787154
000130 90 54 d9 3d 30 0d 75 bd 51 56 8a bc 44 2a 18 bd
       0.10611832 -0.05982703 -0.016886862 -0.037149683
000140 23 01 2f bc 1a dc 33 3e 01 1a 85 bd dc e8 4b bd
       -0.010681423 0.17564431 -0.064991005 -0.04978262
000150 30 48 52 3d 41 4e 4c bd 3a 0e 52 3d 70 94 ed bd
       0.051338375 -0.049879316 0.0512831 -0.11600578
000160 ee 49 96 bd 9e 62 0f 3d 1b 9d d9 3d ff 6a c2 3d
       -0.0733832 0.035006158 0.106256686 0.09493064
000170 d3 29 79 3d 6d 4d c8 3c 5b e0 ac bc b0 46 f5 3d
       0.060830902 0.024450982 -0.021103075 0.11976373
000180 30 5b 82 bd 71 c7 1f be 5f 6b d4 3d 55 cc b5 3d
       -0.06365049 -0.15603425 0.10372042 0.08876864
000190 b8 7d da bd d0 40 21 3c 68 02 df bc 7e 29 1f 3e
       -0.1066851 0.009842113 -0.027222827 0.15543172
0001a0 4c 3f ac 3d 05 cb dd 3b 44 55 70 3c 0e 81 96 3d
       0.084105104 0.0067685866 0.014668766 0.07348834
0001b0 55 e1 06 be 1a 4f cd 3c 2f c9 08 3e 1e 10 7a bd
       -0.13171895 0.025062133 0.13357995 -0.061050527
0001c0 a4 a0 9b bd d6 9e df 3c 9c cb 19 bc 37 c2 92 3d
       -0.07598999 0.027297419 -0.009386923 0.0716595
0001d0 f2 63 93 3d ca 06 85 bd 23 e7 83 ba df 39 b4 3d
       0.071967974 -0.064954355 -0.0010063391 0.088001005
0001e0 56 55 09 be bc ff ab bd 7e 45 d3 bb 9c 43 6c bc
       -0.1341146 -0.08398387 -0.006447493 -0.014420416
0001f0 0d f8 9d bd 02 e1 42 3d 57 92 f3 3c 55 2d eb 3d
       -0.077133276 0.047577865 0.029732866 0.11483256
000200 d0 12 eb bd 68 03 b0 3d dd bb a9 3d 7e d8 6e bd
       -0.114781976 0.085944 0.08287785 -0.05831193
000210 2a b7 0c be 53 10 87 bd 81 6a 2e 3c b2 c5 bf 3d
       -0.13741747 -0.065949105 0.01064551 0.09363879
000220 85 a2 2b 3c b4 ce 7c 3b 05 73 94 bd b6 2e 4e 3d
       0.010475759 0.0038575353 -0.07248501 0.050337516
000230 46 0c 9b bd ee b0 32 3d b0 22 04 be 10 be b0 bd
       -0.075707 0.043625765 -0.12903857 -0.086300015
000240 fc ec 51 bd ee 13 9e 3d d9 23 07 be 34 d6 39 3d
       -0.051251397 0.07718645 -0.13197269 0.045370296
000250 76 ac e9 3d 30 da 84 bd 3d 7d dc bd 5d 6d 8c 3d
       0.114098474 -0.064869285 -0.10766075 0.06856797
000260 d7 17 2c bd 42 e0 2a bc 7c 38 2d 3d 91 f9 95 bd
       -0.042014923 -0.010429444 0.042290196 -0.07322992
000270 f4 01 96 3d 77 5a 93 3d 2b 29 33 bc 64 54 99 bd
       0.07324591 0.07194989 -0.010935108 -0.07486799
000280 b9 f3 fa 3d 69 ed 21 3d 71 9d 50 bd 31 0b 9b 3d
       0.12253518 0.039533053 -0.050931398 0.07570494
000290 2c 49 31 3d 0b 5a e8 3b 6d bf 2d 3b 8d 30 7d 3d
       0.043282673 0.007090812 0.0026511804 0.06181388
0002a0 c1 3a b2 3d 22 6a 3e bd af eb 0c 3e 46 d4 79 bd
       0.08702613 -0.046487935 0.13761781 -0.060993455
0002b0 f2 26 a5 bc fa ec 73 bb 2b 24 50 bc 3d c1 2e 3c
       -0.020160172 -0.0037220106 -0.012703936 0.010666189
0002c0 cd 6e 17 3d 63 91 e5 3c 24 9f d7 bd fe 04 1c bc
       0.036970902 0.028023427 -0.105284005 -0.009522675
0002d0 c8 eb 12 be 6d 41 ed bc c1 94 56 bd 97 46 08 be
       -0.14347756 -0.028961862 -0.052387957 -0.13308178
0002e0 31 62 ea bd f4 0c 29 3d 9c fa d1 3d 1e f2 80 3d
       -0.1144451 0.04127212 0.10252878 0.0629618
0002f0 7a 78 b3 3d 45 c0 1f 3e de a6 91 bb 49 e4 ed bd
       0.087632135 0.15600689 -0.004444941 -0.116158076
000300 8f 31 83 3d ba e7 b1 bd aa f2 0f bd 8e 5d 20 bd
       0.06405937 -0.086867765 -0.03514353 -0.03915172
000310 95 11 c6 3c 53 1d 65 3d 0e 02 0c be 76 2f 5d 3d
       0.024178306 0.05593617 -0.13672659 0.05400034
000320 19 e3 8c bd 9c 15 95 bd 74 95 55 3c 16 e2 c7 3c
       -0.06879253 -0.07279512 0.013036121 0.024399798
000330 d8 a4 f4 bd 9e 0a 44 bc a6 1f 83 bc 5b c3 0c 3b
       -0.11945504 -0.011965422 -0.016006302 0.0021478746
000340 63 03 13 3d 58 9a 72 be 6f 5f 56 3e 2f 72 02 3c
       0.0358919 -0.2369169 0.20934843 0.007961794
000350 41 d2 28 bd 5d 7e 0c 3e 1e 5e 47 3d c4 a1 4d 3e
       -0.04121614 0.13720079 0.04867374 0.2008124
000360 ad 67 65 3d 8d 44 02 3d 83 ab c9 bd ca 08 b4 bd
       0.056007076 0.031803656 -0.098471664 -0.08790739
000370 ac 0c 2e 3c c2 ab 8e 3d e5 1f f2 3d a3 ad 2d bd
       0.010623138 0.06966354 0.1182249 -0.04240192
000380 6d a1 89 3c 05 6a d2 3d 76 e8 b3 bd cc 05 1c 3e
       0.016800607 0.10274128 -0.08784573 0.15236586
000390 c3 a5 cf 3d 74 39 ce bd 72 06 b4 bc 52 41 a2 bd
       0.101390384 -0.10069552 -0.02197573 -0.07922615
0003a0 de 29 1c 3d 3d 61 18 3d d7 dc e7 bd 80 90 d5 bd
       0.038125865 0.03720211 -0.11321419 -0.10427952
0003b0 09 d4 86 3c 9e af 05 3d 16 5e ea 39 c1 5b 91 3d
       0.016458528 0.032638185 0.00044702057 0.07097579
0003c0 ad ad 14 bd d5 ea d3 3c 97 3f 5a 3c b8 2d 88 3d
       -0.036298443 0.025868813 0.013320825 0.06649345
0003d0 c0 1e fd bd ac 6e 81 3b ce 96 2b 3d 46 6c cc bd
       -0.12359381 0.0039499607 0.041891865 -0.09981589
0003e0 c1 85 b6 3d 64 30 d0 bd 06 4a 49 bd 05 f2 8f 3c
       0.0891223 -0.1016548 -0.04914286 0.017571459
0003f0 ee a1 5a bd 0e bc a3 3d a6 27 71 3c f8 a7 02 be
       -0.053377084 0.07994853 0.014718926 -0.12759387

messages.W_val f4 [1, 128, 128]
000000 f6 fa 64 3d 13 84 a7 3d 97 1e 9f 3d a2 32 c2 3d
       0.055903398 0.08179488 0.077695064 0.09482314
000010 9e 76 9a bc 29 80 1e 3d 97 1d 92 bd cf 1c b3 3d
       -0.01885539 0.03869644 -0.0713455 0.08745729
000020 ea fc 1a 3b d4 f8 2b bd 1a 15 9f bd 9e 45 b0 3c
       0.0023649284 -0.041985348 -0.07767697 0.021517571
000030 96 a5 9a bd 69 bb 51 ba 95 e3 c1 3c 39 01 a3 bd
       -0.07551114 -0.00080006436 0.02366809 -0.079592176
000040 2e 80 d1 3c d6 5e 5b bd f0 fd a4 3d 62 6e 09 3d
       0.025573816 -0.05355724 0.08056247 0.033552535
000050 70 47 9b bd b2 f5 4a bd a8 87 54 bd 23 a1 dd bc
       -0.07581985 -0.04955072 -0.051887184 -0.027054375
000060 37 7a 43 3d a9 e2 d4 bd 53 92 8f bc d1 02 bf bc
       0.047723975 -0.103947945 -0.017525828 -0.023316773
000070 40 8b c9 3d 92 b1 fa bd e2 7f 56 3d 0f c8 15 bc
       0.09841013 -0.122409 0.052368052 -0.009141936
000080 83 16 53 bd cf 33 e4 3c 97 bf 42 bd 00 13 8f 3d
       -0.05153514 0.027856736 -0.047545996 0.06986046
000090 6e f4 91 bd 79 e4 66 3c e7 29 f7 bb 0d 75 06 be
       -0.071266994 0.014092558 -0.007542837 -0.13130589
0000a0 84 6c 3f bd a0 a1 0f 3d 35 91 54 3b 3e ae d6 3c
       -0.046734348 0.035066247 0.0032435183 0.026206132
0000b0 41 33 e4 bc eb ee 34 3d a3 49 24 3b 65 8b be bd
       -0.027856471 0.044173162 0.0025068305 -0.09303931
0000c0 31 40 b4 bd 1b 65 8e bd 25 5a e3 3d aa d1 13 3d
       -0.08801306 -0.06952878 0.11101178 0.036088623
0000d0 fc a9 55 3c 8c 4c af 3a 24 bb bd bc 4b e2 4c 3d
       0.013041016 0.0013374253 -0.023160525 0.050020497
0000e0 e8 87 4a 3b ca dd 30 39 da 3a 85 3c f3 8d 9d 3d
       0.003090376 0.00016867291 0.016263414 0.0769309
0000f0 ac 23 bc 3d b1 ca 35 bc f5 7a a4 3d c1 7d e9 3b
       0.09186491 -0.011095689 0.08031265 0.0071255867
000100 72 ff 7e bd 0e 51 55 3c 16 f5 ae bd e4 19 6d bc
       -0.06225533 0.013019813 -0.0854284 -0.014471505
000110 b6 1a 89 3d 51 59 d1 bd 96 22 88 bd 7b e3 bc 3c
       0.06694548 -0.10222114 -0.06647222 0.02305769
000120 3d e1 b1 bc 0f 92 7c bd fa 03 63 bd 79 13 4f 3d
       -0.021713847 -0.06166273 -0.055423714 0.05055568
000130 50 8f 7f 3d 48 1c bc 3c 4d d0 68 bc 8e 0f 10 bd
       0.062392533 0.022962704 -0.014209819 -0.035171084
000140 bf f8 a4 bd ca 29 14 3d a1 7d 48 3c a1 7d e6 bc
       -0.08055257 0.036172666 0.0122369835 -0.028136076
000150 fd 44 95 bd b5 4f e3 bd 65 e9 89 bd 00 d3 4a bd
       -0.07288549 -0.11099187 -0.067339696 -0.04951763
000160 a6 a9 64 bd c2 e9 70 3d 7e ea 1c bd 70 4d 1c bd
       -0.05582585 0.05881668 -0.038309567 -0.038159788
000170 82 e4 d6 3c af 1a 65 3c fc cf 27 3d f4 21 77 bc
       0.026232008 0.013983413 0.040969834 -0.015083779
000180 fb 69 94 3d da c0 a2 bd 79 1d 0b bd c1 70 b2 3c
       0.07246777 -0.0794694 -0.033963654 0.02178228
000190 9e de d1 ba cb 3d e9 3d 5e 08 62 bc ba e6 05 bd
       -0.001601178 0.11388739 -0.01379594 -0.03269074
0001a0 b7 79 b7 3c 00 1c 4c bc 90 6d 94 bd 7b 6e c9 bd
       0.022396905 -0.012457848 -0.0724746 -0.098355256
0001b0 d3 0f 8a 3d b0 d7 05 3d 0d a5 d6 3d 3e 74 2e 3d
       0.067412995 0.0326764 0.104807 0.042591326
0001c0 8f 1d 60 3d 33 eb 7f 3c 43 48 a4 3d 26 12 0f be
       0.05471569 0.015620041 0.08021595 -0.13971767
0001d0 49 19 4a bd 50 4e 8f 3d 5f ad 74 bb a3 4d 83 3d
       -0.04934052 0.06997359 -0.0037334783 0.064112924
0001e0 67 fb a0 bc 1a 25 60 3d 37 12 34 3d f4 35 4a bd
       -0.019651128 0.054722883 0.043962684 -0.04936786
0001f0 e8 1e 96 3d 4c 36 b2 3d bf 72 bc 3d 51 74 0e 3c
       0.07330114 0.087017626 0.092015736 0.008694724
000200 b1 77 75 bd 04 98 08 bd 1f 25 6c bd 9c b8 6b 3d
       -0.0599286 -0.0333481 -0.05765259 0.057549104
000210 a1 70 72 3d 59 8b 85 bd 53 9a e6 3c a2 25 85 3d
       0.059189443 -0.06520719 0.02814976 0.065013185
000220 1e 9d 0c 3d ed 1e 90 3d 7c bc c0 3b 3c 40 03 bd
       0.034329526 0.070371486 0.005881844 -0.03204368
000230 f6 62 95 3d c2 51 93 bd e3 b3 71 3a 8e d6 ea bc
       0.07294266 -0.071933284 0.00092202256 -0.02866676
000240 4a ca ef bc 61 b6 a5 3d 55 6b 85 bd 9d 75 d8 bc
       -0.029271264 0.08091427 -0.065146126 -0.02642327
000250 75 39 35 3b f0 0f b3 bd f8 26 4d bd 1b ce 06 3d
       0.0027652655 -0.08743274 -0.05008599 0.0329114
000260 3d 36 b8 3b c8 f6 83 bd 03 29 b0 bd c0 77 60 3d
       0.0056217 -0.06443554 -0.08601572 0.054801702
000270 72 f6 0f 3d 68 75 b3 bd d2 8a a3 3d ea 2f a0 bc
       0.035147138 -0.08762628 0.07985462 -0.019554097
000280 1d d3 62 bd 95 dd 66 3d d1 2a b8 3d 84 80 5f bd
       -0.055377115 0.05636366 0.089925416 -0.05456592
000290 09 cf 87 bd cc 7e 4f bc cb 8c bd 3d 6f ce 2f 3a
       -0.06631286 -0.012664508 0.0925537 0.0006706481
0002a0 8f cd 90 3d 8d 4e 8c 3d aa a7 36 3d 1f 8a ee bd
       0.07070457 0.0685092 0.04459349 -0.11647438
0002b0 46 20 e3 bc 16 85 9c 3d a9 2e 1a bd 1e f1 a2 bd
       -0.02772535 0.07642572 -0.037642155 -0.07956146
0002c0 d3 dd b4 bd 22 0a d3 3d d4 fc ed 3c 82 19 9b bd
       -0.08831372 0.10304667 0.029051222 -0.075732246
0002d0 8d e2 c2 3d 15 c3 93 3d 48 4b c8 bb d0 13 79 bc
       0.095158674 0.07214943 -0.00611249 -0.015202478
0002e0 83 d0 9f bc 5c da 3c bd fd bd 80 bd 55 a7 b8 3d
       -0.019508606 -0.04610668 -0.062862374 0.09016291
0002f0 83 02 8e bd 09 54 ee bb d6 3d b4 3d 2e e2 4e bd
       -0.06934073 -0.0072732014 0.08800857 -0.05050867
000300 68 0f a1 bd 4d db cb bc c7 ad e7 bd e4 76 fe 3b
       -0.07864267 -0.024884844 -0.11312442 0.0077656377
000310 b0 cf 32 3d ba 78 83 bc 3a a2 37 3d 6d 09 0a 3d
       0.043655097 -0.016048778 0.044832446 0.033700395
000320 90 e4 42 bd d5 b4 ee 3d 21 c1 cd 3c cf bf 0d 3e
       -0.047581255 0.11655585 0.025116505 0.138427
000330 7d 04 22 3c 76 af 8e bd d6 3d 46 3c a8 92 8f 3c
       0.009888765 -0.0696706 0.012099704 0.017525986
000340 fe 67 ae bd f6 d1 6c 3c 65 27 3c 3d 87 6f 8d bd
       -0.08515929 0.014454355 0.045936007 -0.06906038
000350 3f 21 b7 bd 48 83 09 3d 23 1d ae bd 92 3a e0 bb
       -0.08941888 0.033572465 -0.08501651 -0.0068429196
000360 72 4e bc 3b d4 f9 55 bc 1b 2b c9 3c ee ac c1 bd
       0.005746656 -0.013060052 0.024556687 -0.09456812
000370 f5 17 3a bc 1e 4c 43 3d 20 7e 99 bd de 0d 9b bd
       -0.011358251 0.047680013 -0.074947596 -0.07571004
000380 2d 54 af bd 9e a6 55 3d 90 ce b8 ba c4 a6 40 3d
       -0.08560977 0.05216085 -0.0014099646 0.04703404
000390 7b 3f a2 3d 0d 0a 83 3c 74 a9 73 bd 12 97 cf 3d
       0.07922264 0.015996004 -0.059487775 0.10136236
0003a0 f4 d6 f0 bc d3 55 04 3c f8 65 31 bd ad 4a fe 3c
       -0.029399373 0.008077103 -0.043310136 0.031041468
0003b0 7d 63 51 3d 68 dc bb bd 08 fd 0c 3d c7 4b 94 bd
       0.05112027 -0.091728985 0.034420997 -0.07241016
0003c0 c5 0a a6 3d 63 9d 7d bd 70 71 b4 bd b8 59 87 bd
       0.08107523 -0.061917674 -0.08810699 -0.06608909
0003d0 99 b4 08 bd 64 f3 7e bd 8a bc 80 bc fd 72 6b bc
       -0.033375356 -0.062243834 -0.015714902 -0.014370677
0003e0 d1 3c 3a bc 7a ed 71 3d 2d fe ca 3d 5a e1 11 bc
       -0.011367039 0.059064366 0.099117614 -0.008903826
0003f0 05 86 36 bc 40 35 0b 3d 44 f6 ab 3d e3 c4 99 bd
       -0.011140351 0.03398633 0.08396581 -0.07508256

messages.W_out f4 [1, 128, 128]
000000 55 d5 58 3d e9 3a b0 bd 5c a2 7b 3b 1d 1c d6 bc
       0.052937824 -0.08604986 0.0038396334 -0.026136452
000010 e0 a1 61 3d e6 31 ab 3d 3e fa 6a 3c 05 0e a6 bd
       0.055086017 0.08359127 0.014341889 -0.08108143
000020 28 22 6a bd 71 2c fd bd a5 b9 8d 3d 5f 75 f6 bb
       -0.05716148 -0.12361992 0.069201745 -0.007521316
000030 f7 cc 0e bc 7c fc ac bb 0f 20 85 bd 71 b3 9d bd
       -0.00871586 -0.005279122 -0.06500255 -0.07700241
000040 07 22 b1 bd a2 ed aa bd 7c 9f 98 3d 8c 48 2f 3d
       -0.08649068 -0.08346106 0.07452294 0.042793795
000050 00 4d 9d bd ac 4f 27 bc f5 a8 63 bd 36 b4 89 bd
       -0.07680702 -0.010211866 -0.05558105 -0.06723826
000060 88 7c d4 3c 3c 37 51 3d bf 74 8a bd 18 e5 5a bd
       0.025938287 0.051078066 -0.06760549 -0.053441137
000070 2f 87 c6 3c e7 f0 9e 3c 63 6d 82 3d 10 6a 6a bd
       0.024234382 0.01940198 0.0636852 -0.057230055
000080 15 34 54 bd 93 93 76 bd 43 a7 ab bd 3f b6 dd bc
       -0.05180748 -0.06019933 -0.08381512 -0.02706444
000090 eb b1 6f bd 90 ce f0 3c 0e 1c 7b bd e8 14 2a bc
       -0.058519285 0.029395372 -0.061306052 -0.010380961
0000a0 70 9d 4a 3d 57 18 93 3d e2 17 6d 3a 0f a6 a5 bd
       0.04946655 0.07182377 0.00090443913 -0.08088314
0000b0 ad 2d a3 3d 40 f1 62 bd b6 7b 11 3d 5f ec 1f 3d
       0.07967696 -0.055405855 0.03551837 0.03904378
0000c0 4e 12 a9 3d ff 4f 80 3d e6 77 6f bd 2e ec e3 3c
       0.082554445 0.06265258 -0.058463953 0.02782258
0000d0 4a 6e cb 3c 61 b1 82 bd 0a bf bf bd 02 7e 52 bc
       0.024832863 -0.063814886 -0.0936261 -0.012847425
0000e0 ea ce 53 bd b0 2c ba bc bc 1b 36 bd b0 11 f5 3c
       -0.051711 -0.022726387 -0.044460043 0.02991566
0000f0 1f 44 07 3d e6 e5 34 bd 9a 2d 98 bc b4 61 ea bc
       0.03302395 -0.04416456 -0.018576432 -0.028611042
000100 cf bb e4 3c 44 1b 24 3a e2 76 ee ba 1b c7 ff 3c
       0.027921585 0.00062601664 -0.0018193389 0.03122287
000110 d8 8c cc bd 68 e1 4e 3d 1e 1e b0 3d 5c ca a4 3d
       -0.09987801 0.050507933 0.085994944 0.080464095
000120 0d c0 8a bd 29 a4 84 bc 07 57 dd 3c 4c 3d ea 3d
       -0.06774912 -0.016191559 0.027019037 0.11437473
000130 1e d4 88 bd fd 88 92 3c 97 bf 84 bd b0 d9 fa bb
       -0.06681083 0.017887587 -0.06481855 -0.007655345
000140 b6 2f 98 bb b4 e3 c0 3c 8b db 37 3d ec 57 5b bd
       -0.0046443595 0.023546077 0.044887107 -0.053550646
000150 17 bd 60 bd e9 b5 6d bd 65 87 ec 3c 2c 5f d6 bc
       -0.05486783 -0.05803481 0.028873155 -0.026168428
000160 69 f7 cd 3d 55 d7 71 bd d9 ca 04 bd e4 74 38 bd
       0.10056955 -0.059043247 -0.032420013 -0.04503335
000170 8d d4 99 bd e8 af ae bc ba f7 28 bd 3d fc d4 bd
       -0.07511244 -0.021324113 -0.041251875 -0.10399673
000180 a2 07 11 bd 36 f8 56 3c f1 7f 6b bd 7e ea 78 bd
       -0.03540767 0.013120702 -0.05749506 -0.060770504
000190 55 63 8c bd 8a 8c 09 bd 72 6a 24 bd b9 b6 60 3d
       -0.068548836 -0.033581294 -0.040140577 0.054861758
0001a0 26 76 d7 bc d5 d1 af 3d 4e 61 88 bd 89 f1 6d bd
       -0.026301455 0.08584944 -0.066591844 -0.058091674
0001b0 94 fe e3 bd bf b8 16 bd b6 38 86 bd f3 f2 42 3d
       -0.11132541 -0.03679728 -0.065537855 0.047594976
0001c0 79 b5 80 3c 91 ab 62 3a 9a c1 43 bc cf a8 9e bd
       0.015711533 0.0008646781 -0.011948014 -0.077470414
0001d0 6f 7d 83 bd 8d c7 09 3d 86 73 c0 3d 72 27 f3 3c
       -0.06420409 0.033637572 0.09397034 0.029681895
0001e0 db 31 3a bd fc f0 78 bd f2 0d 40 bd ef fc f2 3c
       -0.045457702 -0.060776696 -0.0468883 0.029661624
0001f0 82 e2 8e bd 7a b3 c9 3c 1b af 1e bc 7c c1 bf 3d
       -0.06976797 0.024621714 -0.009685303 0.09363076
000200 c1 aa 98 3d 69 aa 9b ba ba 02 5c 3d ee 55 23 be
       0.07454444 -0.0011876348 0.053713538 -0.15950748
000210 e3 c7 d9 bc 5d 3b d8 bd 1a 5e c0 bd 8c 66 81 bd
       -0.026584571 -0.10558198 -0.093929484 -0.063183874
000220 a3 05 e8 bd f5 f2 11 3b 6a 3d e9 bd 68 b7 b5 bc
       -0.113292 0.0022270058 -0.11388667 -0.022182181
000230 46 2a 33 bd c2 1a 9b 3d fe 49 d9 3c e6 cd 0c be
       -0.043741487 0.07573463 0.02652454 -0.13750419
000240 7f 06 52 3d 3d 06 4c 3d af bd d3 bc 08 8f cd 3d
       0.051275726 0.049810637 -0.025847284 0.10037047
000250 3e 4d 65 3d 8f a0 40 bd a4 e9 42 3e e3 0c e1 3c
       0.055981867 -0.04702812 0.1903444 0.027471965
000260 67 4d 08 3e 54 14 21 bc c6 d1 e3 3b 53 19 0a 3d
       0.13310777 -0.009831507 0.006952497 0.033715557
000270 fc 68 4e bd 15 e8 05 3d f8 c2 b4 3d f5 76 09 3e
       -0.05039309 0.032692034 0.0882625 0.13424285
000280 f4 b9 5b bd 71 5c 89 3d dc 6b 16 bb 57 c6 08 3c
       -0.053644136 0.06707085 -0.0022952473 0.008348069
000290 77 b3 6a bd a1 0f 9d 3d ad 1c 68 3d fb 83 93 bc
       -0.057300057 0.076689966 0.056667972 -0.01800727
0002a0 0f aa 1c 3d cb a0 92 3d 51 e6 aa 3d dc 29 95 3d
       0.038248118 0.07159575 0.083447106 0.07283375
0002b0 de bb e9 bb 34 98 d3 bc f6 bb bc 3d d8 05 31 3c
       -0.007132991 -0.025829412 0.09215538 0.010804616
0002c0 18 13 09 bc f2 76 8a 3d 1e f9 2d 3d 09 58 4f 3d
       -0.008366369 0.06760968 0.042473905 0.050621066
0002d0 a3 22 9c 3d 9a bf d6 3d 39 a8 82 3c 71 a3 ed 3d
       0.07623794 0.10485764 0.015949355 0.116034396
0002e0 6a 7e 89 3d 85 83 b1 bd 27 43 63 3c de bd c2 3d
       0.06713565 -0.086676635 0.013870991 0.095088705
0002f0 a6 5a 2e bd b3 3e 0f be 2d 2c 15 bd 55 73 86 bd
       -0.042566918 -0.13988762 -0.036419082 -0.065649666
000300 44 7b bc bd 3b 49 4b bd c7 51 5e bd 92 d5 a3 bd
       -0.092031986 -0.049630385 -0.054277208 -0.0799972
000310 f2 6e 36 bd 1b cf 0f 3d ab b7 ee 3d 24 d7 0b 3d
       -0.0445394 0.03510962 0.11656126 0.03414072
000320 d7 c3 34 3d 7b 05 d1 3b 16 4d 38 bc be a8 1e 3e
       0.04413208 0.006378827 -0.0112488475 0.15494058
000330 b2 38 06 bd 73 c6 0f bc b3 88 76 bd 88 4b af 3d
       -0.032768913 -0.008775341 -0.06018896 0.08559328
000340 da d3 c8 3d f5 fb 12 3d d6 26 fd 3c c0 8b 22 3c
       0.098060325 0.035884816 0.030902307 0.009921014
000350 a5 2c 0a bd ed 1e a8 3d 9b 9d 2a 3d f3 1c 97 bd
       -0.033733983 0.082090236 0.04165421 -0.073785685
000360 d0 c4 47 3c d3 4c 01 3e 85 c9 3d bd f4 a0 3a 3d
       0.01219292 0.12626962 -0.046334762 0.045563653
000370 69 da ae bd 11 c3 8c bd 4b 35 12 3d 82 f1 e6 bc
       -0.08537752 -0.068731435 0.035695355 -0.028191332
000380 de 5c 5a bd 8f e3 8a bd 66 40 52 bd 82 b5 46 3c
       -0.05331122 -0.067816846 -0.051330946 0.012128236
000390 a5 1e b6 3d df e1 86 bd fb c4 0a 3d bb 42 38 bd
       0.08892564 -0.0658605 0.03387926 -0.044985514
0003a0 65 ae da bb 40 df 96 3c 25 ed e5 bd 4f c9 26 3d
       -0.0066736215 0.018417 -0.11226872 0.040719327
0003b0 0e 48 a6 bd f7 64 75 3d 16 c4 14 be 59 2f 63 bd
       -0.08119212 0.05991074 -0.14527926 -0.055465076
0003c0 5d 25 46 3d 5c ee df bc 61 59 04 3d 21 82 14 bd
       0.048375476 -0.027335338 0.0323118 -0.036256913
0003d0 8b 52 c2 3c 70 79 1f 3e 35 3a 01 3d a6 f3 9b 3d
       0.023721 0.15573668 0.03154965 0.076148316
0003e0 87 a4 06 3d 01 46 c9 bc b7 4a 72 3d f1 09 4f bb
       0.03287175 -0.024569513 0.059153285 -0.003159162
0003f0 f9 85 8c bd 40 79 98 bd 9c 47 b7 bd a4 6e c5 3d
       -0.06861491 -0.074450016 -0.08949205 0.09640244

update.0.weight f4 [128, 256]
000000 c6 13 2f 3d 40 d7 f2 bd 85 28 d9 bd 5d 0f 66 bd
       0.042743467 -0.11857462 -0.106034316 -0.056166995
000010 0e 82 55 bd 8a 3e 6f 3d 8c 0a 9a bb c1 c1 03 3e
       -0.052125983 0.05840925 -0.0047009643 0.1286688
000020 7c 3f 92 bd 50 e6 1d bc d9 a2 2d bd 67 49 25 bd
       -0.07141015 -0.00963743 -0.04239163 -0.040353205
000030 47 65 10 3e 18 04 1c be 87 69 3b bd 14 6d cf 3c
       0.14101134 -0.15235937 -0.045754936 0.025320567
000040 1c ae f7 3c 02 38 82 3c 6d a4 c4 3c 6a 9d 18 3d
       0.030234389 0.015895847 0.024004186 0.037259497
000050 f7 1a 83 bc 45 21 70 3d a1 5b b0 3d 7e f1 c7 3b
       -0.016004069 0.05862548 0.08611227 0.006101786
000060 63 5b 53 3b 80 5d 18 3c 8d 0c 0e be c3 b9 81 bd
       0.0032250516 0.009299636 -0.13871975 -0.06334259
000070 7b 82 b6 3c b3 77 b6 bd 42 42 77 bd 52 b4 3a 3c
       0.022279015 -0.089095496 -0.060365923 0.011395531
000080 04 ff b0 bd 3c dd 83 bd 3f c7 a0 3d bf bc 5e bd
       -0.0864239 -0.064386815 0.07850503 -0.05437922
000090 20 22 ee bd 69 49 5c 3e 59 cf 46 be 4a b9 8d ba
       -0.116276026 0.21512379 -0.19415034 -0.0010812667
0000a0 55 d8 5e bd 27 7b ff 3d 3e 47 f2 bc 68 1e 9a 3c
       -0.05440553 0.12474661 -0.029574987 0.018813327
0000b0 7b 7a fe bd f5 ad 7c bd c6 f1 d1 bc 83 7c 07 bd
       -0.12425705 -0.061689336 -0.025627982 -0.033077728
0000c0 02 c5 e9 bd 58 47 f9 bd 5e 38 a3 3d 72 1d c0 bd
       -0.114145294 -0.12171811 0.079697356 -0.09380616
0000d0 e6 e0 20 3d b0 80 99 bd 28 7b 48 be 1c 8a 00 3e
       0.03927698 -0.07495248 -0.1957823 0.12552685
0000e0 0f ee 17 3d 1e 3c 07 3e 81 ae 0a be 5c 1a 0e bd
       0.037092265 0.13206527 -0.1354313 -0.034693107
0000f0 61 cf 7a bd ea 33 3c 3d 8f 34 80 3d 9f 00 83 bc
       -0.06123293 0.045947947 0.06260025 -0.015991507
000100 2e 52 4a bd dd 35 e3 bc c4 37 9f 3c 41 a1 14 bd
       -0.04939478 -0.027735645 0.01943577 -0.036286596
000110 8f 70 5f 3d 0a 11 3c 3c 78 6a bb 3d d0 53 e7 bb
       0.054550704 0.011478672 0.09151167 -0.007059552
000120 92 08 23 3e 9f b8 12 3e 9d f2 3d 3d f2 08 c9 bd
       0.15921238 0.1432824 0.046373952 -0.09816159
000130 76 e9 fb bc 84 8f 0c 3e 72 73 40 3c 87 a7 04 be
       -0.030750971 0.13726622 0.011746274 -0.12954532
000140 10 4c cc bc 20 35 1f be 70 f0 91 bd d3 6b c3 bc
       -0.024938613 -0.1554761 -0.07125938 -0.023855126
000150 d7 fc 66 3e 17 f6 a1 bd 53 5c 09 bd a4 78 04 bd
       0.22557388 -0.07908266 -0.033535313 -0.032341614
000160 f7 18 0d 3e 1c ba 4b bd 3b 1c bf bc 24 f7 2f bc
       0.13779055 -0.049738035 -0.023328891 -0.010740075
000170 41 c1 da bd 30 fb 5e bd f2 b3 04 bd 94 2b e9 bc
       -0.106813915 -0.05443877 -0.03239817 -0.028463162
000180 dc ff 11 3b cb e4 61 3d 3f 3b 99 3d 2d 70 67 3d
       0.0022277748 0.055149835 0.074820034 0.056503464
000190 0c e7 c0 3d e2 7e fa 3c 27 d9 bf bd be a1 b4 bd
       0.09419069 0.03057808 -0.093675904 -0.088199124
0001a0 28 4e ee 3b 3e a4 56 bd 57 e7 bf bd 75 2d 43 bd
       0.0072725005 -0.052402727 -0.093702964 -0.047650773
0001b0 d1 a2 85 bd 66 1a d9 3c 5e c5 06 3c 7e 87 84 3d
       -0.065251954 0.026501846 0.008225767 0.064711556
0001c0 7f 93 3c be 23 a4 b6 3c a2 05 dd 3d 68 e3 83 bd
       -0.1841564 0.022295063 0.1079209 -0.06439859
0001d0 25 67 25 bd 5f e3 fa 3c 96 4f 80 bd fb 5d 4c 3d
       -0.04038157 0.030625997 -0.0626518 0.049894314
0001e0 0d 68 a8 3d f8 f4 b8 bc 9e 25 c2 3d 85 32 ed 3c
       0.08222971 -0.022577748 0.09479831 0.028954754
0001f0 48 9e 29 bd f6 c8 7e bd 29 2a 41 bd 89 fe d6 bd
       -0.041410714 -0.06220337 -0.047159348 -0.104977675
000200 73 fd 97 3d b0 58 28 3e 74 11 ef 3c 8d 9c fa bd
       0.074213885 0.16440082 0.029183127 -0.12236891
000210 d5 a6 87 3d 86 74 2c 3d 44 69 c5 3d ae 83 fa bc
       0.066236176 0.042103313 0.096392184 -0.030580368
000220 e4 f2 90 bc af a9 40 bd 6f 3d 1e 3c 2f 13 6f 3d
       -0.017693944 -0.047036823 0.009658202 0.058367904
000230 4a f3 9e 3d 3c 26 7d 3b 5a a7 25 ba 1a 0d 1a 3d
       0.077612475 0.0038627526 -0.0006319188 0.03761015
000240 37 9a 95 3d 5c 56 dd 3c 3d 16 d6 3c 80 a3 27 bd
       0.07304805 0.027018718 0.02613365 -0.04092741
000250 db 45 7a 3b e0 ee 4f bc 60 d3 af 3d 54 5f d4 3d
       0.003818861 -0.01269123 0.085852385 0.10369745
000260 21 ba 49 3c 06 88 c9 bd 21 fb 1d bd 6a 10 ce 3c
       0.012312443 -0.098403975 -0.038569573 0.025154311
000270 98 05 c0 3c 49 7f 25 bd dc 5b be 3c 7b ed 4d bc
       0.023440167 -0.04040459 0.023237161 -0.012568827
000280 d8 1f 12 3e f6 e8 ae bc d5 dd 9f 3d ea d3 4a 3d
       0.1426996 -0.021351319 0.07805983 0.049518503
000290 4a f7 34 3c 2e b6 50 bd 6c 2e a2 bd 5e 3b 09 bd
       0.011045286 -0.05095499 -0.079190105 -0.033503883
0002a0 70 86 38 3d 2e f5 78 3d 80 aa d0 ba f5 1c c5 3c
       0.045050085 0.060780697 -0.0015919954 0.02406166
0002b0 4d 80 a5 3d de f5 1d 3d 68 78 0b 3d ca a8 2a 3d
       0.08081112 0.038564555 0.034050375 0.041664876
0002c0 74 a8 70 bb 33 56 e2 bd 68 20 e6 3d c0 40 9c 3b
       -0.00367215 -0.110515974 0.1123665 0.004768461
0002d0 f2 b3 1f 3d 9c 32 80 3c c4 34 22 3d 7b 5b 49 3d
       0.03898997 0.015649132 0.039601102 0.04915951
0002e0 dd f5 81 3d d2 8e 2a 3d 3f 05 b9 3c 27 bb be bd
       0.06345723 0.04164011 0.02258551 -0.0931304
0002f0 69 ea c8 bd 09 6b 9c 3d e3 83 29 3d 15 4b 98 bd
       -0.09810335 0.07637603 0.041385543 -0.07436196
000300 70 87 e3 3c 31 ea 9f 3d 22 4c 6e 3d 95 5e 17 bc
       0.027774543 0.0780834 0.058178075 -0.009238859
000310 cb 38 0a bd 36 e6 b2 3b 14 d7 a9 bc 63 47 1f 3d
       -0.03374557 0.005459572 -0.02073244 0.03888644
000320 46 f6 ce bc 81 f1 5f 3c 5a 9e 07 3d 38 7a 71 3d
       -0.025263917 0.013668419 0.03311 0.058954448
000330 a5 cc 8f 3d b5 ec ae 3c 0a 45 1e be 96 4d 9b bd
       0.07021455 0.021353105 -0.15456024 -0.07583158
000340 71 d2 5b bd 07 76 c1 3d b4 16 92 bd d7 f8 15 be
       -0.05366749 0.0944634 -0.071332365 -0.14645706
000350 9c f7 c4 3d 76 77 5a bc 0a 0b dc 3b a4 ec 1c 3d
       0.0961754 -0.013334146 0.006715183 0.038311616
000360 7d 4f 13 3e 18 88 19 bd 96 7b 32 bd f6 76 9c 3d
       0.14385791 -0.037483305 -0.043574892 0.076398775
000370 88 1e 58 3d e8 e3 2a 3e ff 5b 5c bb 2a bc bd 3d
       0.052763492 0.16688502 -0.003362417 0.09264405
000380 09 36 3f 3d d3 52 28 3d b2 d9 14 be 9f 35 e0 bd
       0.04668239 0.041094612 -0.14536169 -0.109477274
000390 1d c4 0c 3d 4e 29 84 bd 20 a5 23 bc c4 fa 05 3e
       0.034366716 -0.06453191 -0.009988099 0.1308394
0003a0 69 1b a8 3d e1 16 ca bd 26 5c 48 bc 87 aa 82 bd
       0.08208353 -0.09867645 -0.012229001 -0.06380182
0003b0 eb b7 df 3c 30 4c 73 3d 2c 3d 3f bd 76 3c c1 3a
       0.027309379 0.05939883 -0.046689197 0.001474275
0003c0 79 6b d0 3d 30 65 ce 3b a8 8b 42 3d 4a 43 83 3d
       0.10176749 0.0062986836 0.047496468 0.06409319
0003d0 f9 57 93 bb eb e5 00 3d b0 99 e9 bd 30 ac af 3d
       -0.004496571 0.031469267 -0.11406267 0.08577764
0003e0 9a 92 cb bd 01 13 3d 3d 63 68 cc 3d 21 7a 61 3c
       -0.099400714 0.0461607 0.09980848 0.013762028
0003f0 c3 69 20 3b cd 66 d3 3d 0c 17 3e 3d 62 48 22 bd
       0.0024477101 0.10322342 0.046408698 -0.03961981

update.0.bias f4 [128]
000000 bc c4 84 3d 6b 92 30 3d 71 96 b0 3d fc 23 84 3d
       0.064828366 0.043108385 0.086224444 0.06452176
000010 2e 80 a1 bd e1 69 49 bc 1b 67 73 3c e8 2c a9 3d
       -0.078857765 -0.01229331 0.014856125 0.08260518
000020 cd b4 1a 3b 86 c0 fd 3c 33 65 06 bd bb 2c 84 3d
       0.00236063 0.030975591 -0.032811355 0.06453844
000030 82 0b ac 3d 1a 17 80 3d 34 85 6c 3d f8 3d 5a 3d
       0.084006324 0.06254406 0.05774422 0.053281754
000040 8e f0 b0 3c 7b 0a a6 3c ac 1e 9e 3b 91 75 b0 bd
       0.02159908 0.02026867 0.0048254337 -0.08616174
000050 50 55 0e bc 77 ba ee 3c df 96 2a 3d 8c 43 83 3b
       -0.008687332 0.029141648 0.041647788 0.004005855
000060 75 35 95 3d 92 11 17 3d 31 eb f6 3c 77 51 ed 3c
       0.07285587 0.03688199 0.030141445 0.02896951
000070 65 f0 10 bc fc 88 4d 3c ef 58 3e 3c 77 fb 81 3d
       -0.008846377 0.012544867 0.011617883 0.06346791
000080 01 ec 48 3d 99 3c bc bc 25 43 6d 3d a3 01 cd 3c
       0.049053196 -0.022978114 0.057925362 0.025025195
000090 05 72 67 bc 2a b1 81 3d 05 2b 04 bd 24 10 f1 3c
       -0.0141263055 0.063326195 -0.03226759 0.029426642
0000a0 89 24 91 3c 88 4d 44 3e 94 70 32 3d 3c 48 bc 3c
       0.017717617 0.19170201 0.043564394 0.022983663
0000b0 ad 25 c9 3c e1 ae b5 3d 1a 17 38 bd 97 03 2e 3d
       0.024554098 0.08871246 -0.044943906 0.042483892
0000c0 85 9e b5 3c 27 3b f4 ba da e0 a0 3d 59 12 87 3d
       0.022170315 -0.0018633351 0.07855387 0.065952964
0000d0 e7 d7 e7 3d c4 9c 82 3c a2 8b 2e bd 8f 23 49 bd
       0.11320477 0.015943892 -0.042613633 -0.049106177
0000e0 1a 20 35 3d 07 67 79 bc fc b9 8b bb 98 d6 82 bb
       0.044220068 -0.015222318 -0.0042641144 -0.0039928667
0000f0 17 35 d1 3d 07 06 3c bc 34 67 0b 3d 8e b4 46 3d
       0.10215204 -0.011476046 0.03403397 0.048512034
000100 d1 af f6 3c 14 97 43 ba e2 25 a6 3c 05 f6 b9 bb
       0.030113133 -0.0007461172 0.020281736 -0.0056750798
000110 da 63 c0 3c 7c fa 33 bb 57 5b 8c 3d 14 fb d4 3c
       0.023485113 -0.0027462533 0.06853359 0.02599863
000120 be 7f 86 3d 7b 11 0a 3d ee 59 97 3c 5b 69 91 3d
       0.06567334 0.033708077 0.018475499 0.07100173
000130 68 ce d8 bc 36 28 a6 3d a7 05 7e bc e7 15 26 bb
       -0.02646561 0.081131384 -0.015504277 -0.0025342645
000140 75 7e ee 3b 18 ef 02 3d 40 7a 10 bd 5f af e0 bc
       0.0072782584 0.0319663 -0.035272837 -0.027427373
000150 d8 bb 80 3d 09 0f 2a bd 86 78 1c 3d d5 ae a8 3d
       0.06285828 -0.041518245 0.038200878 0.082364716
000160 ee 67 39 bd 56 22 ce ba c2 de ce ba 8d 00 e9 3c
       -0.04526513 -0.0015726786 -0.001578294 0.028442645
000170 41 35 1f 3d 8a e5 f4 bb 0d a2 3b ba 9e 58 e5 3c
       0.038869146 -0.0074736523 -0.00071576313 0.027996358
000180 78 fc 57 3d 1b 8b 1c bd 76 92 bc 3d 4a 84 81 3d
       0.052731007 -0.0382186 0.09207623 0.0632406
000190 6c 9e 5b 3d 5c ae b8 3c cb 5f c5 3c 69 ec 2c 3d
       0.05361788 0.022544079 0.02409353 0.042217646
0001a0 46 2e ba bc c6 e7 e9 bb 2d 22 0a 3d e1 70 c9 3c
       -0.022727143 -0.0071382252 0.033724 0.024589958
0001b0 e4 7e 31 3d 38 a2 30 3d 37 62 8a 3c 6a c2 2c 3d
       0.043333903 0.043123454 0.016892536 0.042177595
0001c0 d2 b0 52 bc 07 ed 8a bd 44 05 ab 3c b2 63 14 3d
       -0.01285954 -0.06783491 0.020876534 0.03622789
0001d0 6c b2 9b bc 56 be 82 bc b7 d9 ae 3c e4 32 d7 3c
       -0.019005977 -0.0159599 0.021344049 0.026269384
0001e0 74 7a 0e 3d 3c b1 40 bc 3b 05 2a 3d 4c 1e 14 3d
       0.03478475 -0.011761006 0.041508894 0.036161706
0001f0 0a 5b 02 3c e1 99 33 3d 11 9c 5a 3d 18 f2 b6 3c
       0.007956276 0.043847922 0.053371493 0.022332236
