models/sf/na3_uc.pt (torch_old, 539969 bytes, 45 tensors)

encoder.0.weight f4 [128, 6]
0.07776068 0.04291212 -0.022450538 0.090260446 -0.15547587 0.13793294 0.029379709 0.10975113
-0.03571983 -0.061365277 -0.0071615814 -0.11587587 -0.07905767 0.086462475 -0.08907363 -0.157866
0.14119342 -0.06863912 -0.031522963 0.13647002 -0.058658022 -0.052355967 0.118544325 -0.10829923
-0.008560305 -0.10482168 -0.127533 -0.042950556 0.016483815 0.09482248 -0.13509989 -0.03356706
-0.023986628 0.01551655 0.05585641 0.083984375 -0.01052399 0.028776541 -0.13398807 0.014197684
0.10850612 0.10129181 -0.027287371 0.043331735 0.073259525 0.06721414 -0.15957865 -0.048719767
-0.06894515 0.100094095 -0.010185866 -0.035051916 -0.24970722 0.04217774 0.08615496 0.052803032
-0.126529 0.107095756 0.30650187 -0.048854634 0.02166976 -0.01932435 0.014508934 -0.05210994
0.11813693 0.0015176102 0.0402773 0.112704754 0.013528896 -0.02477623 -0.19520502 -0.06799341
0.053028405 -0.06795987 0.015036066 -0.09060058 -0.055449758 0.14483845 0.0039596627 0.0009916686
-0.06509854 0.101185635 0.13288884 0.015096674 -0.00024160052 0.009116799 -0.007892135 -0.09484465
0.18450703 -0.11555453 0.09243065 -0.054813888 0.1342635 -0.1378079 -0.15544756 0.03047445
0.13336962 -0.08031783 -0.11872086 -0.061513916 0.10421243 -0.14486484 0.06656134 0.031183856
0.002867203 -0.02971976 -0.11885964 -0.060926598 0.013702644 0.17433749 -0.013098507 0.12871589
-0.081393816 0.0025540662 0.06388268 0.011638712 0.16214125 0.028544363 -0.03402984 -0.0072856513
-0.0770044 -0.08547164 -0.11575743 0.15852654 0.09006401 -0.19111195 -0.088558495 0.04287145
-0.022982074 -0.041863285 -0.041393578 -0.07286242 0.064728364 -0.073981114 -0.07569741 -0.049500976
-0.12219741 -0.12261002 -0.031328868 0.00022740294 -0.058638994 -0.015272416 0.115246505 0.262049
-0.00047476985 0.07697408 0.0080936365 -0.027404884 0.050858125 0.21768627 -0.013478399 -0.05779799
0.10745368 0.1277033 -0.0726624 0.24875681 0.05475488 0.13495906 0.23960242 0.039257467
0.0546073 -0.051379643 0.0053827437 0.078814246 -0.09917216 -0.08391455 -0.060157754 0.12594177
-0.0046907677 0.24441728 -0.077762954 -0.118458554 0.115112044 -0.008961182 0.11563616 0.0121917045
0.081390046 -0.004877998 0.055315997 0.035832535 -0.029751187 -0.14185084 -0.021127997 0.048120275
-0.12849602 -0.046524215 -0.05377243 -0.03752076 -0.004251537 0.06644197 -0.06945746 -0.16800207
-0.09069709 0.054347757 0.082548834 0.21909389 -0.047259897 -0.07297255 -0.11828908 -0.1242614
-0.061411854 -0.17587507 0.0125168795 0.13996011 0.08397645 -0.0046973214 0.031732 0.03408888
0.061538942 -0.19036904 0.014826549 0.11139854 0.019577794 0.16282 0.07291222 -0.13635653
-0.056398254 0.030072749 -0.16359359 0.10548487 0.0074926475 0.15352835 0.107264474 -0.04860009
0.03647509 0.04170534 -0.124605425 -0.033767074 -0.09244111 -0.053889737 -0.067962185 -0.040238775
-0.29588056 0.07766831 0.03482125 -0.0050699958 -0.12533776 0.18977809 -0.14937979 -0.089223504
-0.115878455 -0.1260293 0.059507392 0.028241782 0.14941996 0.1632652 -0.02271903 0.013515954
0.05603288 -0.06794815 0.11240804 -0.013141128 -0.14282468 -0.096094936 -0.11685527 -0.18566026
00000000: fe40 9f3d 9fc4 2f3d 31ea b7bc 78da b83d
00000010: 1135 1fbe 4b3e 0d3e b7ad f03c 33c5 e03d
00000020: f54e 12bd 285a 7bbd b3ab eabb 5450 edbd
00000030: fde8 a1bd 3d13 b13d 3c6c b6bd a0a7 21be
00000040: 0295 103e ab92 8cbd 391e 01bd ccbe 0b3e
00000050: 6543 70bd 3673 56bd 5ec7 f23d fdcb ddbd
00000060: 8640 0cbc c0ac d6bd 0398 02be ecec 2fbd
00000070: 1109 873c 4a32 c23d a057 0abe 9d7d 09bd
00000080: 9b7f c4bc 2139 7e3c b1c9 643d 0000 ac3d
00000090: d06c 2cbc c8bc eb3c 2b34 09be 679d 683c
000000a0: 7538 de3d 1572 cf3d c489 dfbc 9e7c 313d
000000b0: 1709 963d 91a7 893d 9668 23be 618e 47bd
000000c0: 1d33 8dbd 22fe cc3d 9ee2 26bc 9992 0fbd
000000d0: 40b3 7fbe 91c2 2c3d 0372 b03d fe47 583d
000000e0: d190 01be 0555 db3d d0ed 9c3e cc1b 48bd
000000f0: c884 b13c 194e 9ebc e1b6 6d3c 3c71 55bd
00000100: c6f1 f13d 8cea c63a cff9 243d c0d1 e63d
00000110: 4da8 5d3c 85f7 cabc d3e3 47be 2140 8bbd
00000120: 5034 593d 8b2e 8bbd d559 763c cc8c b9bd
00000130: 491f 63bd 8850 143e 0fc0 813b e0fa 813a
00000140: 6252 85bd 6a3a cf3d 0314 083e 0a58 773c
00000150: 2556 7db9 a05e 153c 034e 01bc e93d c2bd
00000160: 69ef 3c3e daa7 ecbd 484c bd3d 8784 60bd
00000170: 5f7c 093e 841d 0dbe a52d 1fbe 8ea5 f93c
00000180: 0c92 083e ad7d a4bd ec23 f3bd 04f6 7bbd
00000190: 546d d53d 7357 14be 5051 883d 4975 ff3c
000001a0: afe7 3b3b db76 f3bc af6c f3bd 2b8e 79bd
000001b0: 0e81 603c 8785 323e 1f9b 56bc 19ce 033e
000001c0: cdb1 a6bd 1f62 273b ecd4 823d 4cb0 3e3c
000001d0: 5b08 263e ded5 e93c e062 0bbd 79bc eebb
000001e0: 7cb4 9dbd c10b afbd 3b12 edbd c854 223e
000001f0: 7b73 b83d dab2 43be 285e b5bd f999 2f3d
00000200: e744 bcbc d678 2bbd 508c 29bd e438 95bd
00000210: 4e90 843d 6983 97bd 3e07 9bbd 89c1 4abd
00000220: a342 fabd f61a fbbd b352 00bd 0373 6e39
00000230: 712f 70bd 2839 7abc 5c06 ec3d 492b 863e
00000240: 88ea f8b9 96a4 9d3d 2c9b 043c 3580 e0bc
00000250: 9c50 503d 26e9 5e3e 81d4 5cbc 96bd 6cbd
00000260: ad10 dc3d a7c4 023e 06d0 94bd 1bba 7e3e
00000270: a746 603d b532 0a3e 565a 753e 70cc 203d
00000280: e7ab 5f3d 7673 52bd ba61 b03b 5d69 a13d
00000290: c61a cbbd 64db abbd fa67 76bd e1f6 003e
000002a0: 03b5 99bb 8648 7a3e 2f42 9fbd 669a f2bd
000002b0: ddbf eb3d ecd1 12bc a7d2 ec3d b7bf 473c
000002c0: d3af a63d 9dd7 9fbb 0793 623d 23c5 123d
000002d0: c3b8 f3bc 5941 11be 9f14 adbc c419 453d
000002e0: 7694 03be 2d90 3ebd 7b40 5cbd 5eaf 19bd
000002f0: 7a50 8bbb ba12 883d b63f 8ebd bc08 2cbe
00000300: 65bf b9bd c19b 5e3d 5d0f a93d 265a 603e
00000310: 9893 41bd a272 95bd 8c41 f2bd c37c febd
00000320: ff8a 7bbd 9818 34be 9913 4d3c b451 0f3e
00000330: d8fb ab3d fdeb 99bb 6af9 013d c8a0 0b3d
00000340: 4210 7c3d 1af0 42be 0eeb 723c eb24 e43d
00000350: 9c61 a03c 49ba 263e 0153 953d 0ca1 0bbe
00000360: db01 67bd 205b f63c 1485 27be 7408 d83d
00000370: e284 f53b 8936 1d3e 7aad db3d e310 47bd
00000380: e766 153d 38d3 2a3d 2131 ffbd 584f 0abd
00000390: c451 bdbd 7cbb 5cbd c22f 8bbd 6ad1 24bd
000003a0: a87d 97be 9010 9f3d baa0 0e3d 3522 a6bb
000003b0: 8b58 00be 3055 423e 04f7 18be d0ba b6bd
000003c0: af51 edbd d30d 01be 06be 733d 4f5b e73c
000003d0: 8c01 193e fe2e 273e 421d babc 0572 5d3c
000003e0: bc82 653d 6628 8bbd 3036 e63d e34d 57bc
000003f0: a240 12be 6ccd c4bd d151 efbd b91d 3ebe

encoder.0.bias f4 [128]
0.015936213 0.03766968 -0.031831853 0.044648454 0.005956749 -0.015556176 0.032899074 0.044309035
0.015121741 0.04426596 0.04316859 0.032013718 0.001164249 0.011533355 0.051885378 0.013838238
0.03214336 0.026255816 0.010284999 0.01674007 0.009094177 0.039108563 0.039982963 -0.010077457
0.043264117 0.028894767 -0.0060224114 0.013906604 0.048936434 -0.033061452 0.021421073 0.01688089
0.027167419 0.008409176 0.044949386 0.019202858 0.008931294 0.011908911 0.033643786 0.029217644
0.041413814 -0.026787939 0.016166866 0.02571492 -0.010270279 0.02039596 0.034984387 0.047038782
0.040729564 -0.028295109 0.0368702 0.013249714 -0.0023914566 0.031637866 0.030903596 -0.027358504
0.05257164 0.011068355 0.0143661555 0.034207255 0.0358224 0.016173357 0.023485493 0.028299734
0.016524592 0.010900166 0.036049165 0.03585131 0.023767583 0.04304216 0.005826662 0.015912523
0.060647253 0.04485727 0.02857176 0.025651459 0.016543586 0.038015813 0.03644419 0.017729819
0.00797067 0.018973503 0.035976738 0.02309836 0.02218034 0.023214849 0.030992437 0.0037697197
0.040368933 0.040696535 -0.0010282913 0.021477656 -0.0073436564 0.040164445 0.0034016306 0.048286412
-0.007553286 0.03937115 0.045724466 0.06085714 0.03651216 0.031500533 0.035031583 -0.022295505
0.016646424 0.0119158225 0.04288745 0.01407503 0.03432254 0.05750503 0.036667608 0.012106066
0.0024832047 0.014196074 0.019667177 0.029124532 0.0045535197 0.03213555 0.035496395 0.005823336
0.013124883 0.027963031 0.0328298 0.02897646 0.04361498 0.031437263 0.024773488 0.034275655
00000000: a98c 823c 864b 1a3d 1e62 02bd 4ce1 363d
00000010: d530 c33b 55df 7ebc 2ec1 063d 647d 353d
00000020: 2ec1 773c 3950 353d 8cd1 303d d120 033d
00000030: b799 983a 66f6 3c3c c385 543d c7b9 623c
00000040: c1a8 033d 7016 d73c 6a82 283c 7922 893c
00000050: beff 143c 4d30 203d 2dc5 233d eb1b 25bc
00000060: b735 313d b8b4 ec3c a657 c5bb 86d8 633c
00000070: 9271 483d 726b 07bd 3f7b af3c cb49 8a3c
00000080: 358e de3c a4c6 093c d91c 383d 504f 9d3c
00000090: 9054 123c 981d 433c 11ce 093d d759 ef3c
000000a0: 88a1 293d 6172 dbbc 6070 843c 19a8 d23c
000000b0: ac44 28bc 6e15 a73c ca4b 0f3d bdab 403d
000000c0: 0bd4 263d 25cb e7bc 3505 173d 5415 593c
000000d0: fcb9 1cbb b596 013d 8a29 fd3c f11e e0bc
000000e0: 5c55 573d 0c58 353c 0660 6b3c e81c 0c3d
000000f0: 82ba 123d fd7d 843c a664 c03c d8d4 e73c
00000100: 955e 873c 9c96 323c 4aa8 133d d3d8 123d
00000110: 3cb4 c23c fa4c 303d 95ed be3b fb5a 823c
00000120: 4169 783d 42bc 373d 530f ea3c 0223 d23c
00000130: 6a86 873c 78b6 1b3d 8146 153d 203e 913c
00000140: 6a97 023c 526e 9b3c 585c 133d c638 bd3c
00000150: 8bb3 b53c 112d be3c dae3 fd3c 670d 773b
00000160: e559 253d 69b1 263d bbc7 86ba e9f1 af3c
00000170: 0ea3 f0bb 7983 243d e4ed 5e3b f9c7 453d
00000180: 8e81 f7bb a543 213d 9449 3b3d 5645 793d
00000190: c68d 153d b406 013d 477d 0f3d 10a5 b6bc
000001a0: 155e 883c 953a 433c c0aa 2f3d f49a 663c
000001b0: cb95 0c3d 658a 6b3d c630 163d 8558 463c
000001c0: 43bd 223b a696 683c 0f1d a13c 9296 ee3c
000001d0: b135 953b 91a0 033d ab64 113d afd1 be3b
000001e0: c009 573c ba12 e53c 8a78 063d 0b60 ed3c
000001f0: 9fa5 323d 5cc4 003d c5f1 ca3c a164 0c3d

messages.W_query f4 [1, 128, 128]
-0.094631016 0.08455177 -0.053867266 -0.006848482 -0.03371409 -0.06628299 0.01603928 0.00088452885
-0.06334833 -0.028559985 -0.08034966 -0.020659773 0.0054174773 0.0739562 -0.013457281 -0.0008953379
0.034426823 0.01565595 -0.042440716 0.062432416 0.09221285 0.014382464 0.035542145 -0.062981956
-0.033461593 0.13020214 0.08792357 0.037902668 -0.10710348 -0.014679502 -0.0666695 -0.10653756
0.022390824 -0.1294858 0.092774555 -0.0021134932 -0.082330756 -0.15086983 -0.06385298 0.09912666
-0.070166774 -0.012205916 -0.061857883 0.096204504 -0.061710913 0.032877084 0.04126467 -0.017545179
0.031819962 0.09725364 -0.10395608 -0.04103999 0.07875695 0.102462724 0.1560812 0.10977695
0.019918267 -0.11527081 -0.07760492 0.06592367 -0.14193645 -0.024165133 0.01757944 0.16371837
0.041298207 0.00057370594 -0.10191961 -0.11091133 0.043799482 0.12840414 -0.08026392 0.028546553
0.13183355 -0.008187824 -0.012605392 0.08935766 0.05478138 0.13644986 0.028414218 -0.09135081
-0.0078039854 0.14199641 -0.094796605 -0.03793555 -0.121309824 -0.04773878 -0.005899139 -0.061816055
0.13138798 -0.13006695 0.0007564946 -0.034307912 -0.017783206 -0.09107313 -0.007140538 0.10406309
-0.023800585 -0.14697058 -0.09537289 -0.063084595 -0.15274397 0.1308106 -0.15890051 0.13222028
0.09008172 0.10433283 0.10710634 -0.00492264 -0.035517983 -0.022032287 0.07991376 -0.062878236
-0.03757547 0.00687942 -0.032524683 -0.03708281 -0.0028926954 0.09572987 0.069069766 0.016369846
-0.022674251 0.12116987 0.06801907 0.018057102 0.05931703 -0.01955759 -0.07163681 -0.0009503562
-0.089789316 -0.07625505 -0.04044837 -0.055974323 -0.08747104 -0.053032055 0.015241974 0.047589976
0.0005997524 -0.022042334 0.022844544 0.10713298 -0.032212935 0.014997935 -0.046958003 -0.024365315
0.03381204 0.011894887 -0.019864412 0.011416747 0.11436305 -0.004647767 -0.10376579 -0.073371135
0.0042953906 -0.09183605 0.03903175 0.028153775 0.08604818 0.08223043 0.08525127 -0.043133315
0.15199246 -0.10020576 -0.07790469 -0.030945314 0.057334434 0.03027021 -0.13080177 -0.103501305
0.11758955 -0.04703902 0.09101144 -0.12315678 0.07111924 -0.092598565 0.06777871 0.07844676
0.055299 -0.09659611 0.0061305887 0.03740647 -0.049897056 0.088381454 -0.061017863 -0.11251856
-0.051458523 0.059212364 -0.0042849304 0.043370288 0.06902547 -0.008346991 0.03620568 -0.024224252
0.028775616 0.013923184 -0.15675646 0.04353139 -0.0152860405 -0.08739268 0.048402935 0.15745054
0.0024246795 0.013692991 0.042994466 -0.031305604 -0.027424728 -0.05197273 0.054821063 0.0020111802
-0.10562619 -0.13536489 0.096596815 -0.017618446 0.0011703856 0.13731004 -0.11818326 0.11642391
-0.006962445 0.050476324 -0.014292477 -0.020181734 0.0058558765 0.085609734 0.067253396 -0.004562097
-0.05960182 0.08644682 0.012522492 0.008111688 0.09215612 -0.09610901 -0.030659722 0.009880375
-0.02859387 0.008337353 -0.1291635 -0.12098526 0.07270094 0.061023317 -0.04831081 0.102576405
-0.03892563 0.039304048 0.089307256 -0.015478977 0.06129113 -0.10552208 -0.08817077 0.06477793
-0.010743054 0.08247073 -0.13570301 -0.083716705 0.017709779 -0.023692144 -0.05656419 -0.026133535
00000000: e8cd c1bd 7a29 ad3d eca3 5cbd 3b69 e0bb
00000010: c917 0abd 60bf 87bd cf64 833c badf 673a
00000020: c5bc 81bd a1f6 e9bc 5d8e a4bd af3e a9bc
00000030: 1885 b13b 5976 973d ed7b 5cbc 1cb5 6aba
00000040: 2403 0d3d e840 803c 51d6 2dbd 22b9 7f3d
00000050: 17da bc3d 6da4 6b3c a494 113d affc 80bd
00000060: 060f 09bd b653 053e 4611 b43d d43f 1b3d
00000070: 1259 dbbd 4b82 70bc 058a 88bd 5d30 dabd
00000080: f66c b73c ed97 04be 9600 be3d 8882 0abb
00000090: 079d a8bd 9f7d 1abe 5ac5 82bd eb02 cb3d
000000a0: 99b3 8fbd 53fb 47bc b15e 7dbd de06 c53d
000000b0: 95c4 7cbd 1faa 063d 2505 293d e8ba 8fbc
000000c0: a655 023d eb2c c73d ede6 d4bd 8c19 28bd
000000d0: 534b a13d fad7 d13d c0d3 1f3e bdd2 e03d
000000e0: a22b a33c 1a13 ecbd 54ef 9ebd fd02 873d
000000f0: ca57 11be f5f5 c5bc c202 903c caa5 273e
00000100: 4f28 293d c164 163a 3abb d0bd 7b25 e3bd
00000110: 1667 333d 607c 033e 6961 a4bd 76da e93c
00000120: 60ff 063e 3926 06bc d986 4ebc 2601 b73d
00000130: 7162 603d 83b9 0b3e efc4 e83c 2216 bbbd
00000140: 93b8 ffbb 8267 113e b924 c2bd 4f62 1bbd
00000150: 4971 f8bd bd89 43bd 914d c1bb d532 7dbd
00000160: 928a 063e 4530 05be 7e4f 463a 7486 0cbd
00000170: 16ae 91bc 8d84 babd 2dfb e9bb 081f d53d
00000180: 72f9 c2bc 757f 16be dd52 c3bd 7f32 81bd
00000190: ea68 1cbe 37f3 053e d1b6 22be c164 073e
000001a0: c47c b83d 73ac d53d 925a db3d 194e a1bb
000001b0: 4e7b 11bd 0e7d b4bc d3a9 a33d 4ec6 80bd
000001c0: bce8 19bd c26c e13b 9a38 05bd 25e4 17bd
000001d0: 6093 3dbb 060e c43d 7374 8d3d 0e1a 863c
000001e0: 5abf b9bc e927 f83d 954d 8b3d 7dec 933c
000001f0: 6af6 723d 3d37 a0bc 52b6 92bd 5321 79ba
00000200: 76e3 b7bd 9c2b 9cbd 31ad 25bd 5545 65bd
00000210: 0424 b3bd 2438 59bd 79b9 793c b5ed 423d
00000220: b438 1d3a 2092 b4bc 7b24 bb3c 8968 db3d
00000230: b6f1 03bd e6b9 753c 0957 40bd c599 c7bc
00000240: 7e7e 0a3d c6e2 423c b1ba a2bc 4f0d 3b3c
00000250: 2d37 ea3d 4c4c 98bb 2983 d4bd 9b43 96bd
00000260: 59c0 8c3b 8a14 bcbd c2df 1f3d bfa2 e63c
00000270: 073a b03d 6d68 a83d 3898 ae3d 8fac 30bd
00000280: e9a3 1b3e ad38 cdbd 7e8c 9fbd 0781 fdbc
00000290: 83d7 6a3d 3bf9 f73c e6f0 05be 7ef8 d3bd
000002a0: cad2 f03d fdab 40bd 3564 ba3d 9f39 fcbd
000002b0: f7a6 913d 51a4 bdbd 90cf 8a3d b2a8 a03d
000002c0: 3481 623d 2ed4 c5bd 1be3 c83b 8737 193d
000002d0: db60 4cbd 5601 b53d deed 79bd 2170 e6bd
000002e0: 2cc6 52bd aa88 723d 9a68 8cbb 0ba5 313d
000002f0: 3a5d 8d3d d1c1 08bc 684c 143d f071 c6bc
00000300: d7ba eb3c 111e 643c c484 20be f94d 323d
00000310: 4d72 7abc effa b2bd 2842 463d b73a 213e
00000320: 5fe7 1e3b 9158 603c f71a 303d 4e3a 00bd
00000330: d3a9 e0bc 5be1 54bd 0d8c 603d 01ce 033b
00000340: 8b52 d8bd 189d 0abe 8dd4 c53d 8f54 90bc
00000350: a067 993a 019b 0c3e 110a f2bd a96f ee3d
00000360: 3925 e4bb 43c0 4e3d fe2a 6abc 2a54 a5bc
00000370: a7e2 bf3b 2854 af3d 26bc 893d a57d 95bb
00000380: 0a21 74bd 080b b13d 232b 4d3c e3e6 043c
00000390: 59bc bc3d cdd4 c4bd 192a fbbc 4ce1 213c
000003a0: b13d eabc 6599 083c 7043 04be 1fc7 f7bd
000003b0: 3be4 943d 96f3 793d 8ee1 45bd 9413 d23d
000003c0: 7b70 1fbd 48fd 203d b9e6 b63d 899b 7dbc
000003d0: 680c 7b3d f61b d8bd e092 b4bd 4baa 843d
000003e0: a203 30bc 6ae6 a83d bbf5 0abe aa73 abbd
000003f0: 1914 913c 0716 c2bc daaf 67bd ff15 d6bc

messages.W_key f4 [1, 128, 128]
-0.043141894 0.11340879 -0.07470921 0.09724464 0.04190582 0.037662294 0.072661474 -0.14623153
0.041531384 -0.0142190205 0.090234704 -0.19027342 0.004642202 -0.11603247 0.10434215 -0.01111407
-0.03402955 0.015866628 0.088579975 0.016565973 0.0287091 0.13551274 -0.065981135 0.03196845
-0.037923645 0.0135296425 -0.007883354 0.018091418 -0.13717529 0.055133607 0.04237572 0.011922598
0.06023707 -0.066807866 0.006547456 0.11883574 0.075775094 -0.15566301 0.10047234 -0.022972696
-0.07186807 0.07641324 -0.13239706 -0.086911835 -0.059823193 0.09090916 0.10169663 -0.12639011
-0.017284486 0.0384769 0.087822 0.02290145 0.2365252 -0.009671077 -0.08725122 0.1635765
-0.05027367 -0.020046389 0.053896807 -0.08377687 -0.04092139 -0.07791418 -0.06279929 0.03794702
0.049108878 0.11811756 -0.10354737 0.13032246 0.039631024 0.031022843 0.0102258995 0.010036237
-0.02815926 0.063956596 -0.026424956 -0.083808064 0.091210894 -0.0758962 -0.035300933 -0.052203733
-0.024605768 0.17672817 -0.084877335 -0.06913418 0.07111576 -0.0551552 0.07761467 -0.099858485
-0.092870586 0.04375798 0.12450271 0.06856981 0.058453593 0.053419422 -0.03818147 0.10031919
-0.03237158 -0.16869207 0.102554485 0.07342101 -0.08394657 -0.01612776 -0.009725843 0.17494808
0.058515392 -0.013652454 -0.016160855 0.09805345 -0.158506 -0.007504563 0.14661127 -0.052294284
-0.09096926 0.051102985 0.0142273735 0.04548995 0.08939407 -0.08263896 -0.028322965 0.06507519
-0.14850444 -0.065773055 -0.018886559 0.02137292 -0.10516491 0.06211655 0.07637544 0.12648965
-0.09729346 0.091058955 0.044899117 -0.04778821 -0.10755241 -0.0818933 0.05103059 0.063958414
-0.033100948 0.00880974 -0.08352645 0.010325942 -0.09551973 0.054093495 -0.10868383 -0.06504239
-0.061640926 0.0910385 -0.1098929 0.036620706 0.10540465 -0.040701497 -0.10753443 0.08175135
-0.06572546 0.014365342 0.043101057 -0.042722095 0.060265545 0.049686063 -0.07120754 -0.088051334
0.10589427 0.03666958 -0.044202417 0.0744079 0.03307704 -0.018622357 0.013785619 0.081149936
0.032573353 -0.042873945 0.11322745 -0.024550097 -0.0769273 0.024427636 -0.023328755 -0.0020162715
0.0070215613 0.04194514 -0.10516803 -0.0046632485 -0.09766615 -0.03513382 -0.0330265 -0.08975514
-0.10028033 0.026465755 0.08880218 0.057968035 0.0677503 0.11452604 -0.052257 -0.08584471
0.054381043 -0.033491187 -0.031219365 -0.037974756 0.04704286 0.06451778 -0.13748513 0.053000696
-0.051758826 -0.031164335 0.00656503 0.03450415 -0.08510782 0.016233653 -0.042013917 -0.0104225
-0.013826566 -0.19228435 0.19274724 -0.03594033 -0.0655529 0.13349165 0.048712026 0.15329514
0.051222626 -0.0070161903 -0.08818061 -0.08424697 -0.015887573 0.05384992 0.11385448 -0.009856808
-0.017338831 0.05389717 -0.0815015 0.16540131 0.07291937 -0.086298645 -0.032929055 -0.058757402
0.04658572 0.07237478 -0.09071532 -0.096526325 -0.031257026 0.036922578 0.03629348 0.057926428
-0.058270592 0.046923365 0.0011414891 0.07665128 -0.10505985 0.0037000685 0.05551397 -0.08265618
0.05120506 -0.0779947 -0.02783187 0.037397195 -0.037252046 0.05881294 0.011602643 -0.08410598
00000000: 8eb5 30bd de42 e83d 2401 99bd 3328 c73d
00000010: 70a5 2b3d c743 1a3d 8acf 943d b8bd 15be
00000020: d01c 2a3d e5f6 68bc f9cc b83d 09d7 42be
00000030: 9d1d 983b 6ea2 edbd 56b1 d53d ca17 36bc
00000040: 9262 0bbd bbfa 813c 6b69 b53d 5db5 873c
00000050: 592f eb3c dac3 0a3e 1e21 87bd 59f1 023d
00000060: d355 1bbd 6fab 5d3c 2f29 01bc 7434 943c
00000070: ae77 0cbe c7d3 613d 2a92 2d3d 0057 433c
00000080: 25bb 763d 90d2 88bd 0b8c d63b 2760 f33d
00000090: f92f 9b3d 2066 1fbe 71c4 cd3d 3c31 bcbc
000000a0: 912f 93bd 8b7e 9c3d 1893 07be d5fe b1bd
000000b0: 2a09 75bd 952e ba3d 5346 d03d 696c 01be
000000c0: 3298 8dbc f499 1d3d 05dc b33d d29b bb3c
000000d0: a933 723e 7073 1ebc c5b0 b2bd 9980 273e
000000e0: c4eb 4dbd 5338 a4bc e6c2 5c3d 3593 abbd
000000f0: 309d 27bd 7891 9fbd ea9c 80bd 566e 1b3d
00000100: 6426 493d 9fe7 f13d a510 d4bd 4073 053e
00000110: 2454 223d 9e23 fe3c 888a 273c 076f 243c
00000120: 40ae e6bc adfb 823d 2679 d8bc 90a3 abbd
00000130: c7cc ba3d 786f 9bbd b697 10bd 95d3 55bd
00000140: 0992 c9bc 3bf8 343e 2bd4 adbd 3996 8dbd
00000150: 24a5 913d 6bea 61bd 71f4 9e3d 9b82 ccbd
00000160: ef32 bebd 913b 333d 47fb fe3d 546e 8c3d
00000170: 096d 6f3d 53ce 5a3d 2c64 1cbd 2674 cd3d
00000180: 1098 04bd 9dbd 2cbe 1608 d23d c15d 963d
00000190: 2eec abbd 5d1e 84bc 2459 1fbc 9725 333e
000001a0: d6ad 6f3d 8bae 5fbc c563 84bc 3fd0 c83d
000001b0: 664f 22be d6e8 f5bb 4421 163e 8832 56bd
000001c0: 174e babd 5d51 513d ee19 693c ab53 3a3d
000001d0: 3d14 b73d 9d3e a9bd 9005 e8bc 2446 853d
000001e0: 8c11 18be 06b4 86bd fcb7 9abc 4316 af3c
000001f0: b360 d7bd ec6d 7e3d ba6a 9c3d 8186 013e
00000200: cb41 c7bd 1e7d ba3d 23e8 373d 92bd 43bd
00000210: 7044 dcbd adb7 a7bd 7405 513d a1fc 823d
00000220: dc94 07bd ba56 103c ea0f abbd 242e 293c
00000230: d99f c3bd 2491 5d3d a195 debd f234 85bd
00000240: 327b 7cbd 6572 ba3d 870f e1bd 98ff 153d
00000250: 65de d73d 9db6 26bd 033b dcbd 406d a73d
00000260: 129b 86bd 9d5c 6b3c bc8a 303d 5dfd 2ebd
00000270: 01d9 763d 9d83 4b3d 42d5 91bd 4254 b4bd
00000280: 18df d83d d732 163d 980d 35bd 2b63 983d
00000290: ca7b 073d ea8d 98bc 14dd 613c f031 a63d
000002a0: a36b 053d 979c 2fbd cbe3 e73d 491d c9bc
000002b0: 0f8c 9dbd 771c c83c f21b bfbc 6c23 04bb
000002c0: 2015 e63b abce 2b3d 5662 d7bd 2ace 98bb
000002d0: 3105 c8bd 7be8 0fbd cc46 07bd 8bd1 b7bd
000002e0: c65f cdbd b6ce d83c ebdd b53d e46f 6d3d
000002f0: abc0 8a3d a18c ea3d 700b 56bd 5acf afbd
00000300: a8be 5e3d 0e2e 09bd c1bf ffbc 6b8b 1bbd
00000310: 04b0 403d e621 843d e7c8 0cbe 4217 593d
00000320: 1001 54bd 594c ffbc 771f d73b 3954 0d3d
00000330: 024d aebd 70fc 843c c916 2cbd 22c3 2abc
00000340: d288 62bc 30e6 44be 885f 453e 2b36 13bd
00000350: 9940 86bd 09b2 083e 4386 473d 67f9 1c3e
00000360: d1ce 513d 12e8 e5bb 0998 b4bd ad89 acbd
00000370: a826 82bc bc91 5c3d 8a2c e93d 737e 21bc
00000380: 2a0a 8ebc 47c3 5c3d 42ea a6bd f65e 293e
00000390: c056 953d 58bd b0bd 9ee0 06bd 9aab 70bd
000003a0: abd0 3e3d 3b39 943d f4c8 b9bd 98af c5bd
000003b0: 5e07 00bd 213c 173d 79a8 143d 4344 6d3d
000003c0: 25ad 6ebd b732 403d 059e 953a 59fb 9c3d
000003d0: 9e29 d7bd d97c 723b 9e62 633d a547 a9bd
000003e0: 66bc 513d afbb 9fbd a9ff e3bc cd2d 193d
000003f0: 9a95 18bd d6e5 703d 0319 3e3c c23f acbd

messages.W_val f4 [1, 128, 128]
0.07363434 0.053506535 0.092734575 0.0762064 0.0039963718 0.05907793 -0.040373378 0.074287005
-0.011784597 -0.017849091 -0.104848765 0.043409385 -0.09742288 0.0067200526 0.06351326 -0.0705357
0.016699221 -0.040057324 0.0705152 0.038409352 -0.09144101 -0.061089735 -0.086332716 -0.04335757
0.03901427 -0.109750554 -0.007348805 -0.054400496 0.097367235 -0.089415826 0.030505726 -0.036967758
-0.03558057 0.008727067 -0.022891298 0.07067563 -0.027632898 0.0296038 -0.018546952 -0.11073755
-0.042376142 0.012370801 -0.0002789113 0.04324172 -0.04013126 0.010546936 -0.014849405 -0.08220131
-0.07744176 -0.09508945 0.09962208 0.056615558 0.019415393 0.0004667798 -0.006711841 0.0757943
0.013633056 0.01774888 0.012054837 0.05453315 0.077237785 -0.014493797 0.05937934 -0.0042155073
-0.057974633 0.045942396 -0.08644748 -0.01311566 0.055053066 -0.09349106 -0.07360287 0.040863205
-0.02922494 -0.06584745 -0.043376945 0.05221104 0.0581088 0.029426971 -0.031122988 -0.02983231
-0.061887316 0.01042431 -0.001047307 -0.012735056 -0.032948565 -0.103701465 -0.06930155 -0.039231367
-0.060978036 0.028088503 -0.027805412 -0.050702464 0.018685345 0.00016669859 0.053682234 -0.009709859
0.08601049 -0.09305589 -0.018762045 0.02531973 0.0007678279 0.09682944 -0.0042812955 -0.05658796
0.030402478 -0.016590392 -0.081725724 -0.10102818 0.062144436 0.061462842 0.10037421 0.05350801
0.03422952 0.038618516 0.08017208 -0.11148119 -0.037284188 0.097418584 0.021264695 0.06702429
-0.007011838 0.052117575 0.030653583 -0.05063762 0.0808704 0.047861755 0.07929826 0.00052603707
-0.061235722 -0.031522617 -0.071110785 0.052447535 0.051602766 -0.073721915 0.03189364 0.069366135
0.060620904 0.058569044 0.03858854 -0.016526332 0.061064858 -0.075815156 0.0012485081 -0.040687524
-0.03999569 0.075740814 -0.068302 -0.0069822534 0.006658263 -0.077714674 -0.047998134 0.032745063
-0.0043558525 -0.05770672 -0.059762675 0.062372874 0.04662667 -0.06923916 0.09973435 -0.02712823
-0.06414183 0.058686737 0.07507754 -0.05831497 -0.06633782 -0.014196917 0.08456951 0.007469025
0.0696849 0.053439558 0.034035057 -0.09244046 -0.02273245 0.075122714 -0.030242326 -0.06878297
-0.07185888 0.103136495 0.019521045 -0.085950255 0.091238596 0.072302915 -0.0010318324 -0.03153798
-0.042258862 -0.027945844 -0.06840377 0.08006102 -0.074712336 0.004267557 0.08563163 -0.04979097
-0.08000845 -0.025298635 -0.09263873 0.019260362 0.059018794 -0.006120316 0.042627666 0.028192837
-0.0760159 0.10255803 0.012792386 0.09423905 0.0086715 -0.07266331 -0.0034536659 0.01295551
-0.07409052 0.0026649951 0.038371928 -0.065193005 -0.08288584 0.02185605 -0.07598557 -0.0021652775
-0.006714982 -0.016834876 0.01649043 -0.08560129 -0.017950233 0.05107439 -0.07671325 -0.06691325
-0.09164356 0.058926977 -0.012239804 0.055929955 0.07378701 0.04853863 -0.05639825 0.10292633
-0.03265455 -0.007190784 -0.03175226 0.024861546 0.072103344 -0.09587753 0.03226718 -0.073500134
0.0805469 -0.05691722 -0.0803473 -0.05594547 -0.054502837 -0.07625162 -0.053996615 -0.010359674
-0.03179659 0.06372484 0.08292074 0.008781868 -0.027713295 0.04851421 0.092159234 -0.07238338
00000000: 9acd 963d ab29 5b3d a0eb bd3d 1a12 9c3d
00000010: fff3 823b b3fb 713d 8e5e 25bd c923 983d
00000020: 2f14 41bc 4238 92bc f3ba d6bd 0ace 313d
00000030: a685 c7bd e333 dc3b 3d13 823d 0575 90bd
00000040: cecc 883c 2613 24bd 466a 903d 2053 1d3d
00000050: 6d45 bbbd 3b39 7abd 35cf b0bd b597 31bd
00000060: 6dcd 1f3d e6c4 e0bd 3fce f0bb 0ed3 5ebd
00000070: 7968 c73d a51f b7bd 25e7 f93c 816b 17bd
00000080: efbc 11bd f9fb 0e3c 8886 bbbc 62be 903d
00000090: 635e e2bc ab83 f23c c7ef 97bc 5eca e2bd
000000a0: 9b92 2dbd e6ae 4a3c d73a 92b9 3b1e 313d
000000b0: ad60 24bd 0ecd 2c3c eb4a 73bc 2959 a8bd
000000c0: c999 9ebd 42be c2bd a906 cc3d b7e5 673d
000000d0: 080d 9f3c 20ba f439 01ef dbbb 0b3a 9b3d
000000e0: 2e5d 5f3c 1966 913c a781 453c 275e 5f3d
000000f0: d82e 9e3d 6477 6dbc c037 733d 3d22 8abb
00000100: cf76 6dbd 182e 3c3d 600b b1bd 11e3 56bc
00000110: 537f 613d 3e78 bfbd 1abd 96bd 2d60 273d
00000120: 2469 efbc 07db 86bd 06ac 31bd 3edb 553d
00000130: 7e03 6e3d d510 f13c a3f5 febc e362 f4bc
00000140: 8e7d 7dbd baca 2a3c cb45 89ba b2a6 50bc
00000150: 13f5 06bd 6f61 d4bd f9ed 8dbd 12b1 20bd
00000160: 1bc4 79bd dc19 e63c 2dc8 e3bc 63ad 4fbd
00000170: 0212 993c d0cb 2e39 e7e1 5b3d 1a16 1fbc
00000180: 4526 b03d 1694 bebd dcb2 99bc 536b cf3c
00000190: 0f48 493a 834e c63d 1c4a 8cbb c7c8 67bd
000001a0: 9e0e f93c 93e8 87bc d15f a7bd dde7 cebd
000001b0: 2a8b 7e3d 76c0 7b3d fe90 cd3d 372b 5b3d
000001c0: 4134 0c3d 732e 1e3d 4231 a43d 4050 e4bd
000001d0: 4eb7 18bd 6583 c73d 4c33 ae3c 0844 893d
000001e0: 8fc3 e5bb 3d79 553d 391d fb3c 6569 4fbd
000001f0: 619f a53d b00a 443d 2067 a23d c0e5 093a
00000200: 4fd2 7abd dc1d 01bd 88a2 91bd 3ad3 563d
00000210: 6c5d 533d 84fb 96bd e8a2 023d d50f 8e3d
00000220: a04d 783d 18e6 6f3d 040f 1e3d 3b62 87bc
00000230: 251f 7a3d fa44 9bbd fba4 a33a f6a7 26bd
00000240: 85d2 23bd 001e 9b3d ebe1 8bbd 63cb e4bb
00000250: 8f2d da3b df28 9fbd b199 44bd b01f 063d
00000260: 8abb 8ebb e25d 6cbd b5c9 74bd b37a 7f3d
00000270: 9bfb 3e3d 43cd 8dbd 8641 cc3d 063c debc
00000280: cb5c 83bd 8161 703d 41c2 993d aedb 6ebd
00000290: 1fdc 87bd 309a 68bc c732 ad3d b9be f43b
000002a0: f5b6 8e3d 70e3 5a3d 5868 0b3d 6d51 bdbd
000002b0: 6739 babc f0d9 993d c1be f7bc 16de 8cbd
000002c0: c02a 93bd 3a39 d33d 99ea 9f3c b006 b0bd
000002d0: 4ddb ba3d 8d13 943d 8d3e 87ba f82d 01bd
000002e0: a117 2dbd afee e4bc 4717 8cbd 08f7 a33d
000002f0: c802 99bd ddd6 8b3b a35f af3d 9ef1 4bbd
00000300: 78db a3bd 153f cfbc 60b9 bdbd e8c7 9d3c
00000310: b1bd 713d ef8c c8bb 599a 2e3d aaf4 e63c
00000320: 39ae 9bbd f209 d23d 2897 513c 6700 c13d
00000330: e812 0e3c 80d0 94bd e656 62bb 5943 543c
00000340: c5bc 97bd 33a7 2e3b e22b 1d3d e983 85bd
00000350: 0dc0 a9bd 750b b33c 539e 9bbd 54e7 0dbb
00000360: 5a09 dcbb 4be9 89bc f016 873c bb4f afbd
00000370: 5e0c 93bc 6133 513d d61b 9dbd d009 89bd
00000380: 9eaf bbbd 6a5d 713d 7589 48bc cf16 653d
00000390: a51d 973d 71d0 463d da01 67bd 0acb d23d
000003a0: c7c0 05bd aba0 ebbb a80e 02bd 71aa cb3c
000003b0: ebaa 933d 705b c4bd 972a 043d 3d87 96bd
000003c0: c6f5 a43d 0822 69bd 208d a4bd 1427 65bd
000003d0: 5e3e 5fbd cf29 9cbd 8e2b 5dbd 9fbb 29bc
000003e0: 243d 02bd 2b82 823d 59d2 a93d d3e1 0f3c
000003f0: fe06 e3bc d6b6 463d fbbd bc3d bd3d 94bd

messages.W_out f4 [1, 128, 128]
0.026126808 -0.085530564 -0.011555175 0.003209412 0.05475282 0.08462171 0.00092851964 -0.07336262
-0.061041676 -0.090181805 0.05697846 0.00734197 -0.010907839 -0.0031074248 -0.0726461 -0.05520945
-0.09050289 -0.055701237 0.062333535 0.03128313 -0.06801132 -0.024943195 -0.03803961 -0.083492875
0.0034316103 0.033063944 -0.09032919 -0.035066858 0.03886405 0.014358107 0.04394274 -0.025682159
-0.053294767 -0.04777941 -0.04542698 -0.047319695 -0.064036936 0.0072457525 -0.065724544 -0.028862853
0.0335089 0.07645173 -0.0013599368 -0.10766558 0.06357271 -0.058788873 0.03157768 0.046333637
0.06784604 0.07628755 -0.02923241 0.001054614 -0.004065545 -0.071302235 -0.10451397 0.008499675
-0.081289046 -0.02348171 -0.046808284 0.048452914 0.040594835 -0.026312009 -0.03707522 -0.03567097
0.029973758 -0.008371225 0.0015561132 0.0396419 -0.07371572 0.045982003 0.061828516 0.06239423
-0.081728265 -0.06052289 0.0215858 0.07783598 -0.05332218 0.026910866 -0.061991185 -0.011301637
0.006400692 0.017183654 0.06415137 -0.028649347 -0.030795166 -0.07135141 0.044526547 -0.04802767
0.058154058 -0.027739346 -0.046956576 -0.04333251 -0.07314968 -0.04032166 -0.04721998 -0.08279191
-0.0383569 0.0017883432 -0.058399536 -0.050134655 -0.06615966 -0.03661974 -0.07440671 0.06708746
-0.029896623 0.054412004 -0.054354582 -0.06483237 -0.06736309 -0.05805859 -0.001807838 0.043515213
0.050553802 0.0062932093 -0.013076544 -0.07440528 -0.05913124 0.043266438 0.09421449 0.011981175
-0.050749656 -0.06623534 -0.08944871 0.03146207 -0.06244342 -0.011653446 -0.020105153 0.07520008
0.07385152 -0.034213036 0.047581945 -0.083458364 0.0024368665 -0.093776904 -0.06833597 -0.051747702
-0.0971248 -0.029848795 -0.08993425 -0.007550184 -0.06382253 -0.006217803 -0.0055524763 -0.0670639
0.0520572 0.07306223 -0.023052018 0.058049258 0.022579836 -0.042944536 0.084699124 0.04723035
0.086187795 -0.0028514653 0.03902176 0.004483724 -0.047376625 -0.017762104 0.06977626 0.07509686
-0.053940892 0.04711344 0.032567512 -0.005750475 -0.04640384 0.05763121 0.05129981 -0.030612972
0.033024833 0.07427076 0.07313246 0.06515213 0.002901042 -0.02915201 0.05853941 0.032235622
-0.013588999 0.061894204 0.04534972 0.077771924 0.044619113 0.030751541 0.022792816 0.057670847
0.07695585 -0.0680567 0.015556161 0.07935323 -0.07049464 -0.078286 -0.05101846 -0.083212845
-0.04923915 -0.08714452 -0.064060204 -0.08076364 -0.04176852 0.069785275 0.10147882 0.031389236
0.042090796 0.020518638 0.029823259 0.09250336 -0.029734422 -0.02040327 -0.010059823 0.059165552
0.031388413 0.02716055 0.012640963 -0.018024111 -0.038718127 0.05875691 0.022576561 -0.075822845
0.037397828 0.06667225 -0.024409099 0.042216133 -0.008866101 -0.06702417 0.074115455 -0.02041526
-0.045215607 -0.07962203 -0.017045112 -0.0171038 0.08261145 -0.05596126 0.012812616 -0.08202963
-0.015506265 0.051738933 -0.045891758 0.0019502508 -0.06488956 0.039289866 -0.068720594 -0.036912844
0.05507335 0.006101389 0.030151626 -0.05374166 -0.009185403 0.08304858 0.022483123 0.048916984
0.056656558 -0.022812229 0.07634687 0.0023324178 -0.07407389 -0.05652127 -0.070226915 0.051451102
00000000: e307 d63c a62a afbd eb51 3dbc 0055 523b
00000010: 7e44 603d 264e ad3d e667 733a 243f 96bd
00000020: d606 7abd 3db1 b8bd 3f62 693d e994 f03b
00000030: cbb6 32bc f0a5 4bbb 7ac7 94bd 4e23 62bd
00000040: 9459 b9bd fb26 64bd 7351 7f3d bd22 003d
00000050: 8549 8bbd ac55 ccbc 6ccf 1bbd 50fe aabd
00000060: dee4 603b 0f6e 073d 83fe b8bd 44a2 0fbd
00000070: e92f 1f3d 443e 6b3c 4dfd 333d 6463 d2bc
00000080: 9d4b 5abd 58b4 43bd a411 3abd 4cd2 41bd
00000090: cc25 83bd c76d ed3b 979a 86bd ca71 ecbc
000000a0: a140 093d ba92 9c3d e83f b2ba c67f dcbd
000000b0: 6932 823d 9acc 70bd 9957 013d 57c8 3d3d
000000c0: ddf2 8a3d a63c 9c3d cf78 efbc f93a 8a3a
000000d0: 4338 85bb e806 92bd 6c0b d6bd 3942 0b3c
000000e0: df7a a6bd b75c c0bc 0bba 3fbd 9076 463d
000000f0: c546 263d 488c d7bc 30dc 17bd b91b 12bd
00000100: 878b f53c 7627 09bc 7ff6 cb3a 8c5f 223d
00000110: 44f8 96bd a057 3c3d e63f 7d3d 1891 7f3d
00000120: 2661 a7bd dae6 77bd b4d4 b03c 7868 9f3d
00000130: 5c68 5abd 2d74 dc3c 78ea 7dbd 802a 39bc
00000140: e5bc d13b bcc4 8c3c cb61 833d 09b2 eabc
00000150: 2546 fcbc b020 92bd 7861 363d a9b8 44bd
00000160: f332 6e3d a03d e3bc 8a55 40bd 6e7d 31bd
00000170: 80cf 95bd 5328 25bd bd69 41bd ce8e a9bd
00000180: 201c 1dbd d766 ea3a 5a34 6fbd ff59 4dbd
00000190: b77e 87bd 95fe 15bd 8c62 98bd 2665 893d
000001a0: c3e9 f4bc 1fdf 5e3d e9a2 5ebd d5c6 84bd
000001b0: a9f5 89bd d8ce 6dbd faf4 ecba 023d 323d
000001c0: 8111 4f3d 4437 ce3b 003f 56bc cc61 98bd
000001d0: 9933 72bd 2638 313d 87f3 c03d b14c 443c
000001e0: dfde 4fbd 65a6 87bd e330 b7bd 5fde 003d
000001f0: acc4 7fbd 18ee 3ebc 90b3 a4bc 8002 9a3d
00000200: 773f 973d f822 0cbd 49e5 423d 38ec aabd
00000210: d6b3 1f3b 1b0e c0bd bbf3 8bbd 66f5 53bd
00000220: 5ee9 c6bd 7685 f4bc 732f b8bd 8967 f7bb
00000230: 63b5 82bd b6be cbbb 8cf1 b5bb cc58 89bd
00000240: ee39 553d a7a1 953d 96d7 bcbc 0fc5 6d3d
00000250: 59f9 b83c 9ce6 2fbd bc76 ad3d 9d74 413d
00000260: 3a83 b03d a6df 3abb 48d5 1f3d 34ec 923b
00000270: fe0d 42bd d581 91bc dbe6 8e3d 62cc 993d
00000280: 20f1 5cbd 06fa 403d 8365 053d 7b6e bcbb
00000290: f411 3ebd b40e 6c3d c01f 523d 0ec8 fabc
000002a0: 0c45 073d 451b 983d 79c6 953d 7b6e 853d
000002b0: 691f 3e3b 32d0 eebc 05c7 6f3d 8009 043d
000002c0: 65a4 5ebc c784 7d3d a1c0 393d e346 9f3d
000002d0: 88c2 363d a8ea fb3c 00b8 ba3c 4438 6c3d
000002e0: 079b 9d3d 5061 8bbd 45df 7e3c f283 a23d
000002f0: 7e5f 90bd 6954 a0bd bcf8 50bd 7f6b aabd
00000300: feae 49bd d378 b2bd ff31 83bd 6867 a5bd
00000310: 7815 2bbd 95eb 8e3d 21d4 cf3d 0092 003d
00000320: 6667 2c3d b416 a83c e84f f43c 6772 bd3d
00000330: 9a95 f3bc c224 a7bc f5d1 24bc 9457 723d
00000340: 2391 003d cd7f de3c 0b1c 4f3c 4da7 93bc
00000350: e696 1ebd 16ab 703d 7bf2 b83c 0249 9bbd
00000360: 772e 193d 768b 883d 97f5 c7bc d3ea 2c3d
00000370: 1f43 11bc f843 89bd d8c9 973d e73d a7bc
00000380: 0034 39bd e010 a3bd 31a2 8bbc 451d 8cbc
00000390: 3130 a93d a237 65bd 02ec 513c 27ff a7bd
000003a0: fd0d 7ebc 34ec 533d fff8 3bbd 8f9f ff3a
000003b0: d1e4 84bd 69ee 203d 62bd 8cbd ec31 17bd
000003c0: 9894 613d 29ee c73b 8b00 f73c 3720 5cbd
000003d0: 5f7e 16bc 6015 aa3d 872e b83c 2d5d 483d
000003e0: b510 683d b6e0 babc bf5b 9c3d 7adb 183b
000003f0: 0db4 97bd d982 67bd 21d3 8fbd 64be 523d

update.0.weight f4 [128, 256]
0.035587944 -0.07214803 -0.121693514 0.008855291 -0.027745241 0.072854035 0.05740968 0.107087635
-0.019892186 0.01017243 -0.026005287 -0.016125945 0.09655161 -0.14873119 -0.05179707 0.030880833
0.029015314 0.016057469 0.0570367 0.01851208 0.027356194 0.1028172 0.030341353 0.05469575
0.043765537 0.037326954 -0.13442567 -0.04081331 0.047457706 -0.042335365 0.009194139 0.0539626
-0.06520911 -0.04874951 0.0945658 -0.017826017 -0.07106887 0.19053727 -0.1602924 0.018651752
0.0014385242 0.10536033 0.035333797 0.046356566 -0.047624983 -0.038065996 0.011836773 -0.0054657576
-0.053041514 -0.058144398 0.0897194 -0.10522956 0.050379433 -0.019663678 -0.11618433 0.1296483
0.04205336 0.10399059 -0.0814442 -0.006777611 -0.03746231 0.033860542 0.08766432 0.015192513
-0.044328872 -0.002140927 0.05912062 0.03374538 0.07699179 0.01025794 0.06347699 0.011078796
0.15189111 0.16703644 0.07100455 -0.03869011 0.032106318 0.15046574 0.048715368 -0.073559225
0.024150765 -0.106616676 -0.07215376 0.0062366766 0.22059304 -0.026800796 0.023166018 -0.01131152
0.19079557 -0.02583459 0.005040049 0.0247773 -0.04739082 -0.048054412 0.024904765 0.011733214
0.01940409 0.06302779 0.07610825 0.05170476 0.13434383 0.0479616 -0.018756287 -0.03942305
0.019863376 -0.022437187 -0.07476223 -0.021960575 -0.04722545 0.012537551 0.052464005 0.042358615
-0.10742397 0.03762087 0.0973936 -0.041511197 -0.006957042 0.05492813 -0.03168236 0.057872426
0.033444747 0.045932617 0.075753644 0.060261566 -0.031247456 -0.013103469 0.031091236 -0.06606616
0.046936173 0.14181311 0.010302223 -0.11674372 0.06828745 0.026045049 0.07456014 -0.04619246
-0.013777719 -0.07086373 0.00088638545 0.03828978 0.0851937 -0.0055570723 0.01981881 0.03613934
0.07864784 0.014021998 -0.00031749744 -0.0744358 0.024574885 -0.029333524 0.09404363 0.10822556
-0.005078577 -0.07166051 -0.023278845 0.004227292 -0.0059154504 -0.03683767 0.04435861 -0.018298715
0.16225345 -0.015652029 0.068315916 0.03687472 0.021078233 -0.055265546 -0.064921945 -0.038614325
0.04741459 0.03834005 0.011222579 0.03207161 0.08421157 0.018709103 0.04251557 0.026171442
-0.029085878 -0.10228093 0.089238554 0.0009190527 0.060666848 0.029354177 0.06404623 0.038588747
0.087709874 0.02668601 0.03583731 -0.11545005 -0.07283527 0.051597603 0.038664564 -0.09416254
0.0012502978 0.104632445 0.07292918 0.014267219 -0.019430047 0.027215274 -0.0065298188 0.039032407
-0.051847897 0.016868906 0.04619291 0.07038743 0.059853334 0.03749319 -0.1499124 -0.09198549
-0.033174198 0.10075623 -0.09938636 -0.13317314 0.08151549 -0.010394992 -0.016826328 0.02728873
0.14814007 -0.02216463 -0.023049463 0.06375844 0.06102514 0.14357221 0.015790217 0.10266195
0.04231372 0.057451118 -0.12591802 -0.09605659 0.018129995 -0.063983865 0.015193688 0.13845424
0.06981671 -0.08497536 -0.03009587 -0.055108245 0.03586216 0.083773114 -0.04609333 -0.022379657
0.07415173 0.005076528 0.03817219 0.05513105 -0.0012345839 0.04171778 -0.08687582 0.08494346
-0.08249507 0.053241696 0.08947273 -0.0033402839 0.027483854 0.11633099 0.060918774 -0.02760906
00000000: aac4 113d 59c2 93bd 733a f9bd c815 113c
00000010: fd49 e3bc 7f34 953d 6a26 6b3d c350 db3d
00000020: f0f4 a2bc 44aa 263c 0a09 d5bc 8f1a 84bc
00000030: dabc c53d fd4c 18be 2a29 54bd cdf9 fc3c
00000040: 86b1 ed3c f48a 833c 519f 693d a5a6 973c
00000050: 191a e03c d391 d23d 6e8e f83c a708 603d
00000060: 7e43 333d 26e4 183d e2a6 09be db2b 27bd
00000070: 0363 423d d967 2dbd 04a3 163c e307 5d3d
00000080: 5b8c 85bd 91ad 47bd b7ab c13d de07 92bc
00000090: 8e8c 91bd 341c 433e b123 24be 8fcb 983c
000000a0: dd8c bc3a 28c7 d73d 2cba 103d 62e0 3d3d
000000b0: 6a12 43bd 17eb 1bbd 06ef 413c 191a b3bb
000000c0: 0f42 59bd d228 6ebd cebe b73d 9882 d7bd
000000d0: aa5a 4e3d b915 a1bc 0df2 edbd 86c2 043e
000000e0: 2540 2c3d 05f9 d43d 37cc a6bd b916 debb
000000f0: 1472 19bd 5ab1 0a3d 5a89 b33d 05ea 783c
00000100: 3192 35bd cb4e 0cbb 7728 723d 9838 0a3d
00000110: dfad 9d3d eb10 283c 3900 823d d783 353c
00000120: 5889 1b3e 9a0b 2b3e d56a 913d 8579 1ebd
00000130: ea81 033d b113 1a3e c489 473d 38a6 96bd
00000140: d3d7 c53c d859 dabd 5ac5 93bd 095d cc3b
00000150: 24e3 613e 588d dbbc a9c6 bd3c f453 39bc
00000160: ea5f 433e 10a3 d3bc ff26 a53b c4f9 ca3c
00000170: e01c 42bd b4d4 44bd 1405 cc3c ab3c 403c
00000180: 53f5 9e3c b714 813d a4de 9b3d 5fc8 533d
00000190: 6e91 093e 6273 443d c9a6 99bc 107a 21bd
000001a0: 85b8 a23c 31ce b7bc f11c 99bd aae6 b3bc
000001b0: 796f 41bd 4d6a 4d3c 7fe4 563d 3a80 2d3d
000001c0: 1901 dcbd 5718 1a3d 4c76 c73d a507 2abd
000001d0: e6f7 e3bb 52fc 603d 5dc5 01bd a30b 6d3d
000001e0: 5cfd 083d d723 3c3d ba24 9b3d d5d4 763d
000001f0: aafa ffbc efaf 56bc 0cb3 fe3c b24d 87bd
00000200: 2540 403d 7537 113e a8ca 283c 5517 efbd
00000210: 4ada 8b3d 6d5c d53c fdb2 983d 4e34 3dbd
00000220: f1bb 61bc 0121 91bd 525c 683a bfd5 1c3d
00000230: 097a ae3d 1a18 b6bb 0f5b a23c d806 143d
00000240: 1e12 a13d 86bc 653c c975 a6b9 cc71 98bd
00000250: 4551 c93c dc4c f0bc f299 c03d 5da5 dd3d
00000260: 316a a6bb bfc2 92bd 47b3 bebc 1885 8a3b
00000270: 65d6 c1bb 19e3 16bd 60b1 353d 30e7 95bc
00000280: c525 263e af38 80bc 37e9 8b3d f209 173d
00000290: 42ac ac3c 205e 62bd ccf5 84bd 0e2a 1ebd
000002a0: cd35 423d 750a 1d3d e8de 373c 855d 033d
000002b0: 1e77 ac3d d543 993c ce24 2e3d 7e65 d63c
000002c0: 8245 eebc aa78 d1bd b4c2 b63d 95ec 703a
000002d0: cd7d 783d 2c78 f03c ab2a 833d 3c0f 1e3d
000002e0: 3ca1 b33d 9f9c da3c 25ca 123d 1371 ecbd
000002f0: a82a 95bd 0258 533d bc5e 1e3d 4ad8 c0bd
00000300: 08e1 a33a 8949 d63d e55b 953d 0ec1 693c
00000310: c32b 9fbc 91f2 de3c 17f8 d5bb 72e0 1f3d
00000320: 765e 54bd a930 8a3c c734 3d3d 4927 903d
00000330: c528 753d 7692 193d a382 19be e362 bcbd
00000340: abe1 07bd 4859 ce3d 138b cbbd 8a5e 08be
00000350: 98f1 a63d c24f 2abc 5ed7 89bc 9d8c df3c
00000360: 08b2 173e 9992 b5bc 3ad2 bcbc c993 823d
00000370: 7ff5 793d 9804 133e 7c5a 813c 6e40 d23d
00000380: 2751 2d3d dd51 6b3d a7f0 00be 51b9 c4bd
00000390: 5b85 943c f909 83bd f2ee 783c f3c6 0d3e
000003a0: 10fc 8e3d 9007 aebd 9d8b f6bc 2fb9 61bd
000003b0: 33e4 123d 3d91 ab3d 5ccc 3cbd 8b55 b7bc
000003c0: dddc 973d 0159 a63b 715a 1c3d 19d1 613d
000003d0: c3d1 a1ba 43e0 2a3d f3eb b1bd d6f6 ad3d
000003e0: 2df3 a8bd f713 5a3d 7b3d b73d aae8 5abb
000003f0: d225 e13c f13e ee3d f785 793d 652c e2bc

update.0.bias f4 [128]
0.02344744 0.02655568 0.0290671 0.013120898 -0.042833176 0.00029784747 0.022047678 0.042485036
0.0124456175 0.029190896 -0.0090465285 0.021985939 0.05790213 0.036883187 0.035658043 0.026383081
0.025261879 0.0037089414 0.01423737 -0.014621601 -0.00055239117 0.017961161 0.028868487 0.0127603505
0.028699813 0.0068680397 0.028768672 0.031975105 0.017026784 0.010489417 0.011698127 0.02881811
0.01988216 -0.010989084 0.033240493 0.028664367 0.0013855349 0.029871233 -0.0046359594 0.0077314465
0.024904171 0.09508323 0.034900896 0.030727502 0.021137077 0.049785007 -0.016443027 0.02796121
0.023617914 0.002855736 0.028592188 0.025141347 0.0704578 0.01083105 -0.013230132 -0.023525931
0.019217238 0.008598452 0.0063798632 0.022279337 0.03343509 0.030879563 0.011358313 0.047004104
0.030845711 0.009175383 0.0077830805 0.019919239 0.033593647 0.011523168 0.04836632 0.034144253
0.025170872 0.019707829 0.01581354 0.03901362 -0.014576849 0.039558526 0.0015296494 0.026609726
0.008360303 0.026173346 0.016430499 0.0025452217 0.026021084 0.0025689567 0.010775385 0.037608083
-0.011166814 -0.0029926184 0.020706046 0.0197187 0.013077861 0.018268475 0.018156383 0.013330181
0.0016857237 -0.03193938 0.03181833 0.036628883 0.030794626 0.031833887 0.019399501 0.032494776
-0.03254803 0.002658986 0.023104647 0.016150823 0.018695926 0.032610137 0.009600272 0.026005667
0.005104128 -0.011810886 0.015876167 0.025102232 8.043224e-05 -0.009589286 0.0085783815 0.011557135
0.030919973 0.018310906 0.019585663 0.017143391 0.017425334 0.037480902 0.03262123 0.00846227
00000000: d814 c03c 4c8b d93c 201e ee3c 09f9 563c
00000010: d771 2fbd 6928 9c39 559d b43c ca04 2e3d
00000020: b4e8 4b3c bf21 ef3c e437 14bc db1b b43c
00000030: c92a 6d3d d312 173d 2b0e 123d 5521 d83c
00000040: 00f2 ce3c b611 733b dc43 693c 718f 6fbc
00000050: 58ce 10ba 4923 933c 9b7d ec3c ca10 513c
00000060: df1b eb3c 4b0d e13b 47ac eb3c 54f8 023d
00000070: c17b 8b3c cedb 2b3c 80a9 3f3c f513 ec3c
00000080: e9df a23c 8f0b 34bc 2f27 083d 89d1 ea3c
00000090: d69a b53a 84b4 f43c 3fe9 97bb 1358 fd3b
000000a0: d503 cc3c ffba c23d 3ef4 0e3d 3eb8 fb3c
000000b0: aa27 ad3c 5deb 4b3d 87b3 86bc e80e e53c
000000c0: 5b7a c13c 4d27 3b3b 2a3a ea3c 3af5 cd3c
000000d0: 2e4c 903d b774 313c 32c3 58bc 74b9 c0bc
000000e0: 786d 9d3c 86e0 0c3c 2c0e d13b 2883 b63c
000000f0: 3cf3 083d 23f7 fc3c 3818 3a3c 6087 403d
00000100: 25b0 fc3c 5854 163c 3609 ff3b ac2d a33c
00000110: 7e99 093d abcb 3c3c c31b 463d d8da 0b3d
00000120: 2533 ce3c 5072 a13c 668b 813c bfcc 1f3d
00000130: bcd3 6ebc 1f08 223d 847e c83a a4fc d93c
00000140: a7f9 083c 7c69 d63c 4199 863c bccd 263b
00000150: 2b2a d53c f15b 283b 3e8b 303c ef0a 1a3d
00000160: 03f5 36bc ce1f 44bb ba9f a93c 1c89 a13c
00000170: 8644 563c c5a7 953c b2bc 943c d566 5a3c
00000180: 80f3 dc3a ded2 02bd f053 023d 2b08 163d
00000190: 0345 fc3c 4064 023d b4eb 9e3c 3e19 053d
000001a0: 1551 05bd 6242 2e3b f545 bd3c bb4e 843c
000001b0: 3328 993c 3592 053d 764a 1d3c d609 d53c
000001c0: 8740 a73b 7282 41bc bc0e 823c 32a3 cd3c
000001d0: bbad a838 611c 1dbc 578c 0c3c 235a 3d3c
000001e0: e24b fd3c c100 963c 1d72 a03c 4c70 8c3c
000001f0: 93bf 8e3c 9385 193d d79d 053d 55a5 0a3c
