models/sf/na5_uc.pt (torch_old, 545145 bytes, 75 tensors)

encoder.0.weight f4 [128, 6]
00000000: c79d a13d c6df b43b 000a dbbc e496 b53d
00000010: e07e 4dbe e4e1 fd3d ebfa 613d 971c f53d
00000020: cd64 23bd 262e 63bd 09f0 91bc f875 fdbd
00000030: b3e9 9fbd ffee 643d 282c b0bd 7b61 04be
00000040: 8126 433e 3941 1cbd 74f1 09bd b136 c53d
00000050: 81c0 7dbd c120 3abd 012d 083e 6f8a 08be
00000060: 0e3c 5f3b 7cdf eabd 3ffc 06be e9cc 09bd
00000070: 93b1 c33c dfac d53d bd9c 1fbe 2a8a 08bb
00000080: 5337 89bc af4e 9cbb 2e2d 5a3d cc63 e53d
00000090: b0a2 a4bc f289 12bc 919b c1bd e95e c83c
000000a0: 97f8 f93d 0071 053e 9971 f6ba 0bcc 0a3d
000000b0: cbce 893d 12c2 853d 5cdf 55be bff1 a3bd
000000c0: 33c8 54bd 73a6 d43d a5af e0bb 2d2f 34bd
000000d0: 7369 87be b91a b93c 5fe4 983d be78 213d
000000e0: 1ba8 cebd 16e6 cf3d 55a7 aa3e 6c66 86bd
000000f0: 3573 763c 516d a5bb 9fb7 ff3c 8877 22bd
00000100: bc78 043e ed09 0b3c 62f1 e03c d547 723d
00000110: 3e9a 01bc 5967 93bc 5412 50be 6098 c8bd
00000120: b4c5 613d 1536 88bd 1012 1c3c de05 bcbd
00000130: 3b5c 9cbd 3c63 243e e911 65bc 89ee 12bd
00000140: 70e5 3ebd a12a 833d ef7a 303e 8922 f23c
00000150: 5880 0ebc dee0 8c3b e7f9 23bc b4ae a4bd
00000160: c5fb 533e 1a20 e7bd 0c9a 9c3d f4da 41bd
00000170: 3754 ed3d e877 0dbe cacc 2bbe d09d 203d
00000180: 73e9 1c3e ecaf 70bd 19d3 c8bd 63d9 c3bd
00000190: a54d ed3d 9075 13be ed9d 963d 239a 4a3d
000001a0: eced b2bc ec4d d9bc 5e55 ffbd 8897 84bd
000001b0: f48b 323c 3beb 163e e843 e0bc f632 043e
000001c0: 56c7 a1bd 52d6 c9bb 159c c93c 48b4 fd3b
000001d0: 21e4 2c3e f80e 9c3c e75e 7abd aa2b 963b
000001e0: 469b aabd 31fc babd a4d1 e6bd caf0 1a3e
000001f0: 08f8 fc3d d738 62be 46c5 c1bd 8799 693d
00000200: 6572 9fbc 110d 0ebd dd5a 5fbd 7812 b9bd
00000210: b45e 363d 0c91 a4bd c2c8 32bd b358 2ebd
00000220: c06d 24be 2733 0dbe a5c5 91bc e203 9cbc
00000230: ebd1 13bd 84da c3bc 2aea ec3d 0e9b 9a3e
00000240: 4a96 fabc 842c 583c 6b64 b23b fee2 c6ba
00000250: e287 7c3d eef3 543e 7d80 b6bc 9fe6 29bd
00000260: a277 e93d 337b 0f3e 30cb debd 78c6 643e
00000270: 6478 0d3d d821 243e cd72 663e cca6 753d
00000280: 144e 223d e1d0 c8bd 93b3 d0bb e1da ba3d
00000290: fed4 c0bd 8730 abbd d4be a7bd 26f9 f63d
000002a0: 6536 62ba f3fa 7e3e d309 a3bd e009 eabd
000002b0: dcfb 103e fc02 873c 6dd1 2d3e 3e8a cfba
000002c0: 86be 213d 41b6 ad3c 7b5c bc3d 58d4 ed3c
000002d0: a55d 1ebc 9db5 00be 4141 85bc 640d 2e3d
000002e0: cebb 02be c4b0 0cbd 5c79 59bd e8b6 d83c
000002f0: 6653 cfbb f103 703d b46c a2bd cec1 52be
00000300: 676d 93bd 0f6e 2a3d 1fc7 b03d 0706 5e3e
00000310: a0c5 87bd 15e9 bebd 1dbe c3bd db2c 14be
00000320: e1b1 83bd 4966 35be 6fcd 8a3c 45ca 233e
00000330: 8db3 3a3d b1c6 1d3b 5e7d 4f3d e9af f93c
00000340: a0c9 953d 9f26 7ebe 7c74 9d3c ca66 8f3d
00000350: e28b a73c be94 273e 02fc d93d 4a64 28be
00000360: b7f8 d0bc 4620 d33c 3eaf 24be 11db ee3d
00000370: 162b 883b 57a3 053e e056 e93d 3aac edbb
00000380: cac1 eb3c 4b55 cb3c 4f5f 2dbe e0d0 92bb
00000390: 8efa 0fbd 399a 16bd 306f 85bd 6d80 02bd
000003a0: c730 a6be d21b a43d 1093 ff3c 5842 49bc
000003b0: d337 c1bd e968 323e de12 44be c6f5 f7bd
000003c0: e606 f3bd 1e9b 14be f7af 293d b9f6 a13c
000003d0: b3ad 193e c60a 493e 470d febc fbb3 093c
000003e0: d8d6 3b3d a3eb 5cbd 00da 0f3e 8117 2bbc
000003f0: 7441 01be 3a67 d0bd 486b dabd 93ca 2dbe
0.07891422 0.00551984 -0.026738167 0.08866671 -0.2006793 0.12396601 0.055170935 0.11968344
-0.039891053 -0.055463932 -0.017814653 -0.123760164 -0.078082465 0.055891987 -0.08602172 -0.12927811
0.19057657 -0.03814814 -0.033677533 0.09629572 -0.061951164 -0.045441393 0.13298418 -0.13334058
0.0034062895 -0.114684075 -0.13182162 -0.033642683 0.023888385 0.10433363 -0.15587135 -0.0020834305
-0.016750013 -0.004770122 0.053265743 0.11200675 -0.020097107 -0.008944022 -0.094535 0.02445932
0.12205618 0.13031387 -0.0018802165 0.033885997 0.06728896 0.065311566 -0.20885986 -0.08005094
-0.051948737 0.1038331 -0.006856876 -0.043990303 -0.2644764 0.02259575 0.07465433 0.03942179
-0.10090657 0.10151307 0.3333079 -0.06562504 0.015042116 -0.005048432 0.031215487 -0.039664775
0.12936682 0.008486253 0.02745885 0.059150536 -0.007910309 -0.017993616 -0.20319492 -0.09794688
0.055120185 -0.0665094 0.009525791 -0.091808066 -0.07634779 0.1605348 -0.013981321 -0.035872016
-0.046605527 0.06404615 0.17234395 0.029557483 -0.008697592 0.004299267 -0.010008312 -0.080411345
0.20701511 -0.1128542 0.076465696 -0.04732795 0.11588328 -0.13815272 -0.1677734 0.039213
0.15323429 -0.058761522 -0.09805889 -0.095629476 0.11587075 -0.14400315 0.07354341 0.049463402
-0.021841966 -0.026526414 -0.124674544 -0.06474215 0.010897625 0.14738171 -0.02737613 0.12910065
-0.078993484 -0.006159582 0.024610559 0.0077424385 0.168839 0.019050106 -0.061125662 0.004582842
-0.08330397 -0.09130133 -0.112704545 0.15130916 0.12351996 -0.22091995 -0.09461455 0.05703118
-0.019463727 -0.03468043 -0.054530013 -0.09036726 0.04452391 -0.08035478 -0.04364849 -0.04256506
-0.16057491 -0.13789044 -0.01779444 -0.01904482 -0.036088865 -0.023907907 0.11568101 0.30196422
-0.030589242 0.013194207 0.0054440997 -0.001517385 0.061653025 0.20796177 -0.022278065 -0.041479703
0.11399771 0.1401184 -0.10878599 0.22341335 0.03453864 0.16028535 0.2250473 0.059973523
0.039625242 -0.098054655 -0.006369063 0.09123779 -0.09415625 -0.08358865 -0.081906945 0.1205924
-0.0008629321 0.24900417 -0.07960858 -0.11427665 0.14158577 0.016480915 0.16974421 -0.0015834046
0.039488338 0.02120507 0.09197327 0.029031917 -0.009665881 -0.1256928 -0.016266467 0.04249324
-0.12766954 -0.034348264 -0.053094253 0.026454404 -0.0063270805 0.05859751 -0.0793089 -0.20581743
-0.07198601 0.041608866 0.08631729 0.21681987 -0.06629491 -0.093218006 -0.095577456 -0.14470236
-0.06430412 -0.177148 0.016943661 0.15995128 0.04558139 0.0024074728 0.05065667 0.030479388
0.073138475 -0.2481942 0.019220583 0.07002027 0.020452444 0.16365334 0.1064377 -0.16444507
-0.025509221 0.025772225 -0.16082475 0.11662877 0.004155527 0.1305059 0.11393523 -0.007253197
0.02877893 0.024820944 -0.16930889 -0.0044804662 -0.035151057 -0.036768172 -0.06515348 -0.031860758
-0.3245909 0.08013119 0.031198055 -0.012283884 -0.09434476 0.17422833 -0.19147822 -0.121074244
-0.1186655 -0.14512298 0.04142758 0.019770967 0.15007667 0.19633016 -0.03101219 0.008404727
0.045859188 -0.05393566 0.14048004 -0.0104426155 -0.12622625 -0.10175939 -0.106649935 -0.16971807

encoder.0.bias f4 [128]
00000000: 54cf fa3c df56 0b3d 29df 11bd 8866 253d
00000010: 2ab7 8eb9 8f29 d5bc 3eba 46bc fe38 853d
00000020: db9f 623c 9670 763d 223e 6b3d 8cc7 343d
00000030: 6a0c 72bb 3c18 8c3c fba9 9f3d 5558 f83c
00000040: 0bd2 123d e759 6d3d 6854 16bb 2f70 dc3c
00000050: a9a3 b73b e2ca 273d e0ac 8d3d fe2c f4bc
00000060: a9c8 a43d 6bff 3d3d 4e1b 733c e6bd f73b
00000070: 65d9 263d f0b4 c33b 5266 353d db92 d03c
00000080: 22c4 c83c 623a f3bb cdd1 453d abe9 9a3c
00000090: d440 5b3c d844 583d 7fd3 923d dc5b 7d3d
000000a0: f2f4 363d 11eb b7bc c0da 02bc 1afb 953c
000000b0: bcd1 9fbc 8b0a 02bc 9bb3 273d 9d38 873d
000000c0: 6245 483d ac91 b2bc b222 713d 8cf8 193d
000000d0: 8261 70bc e9d5 ca3c 8e51 673d 0e36 02bd
000000e0: 60a8 993d 9d55 a83c 528f ad3b 4275 383d
000000f0: 4436 533d 8fa8 123c d364 423d c911 043d
00000100: 0583 bbba a157 2f3c 2ff9 5c3d cb00 bb3c
00000110: 77ee 033c 66db 053d 1c2d 4cba fdc6 393c
00000120: 2c4c 993d 999b 963d 240f 0d3d d1af 323c
00000130: 22e2 3a3c febd 593d aa53 083d 7f3b 8e3c
00000140: 2a17 e53b d636 443c 8c9f 163d 0dec 753c
00000150: 12a8 3d3d 9549 9f3c e145 203d 3419 0ebc
00000160: 622c 803d 63a0 263d 171f 343c ef25 8f3c
00000170: 30a2 21bc 30f2 883d 36f7 9a3c 7d69 623d
00000180: 0532 39bd f940 473d d6df 1c3d 73d9 a93d
00000190: ee9b 2e3d 5032 463d ed7e 1a3d 5f8e 5abc
000001a0: d50f 913c 9743 2b3c 1855 8f3d 2448 62bc
000001b0: fc70 e23c a025 ba3d 45c1 123d ce28 b43c
000001c0: 5317 a83c 3dc7 1b3c 9cd6 e73c fc53 bf3c
000001d0: b3e5 09bc 81b1 133d f1d9 453d b228 5dbc
000001e0: 9e29 503c 5d6e fd3c df9c f13c 9eb4 c23c
000001f0: b091 5e3d 6ac2 dc3c 2c9d 053d 86dd 293d
0.03061644 0.034018394 -0.035613213 0.040380985 -0.00027220818 -0.026020793 -0.012129365 0.06505011
0.013832058 0.060165964 0.0574323 0.044135615 -0.003693367 0.0171014 0.07796093 0.030315557
0.035844844 0.057947066 -0.0022938494 0.026908962 0.0056042266 0.04096497 0.06917739 -0.02980661
0.080460854 0.046386164 0.014838053 0.0075604795 0.040734667 0.005972497 0.044287033 0.025460651
0.024507586 -0.0074227313 0.048295785 0.01891025 0.013382155 0.05280003 0.07169246 0.061855182
0.04466719 -0.022450956 -0.007986724 0.018308211 -0.019509189 -0.007937084 0.04094277 0.06602595
0.048894294 -0.021797977 0.05887098 0.03759055 -0.014671685 0.024760203 0.05647426 -0.03178983
0.07502818 0.020548636 0.005296626 0.0450337 0.051565424 0.00895132 0.047459435 0.032243524
-0.0014306015 0.010702045 0.053948577 0.022827527 0.00805246 0.032679938 -0.0007788704 0.011338946
0.07485232 0.07353897 0.034438267 0.010906176 0.011406453 0.053159706 0.033282913 0.017362354
0.0069912868 0.0119759645 0.03677325 0.015009892 0.046302862 0.019444266 0.03912914 -0.008673001
0.06258465 0.0406803 0.0109937405 0.017474143 -0.009865329 0.066868186 0.018916707 0.055276383
-0.045213718 0.048645947 0.038299404 0.08293428 0.042629175 0.048387825 0.037718702 -0.013339608
0.017707745 0.010453126 0.06998652 -0.013811145 0.027641766 0.09089208 0.035828847 0.021992113
0.020518934 0.009507951 0.028300576 0.023355477 -0.008416581 0.036057953 0.04830355 -0.013498472
0.012705235 0.030936414 0.029493747 0.023767766 0.054338157 0.026948173 0.032620594 0.041471027

messages.W_query f4 [1, 128, 128]
00000000: 17cc 88bd 82ef 963d e890 9ebd ec44 20bc
00000010: 4e6a 9dbc 0c66 38bd 72d2 573d 7029 d2bb
00000020: 70b6 88bd 8a42 fdbc dbba 96bd f8aa e8bc
00000030: 9603 5a3c 7e92 b03d 3737 203c d363 f33c
00000040: de61 7b3d 4406 5b3b c903 fcbc 7cc9 703d
00000050: 8c96 9c3d 1139 853d 5beb 163d 8f82 69bd
00000060: 41ed 02bd 0354 013e cf52 af3d d7bb 063d
00000070: 6e21 03be 8991 dcbc 2aa5 8cbd 47b5 afbd
00000080: 8dec 2d3b 14dc e9bd 3b39 d03d 0e64 09bc
00000090: a92d b1bd 149f 3bbe eb76 82bd ff46 dd3d
000000a0: a8c4 7bbd 51fc b3bc 8079 b8bd cfff d93d
000000b0: 4f97 61bd 4000 9c3d 1aa3 843b f8d5 32bd
000000c0: d5a9 da3c 8d63 de3d 03dd b5bd 90f2 ddbc
000000d0: 82f4 bd3d e875 aa3d f13b 013e ca9e 063e
000000e0: 32aa 7c3c bb17 e8bd 0e59 9fbd cb35 6e3d
000000f0: c58a 17be 195f 65bd ae34 003d d070 3b3e
00000100: 9794 9d3c 339f 103c 7ad8 98bd b46f e7bd
00000110: 2d95 343d a4e3 fb3d fc30 8bbd 2e19 bb3b
00000120: 0806 173e 3b4f 93bc 851b 2bbc 85b0 ac3d
00000130: b5b4 853d 0788 f83d 6b66 933c 193a c2bd
00000140: 7bf3 9bbc 2828 253e 54da e2bd c802 41bd
00000150: edc8 f3bd ad6a 73bd cbe4 e0bb 3c82 9bbd
00000160: 59f6 ed3d c49d 04be bd95 003d d489 853c
00000170: 8369 fabc 80ed f5bd e8a0 4fbd 7e19 e53d
00000180: f017 6fbd a6c5 30be 2801 50bd 9625 a9bd
00000190: 3660 27be 8f84 0a3e bc85 0dbe 7795 203e
000001a0: e925 943d bb93 cf3d 0d05 f93d d46c af3c
000001b0: b45e 11bd 405e 38bd 2118 df3d fa22 93bd
000001c0: a60d 2cbd 04f8 c9bc bbe5 29bd 3ab9 31bd
000001d0: 79a7 953c 2226 d63d 2463 883d 7644 c13c
000001e0: 0756 07bd 3038 da3d 1d18 a23d 3d37 a33c
000001f0: a772 073d cb5d 43bc b7a2 82bd 5349 cf3c
00000200: 3624 d6bd 8e2c 99bd a5cd 3bbd b633 14bd
00000210: 73e9 9bbd 3fcb 57bd d206 61bb 13b9 233d
00000220: d748 bcbb 24f8 63bc 2e0f ed3c 896e c23d
00000230: 4160 dbbc 47c2 d23b 2556 ecbc 8d7b dabc
00000240: 6c53 0c3d f68a a23c ad05 91bc 1ebf a7bb
00000250: a121 ea3d a585 08bc 9624 d5bd 8ce1 a7bd
00000260: 13a7 c4bb 294b a6bd 57ad 643c ad3b eb3c
00000270: 4dcb a03d 7fe4 a73d bdd4 af3d 0d1b 29bd
00000280: a0b3 193e 4c4d f1bd c905 94bd dc13 b6bc
00000290: c59c 6d3d 03c8 133d 1e15 e8bd 233a dbbd
000002a0: 0034 d93d b24d 20bd 11df a93d 6e4f f9bd
000002b0: dbf6 7e3d a4d3 c1bd 3707 bf3d 21f8 8f3d
000002c0: 181f 543d f1b0 bebd a589 903c 5abb 803d
000002d0: 1df0 3abd 394f b93d 5d8c 8dbd 2ae2 dfbd
000002e0: fe89 0abd db01 583d 095e 97bc b8c9 2f3d
000002f0: e8a9 7b3d f63e 0dbc f802 9a3c 1a06 a7bc
00000300: b5dd 353d 23d9 ad3c 002f 45be c5fc 773d
00000310: a792 e9bb 01dc d2bd d7d6 4f3d 1e09 1d3e
00000320: e4b9 c43b a9b9 ff3c 7a7e 223d 1741 26bd
00000330: 6c92 8ebc 5240 28bd ecbf 6b3d baac 2e3b
00000340: 73d1 e4bd 20df 03be e9d5 b53d 71e3 4abc
00000350: c0d4 febb 8837 033e c31d e0bd c05f e03d
00000360: 978a ae3b 4ad5 163d 9b6c 06bc 82ae 45bd
00000370: 0c3a b83a 73c4 da3d e89f a53d 7c9a c43a
00000380: 91b3 eebc 735d a93d d50d 1b39 0c66 1b3c
00000390: bb86 bf3d 97ff c7bd d188 83bc 32af 8f3c
000003a0: d986 15bd c881 a63c 0cfe 04be f7d7 f8bd
000003b0: 0606 7b3d a843 803d 3465 3ebd 7d59 d83d
000003c0: e58f 7ebd 902b 963d 1572 e13d 04db 90bc
000003d0: 1416 863d 8fe5 d2bd 26a9 a6bd a1dd 953d
000003e0: cbc8 b4bc 6c00 b93d 2003 06be f5ff a0bd
000003f0: ae49 633c bf44 01bd 0626 8fbd 1351 b1bc
-0.06679552 0.07369901 -0.077424824 -0.009782057 -0.01921573 -0.045019194 0.05269093 -0.006413631
-0.06675422 -0.030915517 -0.073598586 -0.028401837 0.013306519 0.08621691 0.009778789 0.029710686
0.06137263 0.0033420483 -0.030763524 0.0587859 0.07645902 0.06505025 0.036845546 -0.057009276
-0.031964544 0.12629704 0.08560716 0.03289398 -0.12805721 -0.026924865 -0.0686744 -0.08579498
0.00265387 -0.1141893 0.10167166 -0.008385671 -0.08651287 -0.18322402 -0.06370338 0.10804557
-0.061466843 -0.0219709 -0.09007549 0.10644495 -0.05507594 0.07617235 0.0040477635 -0.043661088
0.02669231 0.108588316 -0.08880045 -0.027093202 0.09275152 0.0832327 0.12620522 0.1314651
0.015421437 -0.11332651 -0.07780658 0.05815677 -0.1479903 -0.055998895 0.03130024 0.18304753
0.019235892 0.008827019 -0.07463165 -0.113006026 0.044087578 0.122992784 -0.067964524 0.0057097888
0.14748394 -0.017982116 -0.010443573 0.08432106 0.06528608 0.1213532 0.017993173 -0.094837375
-0.019036999 0.161286 -0.11076799 -0.047121793 -0.11903558 -0.059427906 -0.0068632117 -0.075931996
0.11619253 -0.12950808 0.0313928 0.016301073 -0.03056789 -0.1200819 -0.05069056 0.11186503
-0.058372438 -0.17262897 -0.050782353 -0.08259122 -0.16345295 0.1352713 -0.13820547 0.15682016
0.07233793 0.10135599 0.121591665 0.021414198 -0.035490707 -0.04501176 0.10893274 -0.071844056
-0.042005204 -0.024654396 -0.041478854 -0.043389536 0.018268334 0.10456492 0.066595346 0.023592215
-0.033041026 0.10655248 0.079147555 0.0199238 0.033068325 -0.011924217 -0.06378692 0.025303518
-0.104561254 -0.07479201 -0.045850415 -0.036182128 -0.07612886 -0.052684065 -0.003433634 0.039971422
-0.005745988 -0.013914142 0.028937902 0.09493739 -0.026779296 0.006431851 -0.02884967 -0.026670242
0.034259245 0.019841652 -0.017702902 -0.0051192185 0.114321955 -0.008332645 -0.10407369 -0.081973165
-0.006001362 -0.081198044 0.013957343 0.028714979 0.078512765 0.08197879 0.085854985 -0.041285563
0.15009928 -0.11782321 -0.07227666 -0.022226267 0.058010835 0.036079418 -0.11332153 -0.10704448
0.10605621 -0.039136596 0.082945 -0.12173353 0.06224714 -0.09464195 0.09327548 0.07029749
0.051787466 -0.09311093 0.017643759 0.062857345 -0.045639146 0.09048314 -0.06911538 -0.10931809
-0.033823006 0.052736145 -0.018477457 0.042916983 0.061441332 -0.008620968 0.018800244 -0.020388652
0.04440089 0.021221703 -0.1925621 0.060543794 -0.007128078 -0.10295869 0.050741997 0.15335509
0.006003605 0.03121646 0.0396714 -0.04058942 -0.017403804 -0.041076966 0.057556078 0.0026653246
-0.11172762 -0.12878084 0.08878691 -0.012383328 -0.0077768266 0.12814152 -0.109431766 0.10955763
0.00532658 0.036824502 -0.0082046045 -0.048262127 0.0014055385 0.10682001 0.0808714 0.0014999653
-0.029138358 0.08269777 0.00014787105 0.009484779 0.0935187 -0.09765547 -0.01605645 0.017539594
-0.036505554 0.020325556 -0.12987536 -0.12150567 0.06128504 0.062629044 -0.046483234 0.105639435
-0.062148947 0.07332528 0.110080875 -0.01768256 0.0654718 -0.10297691 -0.08137731 0.07317663
-0.022068402 0.090332836 -0.1308713 -0.0786132 0.013872547 -0.031559702 -0.06989674 -0.021645105

messages.W_key f4 [1, 128, 128]
00000000: 2007 33bd a6ac d93d a1ea 96bd 12bf c33d
00000010: 12f0 1d3d cc46 e83c 0b35 983d 32ab 10be
00000020: 328c f63c d957 cdbc c185 b03d 4445 49be
00000030: 62f6 3c3b a060 debd a501 c93d e02a 90bc
00000040: 5511 11bd d58c 7b3c 8e23 c23d 8bd4 a43c
00000050: 07cb c03c 0dd9 0a3e 8725 6fbd fcf7 013d
00000060: a8a2 1dbd 508b c13c 47bb 0ab9 8700 003d
00000070: 2616 04be a0fe 383d 0880 183d db0e b43a
00000080: a89d 543d 98a6 97bd 9508 8a3c 7356 e33d
00000090: ef64 853d 0b25 17be 51d8 ba3d de66 cbbc
000000a0: 083d a4bd ee1b a83d 094b ffbd d5f7 94bd
000000b0: ba00 85bd ed93 a53d 656d cb3d 381b f0bd
000000c0: 9285 4bbc c29d 3f3d 9491 aa3d 9f9a 783c
000000d0: fbf3 723e df4f 5dbc bcdc a2bd 4a8c 243e
000000e0: a483 76bd c6ec ccbc 6cf8 823d 4334 95bd
000000f0: 2300 4fbd b9ab 9fbd 5b93 8abd 9c8c 533d
00000100: 3bde 1e3d 2966 f13d de95 d2bd 94fe fc3d
00000110: 2dc7 483d 06e5 0f3d 25e0 743c 1ad2 183c
00000120: 73c0 95bc 2bbf 8c3d 5038 88bc 7ff6 99bd
00000130: f681 bc3d 49ed 83bd c632 3ebd 5059 84bd
00000140: be92 febc afb5 3c3e cec8 a4bd dc84 84bd
00000150: 2002 843d 5206 2abd 0818 863d 5787 dfbd
00000160: 2099 afbd e2df b63c eedb f23d 5cc8 893d
00000170: 6cd9 493d 3369 573d c1ed f2bc 5c1d f43d
00000180: 469a 29bd 2623 32be eda6 db3d 6abe a53d
00000190: 08ae bbbd 1a1a cabb ba9d 8ebc b69f 2b3e
000001a0: b4d2 8d3d 03a2 a43c 07fd 6abb d9c5 b63d
000001b0: b441 20be 232a 283b e93c 123e 4524 74bd
000001c0: a945 b3bd 6264 6c3d 1535 073c bae7 3a3d
000001d0: edc8 ab3d e479 9dbd 1fcc 57bc 0112 b33d
000001e0: d87e 19be 4a3f 80bd b0ed 11bc 7412 aa3c
000001f0: 2d05 c3bd d9f4 573d e080 263d 29c6 f93d
00000200: 2329 e3bd 41a5 ad3d 7006 8a3d 18f9 7ebd
00000210: a6e9 02be 3a90 8cbd 30f9 143d f40e a63d
00000220: 651b 4cbc d594 c63b 2daa 9cbd 8e57 0a3d
00000230: bc68 afbd 4975 503d 4e5a fabd 429f 90bd
00000240: 3af7 48bd 0779 a23d e809 e9bd 036f 373d
00000250: ba31 e13d 1ed9 69bd 0a9b d6bd 89af 873d
00000260: eeb8 79bd aa65 873b 1887 413d c626 76bd
00000270: f713 873d 735d 793d 107f 2dbd f48b 96bd
00000280: 7f47 df3d 3fa4 2b3d a5dc 42bd a074 923d
00000290: 5438 273d 9b26 53bb 147b 203c 227f a63d
000002a0: e37a 723d 678b 55bd 9059 053e 91a1 28bd
000002b0: 97cd 3abd e3f1 2b3c 4ec3 f5bc d6f5 e23b
000002c0: 136a ab3c 601a 113d 058e e6bd c421 e2bb
000002d0: 0ba8 edbd cb34 d3bc fe6b 3abd 35c2 dfbd
000002e0: fc16 dfbd 670a f73c 1894 bd3d 6047 4d3d
000002f0: b6c0 9c3d fbd7 073e 6aea b9bc 91e9 d4bd
00000300: ebdb 753d 94ca 81bd 8312 d2bc 1f9e 33bd
00000310: a43f 153d de4d 843d 3672 08be 79fa 3f3d
00000320: 1eb9 70bd 5e71 5bbd d277 343c 7d64 f53c
00000330: 0acc cdbd 46de 66bb 8436 f4bc 94c6 d2bb
00000340: 2f2b 203c 56b4 61be bea3 4a3e e1ee 99bc
00000350: a663 62bd ad80 ff3d ad8e 5f3d 484a 373e
00000360: 471c 443d ebfa a13c ebde c5bd f61a a1bd
00000370: 9633 a2bb 2d33 7d3d 509b d93d e6ad f2bc
00000380: 76d2 43bc caf1 ab3d 7714 b4bd 05fd 183e
00000390: cbe4 af3d 9045 c1bd fd0a fdbc b0b5 8ebd
000003a0: 4822 1d3d 2ddf 173d d559 cfbd d9fa bebd
000003b0: 129b 3e3b 0cdd fb3c db31 603c 0374 763d
000003c0: b1c3 24bd a4a9 003d 603e 863b 9fe0 8c3d
000003d0: 62d3 f1bd 4f59 e63b 4c19 333d 6427 c7bd
000003e0: 0421 993d 493c bdbd 0da9 15bd 9eac 083d
000003f0: 93a5 35bd e869 973d 6bbe e83c 41c4 debd
-0.043707967 0.10628633 -0.07368971 0.09557928 0.038559027 0.028354071 0.07431992 -0.14127806
0.030096147 -0.025066303 0.086192615 -0.19655329 0.002883338 -0.108582735 0.09814767 -0.01759857
-0.03541692 0.015353401 0.09479438 0.02012088 0.023534311 0.13559361 -0.0583854 0.031730637
-0.0384852 0.023626 -0.00013230472 0.031250503 -0.12899074 0.045164704 0.037231475 0.0013737337
0.051908165 -0.07404822 0.016849795 0.11100473 0.06513392 -0.14760225 0.0912329 -0.024829324
-0.08019453 0.08208452 -0.12465484 -0.07273833 -0.06494279 0.08084855 0.09932975 -0.117239416
-0.012421982 0.04678131 0.08328548 0.015173583 0.23725884 -0.013507812 -0.07952258 0.16069141
-0.060184136 -0.025015246 0.06395039 -0.07285359 -0.05053724 -0.07796425 -0.06766387 0.051647767
0.038786154 0.11787064 -0.10282491 0.123532444 0.049018074 0.035130523 0.014946018 0.009327436
-0.018280244 0.068724 -0.016628414 -0.075177185 0.092044756 -0.06441743 -0.04643514 -0.064623475
-0.031075832 0.18428682 -0.08046113 -0.064706534 0.06445718 -0.041509934 0.06547552 -0.10914486
-0.08574128 0.022323553 0.118583545 0.06727669 0.049279615 0.05259056 -0.029654386 0.11919662
-0.041406892 -0.1739622 0.10725198 0.08092959 -0.09164053 -0.0061676623 -0.017409194 0.16760144
0.06924954 0.020096784 -0.0035856382 0.08924455 -0.15650064 0.002565988 0.14281048 -0.0596049
-0.08753521 0.05771292 0.008252402 0.045631148 0.08387933 -0.076892644 -0.013171225 0.08743668
-0.14989793 -0.062620714 -0.008906767 0.020760752 -0.095224716 0.05272374 0.04065025 0.12195999
-0.110918306 0.08478785 0.06739509 -0.062249273 -0.12784442 -0.068634465 0.036370456 0.08108321
-0.012457703 0.0060602226 -0.07649646 0.033774905 -0.08564898 0.0508931 -0.122242555 -0.07061626
-0.0490639 0.079332404 -0.113788426 0.044783603 0.10995813 -0.057091825 -0.1047879 0.066252775
-0.06096738 0.0041319923 0.047247976 -0.06009557 0.06595605 0.060880136 -0.042357504 -0.07350913
0.10902309 0.041904684 -0.047573704 0.07151151 0.040825203 -0.0032219056 0.009794969 0.081297174
0.059199225 -0.052134898 0.13022447 -0.041169707 -0.045606222 0.010494682 -0.030000355 0.0069262786
0.020924604 0.035425544 -0.11257557 -0.006900998 -0.11604317 -0.02578201 -0.045513146 -0.10925714
-0.10893056 0.030156327 0.09256762 0.050116897 0.07653944 0.13265984 -0.022694785 -0.10396112
0.060024183 -0.06337467 -0.025643593 -0.043851968 0.036437646 0.064601645 -0.13324818 0.04686973
-0.05877029 -0.053574912 0.0110148955 0.029955143 -0.10048683 -0.00352277 -0.029811151 -0.0064323638
0.009775921 -0.22041449 0.19789025 -0.018790664 -0.055270813 0.12475715 0.054579426 0.1789943
0.04787853 0.019772967 -0.09661659 -0.078664705 -0.004949997 0.061816383 0.10625327 -0.029623937
-0.011952033 0.08395727 -0.08792966 0.1494027 0.08588561 -0.09437096 -0.030889029 -0.06968248
0.03836277 0.03707807 -0.10124556 -0.09325189 0.0029084128 0.030745052 0.0136837615 0.06016923
-0.04022569 0.031411782 0.004096791 0.068787806 -0.11807896 0.0070296894 0.043725297 -0.0972431
0.07477 -0.09240014 -0.036538173 0.033367746 -0.044347357 0.07393247 0.02841111 -0.10877276

messages.W_val f4 [1, 128, 128]
00000000: 043f 7c3d 5765 973d 0699 973d 4efc b63d
00000010: 6289 cb3a a1f7 463d 02a8 76bd 6096 a63d
00000020: c435 16bc 43a3 d6bc 3c44 bebd 068e a63c
00000030: 9efc afbd f21e 30bb c1ef 1c3d 857e 97bd
00000040: 98b5 a23c b33f 69bd 2ddb 9a3d 78ff f93c
00000050: 3468 afbd 1d50 72bd c8c9 7fbd fe04 d8bc
00000060: 1b9a 333d 78fc dbbd 22fb bebc f2c6 24bd
00000070: 7230 bb3d e6af f7bd ee4b 083d 2000 b3bc
00000080: 8c8d 3bbd c3d4 a13c 6fdd 10bd c5fa 923d
00000090: 7e5f 32bd b918 df3c 091f c1bc 1550 ffbd
000000a0: 47e9 20bd 9917 e13c a143 f33b 5d41 ee3c
000000b0: 89a7 2bbd e8ff 9e3c 6a00 ffbb 97f2 b7bd
000000c0: 9dd4 bdbd cab5 aabd 65c4 d53d 6c73 543d
000000d0: 1ef1 7d3c 30c5 093b 6fb7 96bc 0adb 703d
000000e0: 3f43 253c 1eac f539 f005 c73c 5a1a 8c3d
000000f0: 1074 be3d c61b 42bc d524 943d 4308 0cba
00000100: 2f27 80bd d80a be3c b644 c9bd 1cf1 7fbc
00000110: 6b97 933d 4f44 ccbd 1a67 8abd 7f6b e53c
00000120: 50bf 81bc 03b9 86bd 5df5 67bd 4012 853d
00000130: 616f 853d 2e0d 013d 83c2 bebc bb81 debc
00000140: 063d a2bd 6a2f b83c b197 363c ba93 a0bc
00000150: 7021 75bd 79a2 d1bd a968 97bd 4f18 33bd
00000160: c82e 75bd 8e84 453d c931 15bd 95e0 43bd
00000170: 769b c83c e57c a03b b7b3 393d 6d90 8abc
00000180: 1894 a03d 8d9e 91bd 5fea 6ebc 3188 143d
00000190: 141f 5bba fb0d da3d b707 25bc 2928 3bbd
000001a0: a316 063d 1f1d a4bb 2010 b3bd e6cf c7bd
000001b0: 6f27 703d 66ef 313d c9c1 cf3d da64 1f3d
000001c0: a548 723d 6292 c03c 1db9 aa3d 1365 05be
000001d0: 7f64 48bd 37f4 be3d b18e 2a3c 8a97 873d
000001e0: 1f18 10bc 8878 573d d573 313d 1ee4 52bd
000001f0: b802 a43d 0676 7a3d 7eca b83d 8a66 89bb
00000200: c2aa 81bd 9a9b 0dbd a5ec 9ebd 6ae2 783d
00000210: 606e 503d 1175 91bd 87e0 a43c 8502 913d
00000220: 1b61 533d ba49 6c3d 56aa c53c ac3b e3bc
00000230: 8aa8 963d e5a1 9fbd 18b2 08bc dd7e 1abd
00000240: cedf 02bd d240 983d 11e6 82bd 8a91 babc
00000250: 3826 1b3c cd9e a0bd 6cc6 27bd 4177 193d
00000260: 468c 4a3b 8de8 76bd 45ab a1bd e475 843d
00000270: 5a56 273d a93a c1bd b25c b93d 2f03 74bc
00000280: d7dc 7ebd 5035 823d 3bce 973d ed5e 68bd
00000290: 7b63 a8bd bd66 7cbc c7bb c63d 8e1f 8db9
000002a0: 1065 823d 9c07 883d b33e 303d e785 debd
000002b0: 009e c1bc 3fd8 b53d 5ea3 d5bc 5932 a0bd
000002c0: f9eb aabd b76d ec3d 125e e73c c242 adbd
000002d0: c421 b83d bad4 993d 8845 14bc 2bc1 c1bc
000002e0: b1fc 03bd f8bd 3fbd c33d 6ebd afca bd3d
000002f0: d59e 86bd c2cb 55ba ed46 c63d 77cb 45bd
00000300: e153 a8bd 25e8 0ebd ccd8 dabd 6c97 8c3c
00000310: 1ac5 683d 1664 a6bc 116c 3c3d 4ad3 dc3c
00000320: 28e0 80bd 560f ed3d b669 f63b 70aa f23d
00000330: c64e 5f3c 03ee 91bd 63fb 423c 3824 523c
00000340: d1ac a8bd dc0c 943c 374c 503d 389c 91bd
00000350: f8ae cabd d5ad e33c 8e6a a4bd d64a 1dbc
00000360: 26e2 d03b 4999 7dbb 104f 6e3c 3f15 b0bd
00000370: 25a1 16bc d864 553d 1bd5 9cbd 38dc 9dbd
00000380: 3beb bbbd 8c93 653d 43ab f3bb 986a 463d
00000390: 39fd a03d fa2b fd3c 29fe 7cbd adc7 e03d
000003a0: 5d20 e7bc 9be0 09bb 0484 25bd a12c 003d
000003b0: 4d67 763d 75ba d1bd ca2c 083d 8849 9dbd
000003c0: 8ae1 b73d 5bc5 85bd 13bc b0bd 7aba 90bd
000003d0: 7864 4cbd c798 95bd 369d 04bd 077a 58bc
000003e0: be38 ebbc 4599 793d 9772 c93d 92e0 4bb9
000003f0: 6688 86bc cc69 4a3d 4798 c13d 0814 88bd
0.061583534 0.07392376 0.07402234 0.08934842 0.0015528614 0.048576 -0.06021882 0.081341505
-0.009168092 -0.026200896 -0.092903584 0.020331394 -0.08593105 -0.0026873914 0.038314585 -0.073971786
0.019861981 -0.056945514 0.07561336 0.030517325 -0.08564797 -0.059158433 -0.062448293 -0.026369568
0.04384814 -0.10741514 -0.023313109 -0.04022879 0.091400996 -0.12094097 0.033275537 -0.021850646
-0.045789286 0.019754773 -0.035367426 0.07176737 -0.0435481 0.027233468 -0.023574369 -0.12466446
-0.03928497 0.027477073 0.0074238335 0.029083902 -0.04190782 0.019409135 -0.007782032 -0.08981817
-0.092690684 -0.08335455 0.1043785 0.051867887 0.015499381 0.0021022074 -0.018398015 0.058802642
0.0100868335 0.0004685828 0.024294823 0.06840964 0.09299481 -0.011847442 0.07233588 -0.0005341807
-0.06257474 0.02319853 -0.09827559 -0.01562145 0.07206615 -0.09973966 -0.06757946 0.02800536
-0.015838295 -0.06578257 -0.05663048 0.064976215 0.065153845 0.03150671 -0.02328611 -0.02716147
-0.079217955 0.022483546 0.0111445645 -0.019601692 -0.05984634 -0.10236067 -0.07393009 -0.043724354
-0.059859067 0.048222117 -0.036424432 -0.0478216 0.024488192 0.004897701 0.045337405 -0.01691457
0.07840747 -0.07110319 -0.014582246 0.036262695 -0.0008358818 0.10647198 -0.01007264 -0.045692597
0.03273643 -0.0050083543 -0.0874331 -0.0975645 0.058631357 0.0434412 0.101443835 0.03891454
0.05915131 0.0235073 0.08336089 -0.13026838 -0.048923966 0.09323924 0.010409997 0.06620701
-0.008794813 0.052605182 0.043323357 -0.05148708 0.08008331 0.061147712 0.09022997 -0.004193132
-0.063313976 -0.03457222 -0.0775998 0.0607628 0.05088651 -0.07102407 0.020126594 0.07080559
0.05160628 0.0576875 0.024129074 -0.027738415 0.07356365 -0.07794551 -0.008343242 -0.037718643
-0.031951718 0.074342385 -0.06391538 -0.022774477 0.009469561 -0.07842789 -0.040960714 0.037467245
0.0030906363 -0.06028037 -0.07893995 0.06467798 0.040853836 -0.09435017 0.09050883 -0.014893337
-0.062222328 0.06357825 0.07412382 -0.056731153 -0.082220994 -0.015405354 0.097037844 -0.00026917126
0.063669324 0.066420764 0.043028545 -0.108653836 -0.02363491 0.08879136 -0.026078876 -0.07822103
-0.083457895 0.11544364 0.028243098 -0.08459999 0.08990815 0.075112775 -0.009049781 -0.02365168
-0.032223407 -0.046812028 -0.05816437 0.092671745 -0.065732636 -0.00081556675 0.09681497 -0.048289742
-0.08219124 -0.03488936 -0.10685882 0.017162047 0.056828596 -0.020311397 0.046001498 0.02695622
-0.062927544 0.11575191 0.007519926 0.118489146 0.013629621 -0.07125475 0.011900756 0.012826018
-0.08236087 0.018072538 0.050853934 -0.071098745 -0.09896654 0.02779285 -0.08028136 -0.009600362
0.0063746152 -0.0038696101 0.014545217 -0.08597802 -0.009193693 0.052098125 -0.07657834 -0.07708019
-0.09175726 0.056048915 -0.0074361875 0.0484415 0.078607984 0.030904759 -0.061765824 0.10975585
-0.028213674 -0.0021038416 -0.040409103 0.03129256 0.06015711 -0.10240642 0.03324584 -0.076800406
0.08978565 -0.06531783 -0.08629622 -0.070668176 -0.049900502 -0.073045306 -0.03237649 -0.013212687
-0.02871358 0.060937185 0.098363094 -0.00019443248 -0.016422462 0.049417302 0.09452873 -0.06644446

messages.W_out f4 [1, 128, 128]
00000000: 4be4 383d dec0 b5bd e116 743a 9143 b2bc
00000010: 40f8 323d 02d7 ba3d f04f 893c b935 a2bd
00000020: b06b 79bd 2f7a d5bd 5f14 813d 22fa 72bb
00000030: bb5c debb 698e 06bc 148e 7fbd 88e4 87bd
00000040: a7bb aabd f354 7ebd 400c 333d 5bcb 513d
00000050: b41b 8ebd 6c00 7ebc 513a 16bd 36df 9bbd
00000060: 1c3d 1e3c 3482 ea3c 13f0 a6bd 73ba 3cbd
00000070: d8eb 043d ded0 703c 4e18 513d 3fb4 24bd
00000080: 381c 5bbd c98e 3abd edd1 86bd f298 dfbc
00000090: a25f 73bd 9a95 933c 418f 8abd 4f40 30bc
000000a0: cc2e 2b3d e37d 9f3d 80ff 633b bbbd b2bd
000000b0: f9e9 853d e2a1 50bd ef73 063d 00ca 233d
000000c0: 0e19 953d e894 933d 3c96 2abd f3c6 c53c
000000d0: 255f bb3b 341c 49bd b5cc c4bd 2fec 043c
000000e0: 90d1 7ebd 8bbb 99bc 4af4 44bd 999e 263d
000000f0: d668 1e3d 7015 4ebd 932b fdbc 5dfd 1fbd
00000100: 301e cd3c 10a4 3ebb 712e 85bb c359 093d
00000110: 7245 c3bd a119 293d e638 a23d 5c29 993d
00000120: 6765 a4bd b403 c5bc f6a3 c43c 5f59 b03d
00000130: d980 79bd 1955 cb3c 4b19 46bd 88cb 4cbc
00000140: 19e0 ccbb 8904 e13c 7b28 213d 21c0 50bd
00000150: 42d5 3dbd 894c 67bd 0ab6 3d3d ea44 e5bc
00000160: 7ab7 a93d be67 14bd afdd 0abd 3c1f 27bd
00000170: 7112 99bd 94a3 00bd 1c37 41bd 15e6 bcbd
00000180: 8f40 dbbc 54ea 223c e32f 7abd 88ea 5ebd
00000190: 4bf7 5cbd 2010 fbbc acb6 25bd 3bfb 6d3d
000001a0: 2deb f8bc a70e 763d 39ed 8cbd 2a9a 81bd
000001b0: 4148 cfbd e826 48bd 41fb 05bd b8ab 523d
000001c0: 4d3b d13c 2b3b 0abc e8ef 61bc 463a 85bd
000001d0: 9797 86bd a6e7 353d 703b c43d 256e 823c
000001e0: 549e 5bbd ebc6 65bd 236a 66bd 01e9 2a3d
000001f0: 2316 89bd 0822 ac3c 415d 1cbc ffaa a43d
00000200: 2bba 8e3d 0a16 f6bc 1cae 5c3d dcfc 0ebe
00000210: 7619 90bc 5fd6 fabd e76a a6bd a43a 8bbd
00000220: b1ad f4bd e1d6 4abc 4f82 d0bd 85a3 8ebc
00000230: 29d4 3bbd 75bd 443d 575f a03c dee3 d2bd
00000240: b39e 453d 4e8a 6b3d 9770 c4bc 7961 bd3d
00000250: 7c5e 223d efb2 77bd 2f30 313e c947 053d
00000260: eb71 e63d db60 91bc 5840 763c 3f03 153c
00000270: 5dd4 6fbd 8494 a43b 231a ca3d 6f2f e63d
00000280: dc1d 3ebd d120 153d 0c3c 103c 2f57 b53c
00000290: 60e7 83bd 9240 943d 530b 833d ac00 1ebd
000002a0: fcd0 9d3c 8968 873d 9713 b63d fed4 8d3d
000002b0: 6b73 8a3b bc3a ffbc 54bd 933d a5d8 373d
000002c0: c671 53bc dc10 8e3d 7751 393d 0100 8f3d
000002d0: 50ab 8a3d 6308 b63d af4a 573c d70f 8a3d
000002e0: 3bd0 743d 8a88 50bd 8d67 423b 02b7 aa3d
000002f0: d7cb 54bd f060 14be 24f1 58bd 2dc6 e4bd
00000300: 5eb2 96bd 5047 53bd 5d01 5abd 00d7 97bd
00000310: b46b 18bd 2c26 de3c 7dd7 fb3d 60ca 363d
00000320: a224 ea3c 2e60 a93c 979c e43c 024d f33d
00000330: b307 a7bc d725 d4bb cd16 67bd c75e b53d
00000340: 87c3 a43d 0b0e 0f3d 20a5 363b f7a8 613c
00000350: a7d9 b2bc ed07 903d 1a72 b43c 7989 a1bd
00000360: 42c6 c33c db8c e23d 000c 32bd c899 243d
00000370: 3a27 25bd 9dd6 a2bd 40d4 513d 7f62 e1bc
00000380: f714 1ebd abbf 94bd 3aed 49bc c660 853b
00000390: 72be 703d 35b0 8cbd 52bf cc3c 223a 68bd
000003a0: ed38 21bc b09a 4a3d 5f0d debd e658 933c
000003b0: db8c 9fbd 284f 843d 0690 e4bd 506e 7dbd
000003c0: 8ce9 423d 6d75 9dbc eda9 003d 10c3 3abd
000003d0: d64e a63c 5999 053e 5ce3 e03c 56f2 4a3d
000003e0: 3051 1c3d a04f 89bc 1894 333d c38b d93b
000003f0: 1f93 9bbd 99ad 8fbd 8f75 aebd 4d95 b93d
0.045139592 -0.08874677 0.00093112706 -0.021760734 0.04369378 0.09123041 0.01676175 -0.07920403
-0.060893714 -0.10423695 0.063027136 -0.003707536 -0.0067859567 -0.008212664 -0.062391356 -0.06635386
-0.08336573 -0.062092733 0.043712854 0.051219326 -0.06938878 -0.01550303 -0.03667671 -0.076109335
0.009658124 0.028626539 -0.08151259 -0.04607625 0.03245148 0.014698235 0.05104857 -0.04021096
-0.05349371 -0.045546327 -0.06583009 -0.02729461 -0.059417374 0.018015672 -0.06765605 -0.01075752
0.041792676 0.07787683 0.003478974 -0.087275945 0.06538767 -0.050935633 0.032825407 0.039987564
0.072801694 0.07206136 -0.04164718 0.024142718 0.005718129 -0.049099162 -0.09609357 0.008112951
-0.062211573 -0.018766185 -0.048084535 0.040678594 0.038674198 -0.050313413 -0.030904567 -0.039059985
0.025038809 -0.0029089488 -0.004064374 0.03353287 -0.0953473 0.041284207 0.07921009 0.07478592
-0.080271535 -0.024049617 0.024003964 0.08610796 -0.060913894 0.024820851 -0.048363965 -0.0124996975
-0.0062523005 0.027467983 0.039345246 -0.05096448 -0.046345957 -0.056469474 0.046316184 -0.027986962
0.082869485 -0.03623175 -0.03390282 -0.04080127 -0.074742205 -0.031406 -0.047171697 -0.09223572
-0.026764182 0.0099435635 -0.061080825 -0.054422885 -0.053946774 -0.030647337 -0.040457413 0.05810092
-0.030385578 0.060072567 -0.06881184 -0.063282326 -0.10121203 -0.04886523 -0.032710318 0.051433295
0.025540972 -0.008436958 -0.013790108 -0.065052554 -0.06571882 0.04441037 0.09581649 0.015921662
-0.05361779 -0.056097906 -0.056253564 0.041726116 -0.06693675 0.021012321 -0.009543718 0.080404274
0.069691025 -0.030039806 0.05387698 -0.13963646 -0.017590266 -0.12247919 -0.08125859 -0.06798294
-0.119471915 -0.012380333 -0.101811044 -0.017411957 -0.04585663 0.048032243 0.019576712 -0.102973685
0.04824705 0.057504945 -0.023979468 0.09247107 0.03964089 -0.06047338 0.17303537 0.032539163
0.11252197 -0.01774638 0.015029989 0.009095012 -0.058552135 0.0050225873 0.098682664 0.11239516
-0.046415195 0.03640825 0.008803379 0.022136299 -0.06440616 0.07238878 0.06398644 -0.03857486
0.01926469 0.066117354 0.08890455 0.06925391 0.0042251847 -0.031155936 0.07213846 0.044884343
-0.012905544 0.069368094 0.045243707 0.069824226 0.067709565 0.088883184 0.013140365 0.067413025
0.059768897 -0.050911464 0.0029663772 0.08335687 -0.05195221 -0.14490104 -0.052964345 -0.111706115
-0.073582396 -0.05158168 -0.053223956 -0.07414055 -0.03721209 0.027117811 0.122969605 0.044626594
0.028581921 0.020675745 0.0279067 0.118799224 -0.020389413 -0.0064742374 -0.05641823 0.08855968
0.080451064 0.0349255 0.0027869418 0.0137731945 -0.0218323 0.07032762 0.022027064 -0.07887549
0.023898248 0.11062022 -0.043468475 0.04018572 -0.040320612 -0.079510905 0.051227808 -0.027512787
-0.038594212 -0.0726312 -0.012324626 0.004070374 0.058775373 -0.06869546 0.024993572 -0.056696065
-0.009840232 0.049463928 -0.10842394 0.017986726 -0.07790538 0.0646041 -0.11160283 -0.06187278
0.04758601 -0.019221032 0.031412054 -0.045596182 0.020301264 0.13046779 0.027452163 0.049547516
0.038163364 -0.016761601 0.043842405 0.0066389753 -0.075964205 -0.07015533 -0.08518516 0.0906168

update.0.weight f4 [128, 256]
00000000: 953b f63c f661 dfbd 7b2a d9bd 85fa f5bc
00000010: 3762 3abd 46a1 943d 28cf b73c 5743 fc3d
00000020: fe16 64bd 4c1e 753b d453 1cbd 6468 09bd
00000030: ad22 013e b70f 1bbe f883 1fbd e2f2 013d
00000040: 2dd3 ca3c a639 603c 2fcf 113d fbaa c63c
00000050: 13f8 773c 1601 993d 116f 5d3d e22e 343d
00000060: 8d89 a33c 073f 953c 7838 12be 6799 73bd
00000070: ce07 013d 0bee acbd 3725 13bd f12a d03c
00000080: d43b 9ebd 583d 3bbd 6217 bb3d 9193 04bd
00000090: d843 c0bd f641 503e 148d 34be 171a 573c
000000a0: 8a1f 09bd 0d91 f93d eed8 203b f07f 083d
000000b0: e67c d5bd e797 4dbd 7ec2 ddbb 8d23 90bc
000000c0: 4a15 b5bd 6626 c1bd d40e 963d 9981 b3bd
000000d0: e15f 2c3d b148 5abd 9c4b 1fbe b5f9 113e
000000e0: 9007 313d 6f87 063e 8827 d1bd 5655 84bc
000000f0: 9003 62bd 2849 463d 9ba9 893d c177 6dbb
00000100: 3f27 50bd 1c2d 36bc cf55 073d 1272 073c
00000110: 49bc 873d c100 993c 12e6 c13d d887 4a3b
00000120: 96ab 223e f5c9 153e ef12 723d 2ab0 98bd
00000130: a838 09bb 1405 173e 2433 1b3d d50e d1bd
00000140: aeaf c2bb 4af9 07be ac68 9bbd 3419 b8bb
00000150: 59a2 653e 515e 65bd b44e acbc 2033 a5bc
00000160: e34c 293e 8884 05bd e0e8 f6bc 0a16 173b
00000170: bded cfbd 6f5b 52bd f1b5 533a a2b0 d7bb
00000180: cedb 9d3c 8704 7c3d b388 a13d efa9 733d
00000190: 900d d73d 0bae 1f3d fe3d 96bd d18a 81bd
000001a0: 15d5 f43b d87e 0abd abaa acbd 69bd 11bd
000001b0: ea8f 53bd 63d1 e63c 0c42 033d c6a6 483d
000001c0: 55a1 13be d894 da3c 0bfa e63d 38ef 4bbd
000001d0: f0a6 dcbc 0c41 423d 9916 60bd 5a18 893d
000001e0: c863 823d aaca 9c3c 9cf6 a33d 691b 073d
000001f0: 93f1 cabc 625e 6abd 791e 76bc b6ff c1bd
00000200: d94e 883d dfe9 233e cf3c c03c 3fb4 e9bd
00000210: 0823 7c3d a9a9 1c3d 6d6e b33d 1ac8 10bd
00000220: b0a4 74bc 913f 64bd 9348 ca3b ea6a 653d
00000230: ee7b a43d 6cf7 d8bb ea73 093b ace6 103d
00000240: b6c2 923d efca bf3c ee61 963c a452 5dbd
00000250: ad5b 413c 0d3a 97bc 5217 ac3d 7a57 c83d
00000260: 576d a73b 93c9 c5bd 466c 25bd f7eb 9d3c
00000270: fa59 633c 8459 17bd 47ba da3c d6b1 36bc
00000280: bafe 143e 1215 69bc e9b0 8f3d f51a 263d
00000290: 3be4 663c 047c 5ebd 74ef 9ebd 9417 1fbd
000002a0: d048 283d 4b85 643d 2e80 aa3b 55f8 943c
000002b0: 3b67 a73d 3e11 063d a70c 093d cc6e cf3c
000002c0: dee5 25bc 84dd cabd 1a1a cf3d 2a14 933a
000002d0: 2cd3 393d 3ae4 d93c 0493 463d d44f 3c3d
000002e0: be60 853d f8a5 053d dbc5 cd3c 014d c6bd
000002f0: 4859 b7bd fc27 8b3d a107 233d 4b82 9bbd
00000300: c480 4e3c f81a b43d d74d 7d3d 56b0 56bb
00000310: 1386 fcbc 69af 223c 9425 66bc 1540 053d
00000320: 6cb9 1ebd 2095 0f3c f3ef 143d 97a9 613d
00000330: 5319 853d 9d9c ee3c 3e0e 1dbe 14e4 bdbd
00000340: a603 45bd 1eb2 c23d b5d2 adbd 375e 11be
00000350: c37b c33d f53a 79bc cc15 133b 7ab3 0d3d
00000360: 3584 063e 6186 87bc 5826 12bd 48ec 9b3d
00000370: 4e92 3b3d 70c1 243e 8e80 e7b9 b5ed c83d
00000380: eb3f 4d3d 7fd1 323d f1a9 0dbe 1164 d0bd
00000390: 5be5 fe3c 4346 82bd 45b7 2f3b 5de7 0b3e
000003a0: 3792 993d a43c cbbd ef76 9bbc cddb 6ebd
000003b0: d461 cc3c 2fd7 883d 0e89 46bd a725 9fbb
000003c0: e4bc b53d 207f 9ebb db4e 323d 4062 853d
000003d0: 61ed 8739 6cd2 123d 924c c9bd f6b1 a53d
000003e0: 29c2 c6bd c307 473d dbdf c73d 0a7e 703c
000003f0: 0344 3d3c fbd1 da3d fb45 3e3d 0c9f 24bd
0.030057708 -0.109073564 -0.10603806 -0.030026684 -0.04550382 0.07257323 0.022437647 0.123175316
-0.05568599 0.0037402092 -0.038165882 -0.03354682 0.12610884 -0.15142713 -0.038944215 0.03172577
0.0247589 0.013685619 0.035597976 0.024251452 0.015134829 0.0747091 0.054061 0.043990023
0.01996305 0.01821853 -0.14279354 -0.059472468 0.031501584 -0.084438406 -0.035924163 0.025411101
-0.07726255 -0.0457128 0.09135319 -0.032367293 -0.0938794 0.20337662 -0.17631942 0.013128779
-0.033477344 0.12185869 0.0024543363 0.033325136 -0.10424213 -0.050193693 -0.00676757 -0.017595077
-0.08841951 -0.09431152 0.07327047 -0.08764953 0.042083625 -0.05329198 -0.15556186 0.14255412
0.043220103 0.13137601 -0.10212618 -0.016153973 -0.05517918 0.04840961 0.06721803 -0.003623471
-0.050818678 -0.011119153 0.033040818 0.008266943 0.066277094 0.018677117 0.094677106 0.0030903723
0.15885767 0.14627822 0.059100088 -0.07455476 -0.002093831 0.14748031 0.03789057 -0.10207907
-0.005941353 -0.1327869 -0.07588324 -0.005618239 0.22425212 -0.05599815 -0.021033622 -0.02016598
0.16533236 -0.032597095 -0.03014034 0.0023053908 -0.10152767 -0.05135673 0.00080761226 -0.0065823356
0.01926985 0.061527755 0.078874014 0.059488233 0.10500634 0.03898434 -0.07336043 -0.06325305
0.0074716904 -0.033812374 -0.0843099 -0.035581026 -0.05165092 0.028176015 0.03204541 0.048987173
-0.14417012 0.026682302 0.11278161 -0.049788684 -0.02693507 0.047425315 -0.05470905 0.06694098
0.06366688 0.019139607 0.080060214 0.032985125 -0.024773395 -0.057218917 -0.015021914 -0.09472601
0.06655664 0.16007183 0.023466496 -0.11411332 0.061556846 0.038247738 0.087612964 -0.03534708
-0.014931843 -0.055724684 0.0061732023 0.056010164 0.0803145 -0.006621292 0.0020973631 0.035376236
0.071660444 0.023412196 0.018357243 -0.05403389 0.011801642 -0.018460298 0.084028855 0.0978231
0.00510947 -0.09657588 -0.04038646 0.019277556 0.013876433 -0.036950603 0.026700152 -0.011150798
0.14550295 -0.014226215 0.07016165 0.040553052 0.0140925 -0.05431749 -0.07760516 -0.038840845
0.041085064 0.05579118 0.0052032685 0.01818482 0.081739865 0.032731287 0.03345933 0.025321387
-0.010125605 -0.09905532 0.101124 0.0011221219 0.045367405 0.026598085 0.04848005 0.045974568
0.06512593 0.032628983 0.025118759 -0.09682656 -0.08952576 0.06794736 0.039802197 -0.07593211
0.012603942 0.087942064 0.061841812 -0.0032758913 -0.03082565 0.009929516 -0.014047045 0.032531817
-0.03875105 0.0087635815 0.036361646 0.055093374 0.06498971 0.029127413 -0.15337464 -0.09272018
-0.048099183 0.095066294 -0.08487455 -0.14196096 0.0954509 -0.01521181 0.0022443412 0.03459499
0.1313637 -0.016543569 -0.0356811 0.076134264 0.045793824 0.16089416 -0.00044155534 0.09810964
0.050109785 0.043656822 -0.13834359 -0.10175336 0.031115225 -0.063610576 0.0026812118 0.13662477
0.074985914 -0.09923676 -0.01897761 -0.058315087 0.024948992 0.06681668 -0.04847055 -0.0048567834
0.08873919 -0.004836932 0.043532234 0.0651288 0.00025926068 0.035845205 -0.09829058 0.08090584
-0.09705002 0.048591387 0.09759494 0.014678488 0.01155186 0.10684582 0.046453457 -0.04019074

update.0.bias f4 [128]
00000000: 78f6 4a3d 00ed 2b3d 72c1 8f3d b35a 203d
00000010: 12f5 8bbd eaa7 3ebc 6af9 ed3c b665 963d
00000020: bc30 973c 9b0c 173d 24e8 a3bc f88f 343d
00000030: 7b7c 8f3d 831b 6c3d 632b 4c3d 02af 463d
00000040: 1b39 f33c 1b8b 733b 0c76 893b ba7a 80bd
00000050: a6fd 23bc f196 523c fd9e 273d 3461 103c
00000060: 8750 5d3d b834 f13c 3bb8 e33c b56d 063d
00000070: 691b 853c 856c ee3b 263f b13b 003e 413d
00000080: a334 033d c90a 4cbb 9f0c 2b3d 0975 e93c
00000090: eac1 ae3a 63a5 433d fce9 bdbc cef3 883c
000000a0: c28e f13c 98ab 253e b633 243d 3fc0 e13c
000000b0: 67b2 9f3c c769 a13d a12b 23bd 6ebe fb3c
000000c0: 257f ae3c 22e4 7abc 1977 6d3d 9913 203d
000000d0: cb10 d13d 8e4b 063c 9892 01bd 572c 41bd
000000e0: 9939 d23c eb95 34bc 210a 74bb 5efc 053c
000000f0: 8b7f 9c3d 898c 833c 3794 e33c 453f 793d
00000100: 9ecb fb3c ab23 3d3c 318d a83c 8639 903c
00000110: 0ca3 e03c 94b1 f23b 0c3f 883d f8dd 0f3d
00000120: f8b2 4e3d 706a e13c 147e a93c 73ff 5b3d
00000130: 885d a9bc e64c 683d df4e 8cbb ad4d 9a3c
00000140: 212b ac3b 9879 f73c 9cca 8ebc a063 47bb
00000150: 24f1 383d 9b1d a3bc 8510 e33c cb4f 8c3d
00000160: 91fe 2bbd 592d 2a3c 55bd 623c 4402 f63c
00000170: 5fe0 de3c fda5 b339 9f8c b43b b392 033d
00000180: 9016 ba3c e4ad 0fbd 21d3 803d aedf 6e3d
00000190: 3c2a 0a3d 5f59 e53c 8578 b13c 2d9c f23c
000001a0: 8f51 6dbc ff22 1ebc 4aa3 f83c 0b89 b23c
000001b0: 948f 133d 99cd 303d 70c7 733c 5847 1c3d
000001c0: abfd 86bb 5846 10bd c753 c63c fac8 063d
000001d0: e6ce 54bc 56a0 95bc 85f8 af3c c29d d33c
000001e0: d7a8 f13c 3611 753b abeb f93c 836b f83c
000001f0: e332 523c d323 1d3d c55a 213d 5fed 923c
0.049551457 0.041974068 0.07019319 0.039148998 -0.06833853 -0.0116367135 0.029049594 0.073436186
0.018455856 0.036877256 -0.020008154 0.04408261 0.07006165 0.057643425 0.049846064 0.048506744
0.029690316 0.003716177 0.0041949805 -0.06273408 -0.010009205 0.01285337 0.040923107 0.0088122375
0.054031875 0.029444084 0.027797809 0.03281947 0.016248422 0.00727612 0.005409139 0.04717827
0.03203262 -0.0031134358 0.041760083 0.02849819 0.0013332937 0.047765147 -0.023182862 0.016717818
0.029487018 0.16178739 0.040088378 0.02755749 0.019494249 0.078815036 -0.03983653 0.030730452
0.021300862 -0.01531318 0.05797491 0.03908119 0.10208281 0.008196725 -0.031633943 -0.047161426
0.02566223 -0.011022071 -0.0037237483 0.008177845 0.076415144 0.016058223 0.027780635 0.060851354
0.03073674 0.011544148 0.020575138 0.017605554 0.027421497 0.007406423 0.0665265 0.035123795
0.050463647 0.027516574 0.020690002 0.053710412 -0.020674482 0.05671396 -0.004281863 0.018835867
0.005254165 0.030209348 -0.017430596 -0.0030424371 0.045151845 -0.019911578 0.027717838 0.06851157
-0.04199082 0.010386788 0.013839086 0.030030377 0.027206598 0.0003426521 0.0055099274 0.032122325
0.022715837 -0.035077944 0.0629027 0.058318786 0.033731684 0.027996717 0.021663914 0.029615486
-0.014484777 -0.009651898 0.0303513 0.021793863 0.0360256 0.043164823 0.014879093 0.038153976
-0.004119595 -0.035223335 0.02420987 0.03290651 -0.012988782 -0.01826493 0.021480808 0.02583206
0.029499454 0.0037394292 0.030507883 0.030324703 0.012829515 0.038364243 0.039393205 0.017935453
