models/sf/na7_uc.pt (torch_old, 550153 bytes, 105 tensors)

encoder.0.weight f4 [128, 6]
0.09452349 0.017167801 -0.03074166 0.082656294 -0.2166386 0.11873234 0.047280196 0.07341404
-0.04926853 -0.059345458 0.004962488 -0.12854983 -0.09492807 0.052744262 -0.080602586 -0.13775647
0.20636223 -0.0148118725 -0.028509654 0.08638762 -0.068944365 -0.054167107 0.14617264 -0.14464904
0.003061082 -0.10625695 -0.13252786 -0.028719686 0.034303807 0.12294039 -0.15838937 -0.0068912334
0.004719501 -0.017088544 0.024155922 0.13487968 -0.044349678 -0.039040945 -0.08495227 0.03966524
0.16340645 0.116230786 -0.0054843407 0.044378772 0.07520937 0.05119079 -0.23771822 -0.0837468
-0.04414495 0.09855579 -0.007476394 -0.031995814 -0.27992958 0.0071013076 0.048428267 0.040298134
-0.08795894 0.10790911 0.35613874 -0.085047014 -0.0030801992 -0.008425478 0.0133547345 -0.03238092
0.1515034 0.010214039 0.038042977 0.036736157 -0.021842206 -0.009330468 -0.20495793 -0.10282117
0.06524021 -0.062209 0.006420342 -0.08965546 -0.08423572 0.17932206 -0.029442212 -0.051908713
-0.04673871 0.069157414 0.20022339 0.007362729 -0.0284828 0.01899889 -0.0026584053 -0.07452796
0.22709706 -0.11877351 0.07042861 -0.032938845 0.09692171 -0.13367794 -0.16894974 0.04466749
0.13831806 -0.059114896 -0.09424196 -0.099943146 0.12585044 -0.16527656 0.055463605 0.03169965
-0.028784283 -0.015394505 -0.1244857 -0.071335815 0.008959212 0.12847489 -0.031884506 0.1084867
-0.085215546 -0.006347047 -0.012187148 -0.00031068557 0.17982005 0.022139294 -0.06644166 0.0023610282
-0.075953335 -0.087894246 -0.0804953 0.1650066 0.113921605 -0.2538049 -0.09155606 0.080639
-0.017277373 -0.038410302 -0.045086056 -0.09692985 0.015474693 -0.08163453 -0.04546975 -0.041071065
-0.174833 -0.13659781 -0.008760571 -0.03219587 -0.034140494 -0.022710582 0.119231574 0.32736465
-0.021552136 0.019616647 0.0022946054 0.007108034 0.06763505 0.21290423 -0.021657022 -0.044461068
0.10617817 0.13473563 -0.11895575 0.23189089 0.009539442 0.1553016 0.2186633 0.05834055
0.022605019 -0.12134057 -0.014169357 0.09408734 -0.07641043 -0.087101966 -0.1089495 0.12381082
0.020123143 0.2631857 -0.06414958 -0.110650815 0.1496391 0.041139662 0.16943766 -0.006887417
0.033083446 0.04649128 0.0809404 -0.0064400267 0.0099623585 -0.10948265 -0.038365874 0.033865966
-0.12111408 -0.03202054 -0.055255864 0.019418398 -0.009963906 0.054222297 -0.06401874 -0.2534102
-0.04690071 0.03305478 0.073715225 0.22650221 -0.06071213 -0.11800343 -0.098272756 -0.1549646
-0.045759752 -0.17120634 0.014691072 0.1757196 0.017990207 0.012253199 0.050761193 0.026523849
0.07696304 -0.29412177 -0.0069084675 0.034284517 0.020169895 0.16909452 0.122424975 -0.19695452
-0.016646383 0.023000408 -0.1421403 0.13434294 -0.010810473 0.13204251 0.0705964 0.007605806
0.008835339 0.046781253 -0.18498431 -0.02921547 -0.027641645 -0.029241003 -0.065261595 -0.033448115
-0.34502968 0.07593693 0.036203496 -0.0068875654 -0.086759195 0.18380131 -0.21191384 -0.14059007
-0.08652832 -0.13044555 0.018911896 0.028359128 0.1976202 0.20788991 -0.02012501 -0.031605
0.05309535 -0.04505742 0.14486295 -0.019777989 -0.12680228 -0.08668346 -0.10137496 -0.1642137
00000000: 8895 c13d 7da3 8c3c efd5 fbbc b447 a93d
00000010: 82d6 5dbe f129 f33d e1a8 413d 1a5a 963d
00000020: cccd 49bd 3914 73bd 5e9c a23b 91a2 03be
00000030: a669 c2bd 5e0a 583d f812 a5bd 0810 0dbe
00000040: 9f50 533e 7fad 72bc 148d e9bc feeb b03d
00000050: b432 8dbd 54de 5dbd 48ae 153e e11e 14be
00000060: 6f9c 483b 3e9d d9bd 62b5 07be 8c45 ebbc
00000070: 2682 0c3d 2cc8 fb3d d330 22be dbcf e1bb
00000080: 0ba6 9a3b 46fd 8bbc a4e2 c53c e61d 0a3e
00000090: 02a8 35bd 66e9 1fbd 75fb adbd 0578 223d
000000a0: 0554 273e 680a ee3d fcb5 b3bb 84c6 353d
000000b0: 5f07 9a3d 6fad 513d 686c 73be 7183 abbd
000000c0: 56d1 34bd 9ed7 c93d 8afc f4bb 0b0e 03bd
000000d0: ee52 8fbe 16b2 e83b b85c 463d a80f 253d
000000e0: d123 b4bd 74ff dc3d d157 b63e 212d aebd
000000f0: 2bdd 49bb 040b 0abc d1cd 5a3c dba1 04bd
00000100: b523 1b3e c958 273c f4d2 1b3d a778 163d
00000110: 6dee b2bc d2de 18bc 7ee0 51be e893 d2bd
00000120: a99c 853d ddce 7ebd bb61 d23b 489d b7bd
00000130: c783 acbd 34a0 373e cb30 f1bc 3b9e 54bd
00000140: 1771 3fbd 67a2 8d3d 5c07 4d3e 0c43 f13b
00000150: c354 e9bc 8fa3 9b3c a438 2ebb 1da2 98bd
00000160: 228c 683e 873f f3bd e03c 903d e2ea 06bd
00000170: e47e c63d dfe2 08be 2901 2dbe 42f5 363d
00000180: 40a3 0d3e 7622 72bd ee01 c1bd feae ccbd
00000190: f0de 003e 423e 29be ce2d 633d 7ed7 013d
000001a0: 04cd ebbc 3c39 7cbc 5cf2 febd 8318 92bd
000001b0: a9c9 123c ec8e 033e 5499 02bd 462e de3d
000001c0: 7d85 aebd e4fa cfbb 9bac 47bc 83e3 a2b9
000001d0: bf22 383e 775d b53c 9112 88bd 7bbb 1a3b
000001e0: 6c8d 9bbd e601 b4bd b8da a4bd 7df7 283e
000001f0: bb4f e93d b7f2 81be be81 bbbd 0f26 a53d
00000200: 4789 8dbc 1f54 1dbd 28ac 38bd 2883 c6bd
00000210: 9189 7d3c 0130 a7bd 7d3e 3abd 223a 28bd
00000220: 6c07 33be 4ce0 0bbe 7f88 0fbc d1df 03bd
00000230: e7d6 0bbd 8b0b babc af2f f43d 579c a73e
00000240: 1b8e b0bc 17b3 a03c 1761 163b 83ea e83b
00000250: 3f84 8a3d 9103 5a3e 116a b1bc cf1c 36bd
00000260: f173 d93d 23f8 093e 129f f3bd ce74 6d3e
00000270: 524b 1c3c 6207 1f3e 46e9 5f3e 80f6 6e3d
00000280: 292e b93c 6881 f8bd 9726 68bc ddb0 c03d
00000290: 127d 9cbd 8462 b2bd ea20 dfbd 8790 fd3d
000002a0: 4ad9 a43c 47c0 863e db60 83bd e59c e2bd
000002b0: fe3a 193e 1082 283d 1181 2d3e d7af e1bb
000002c0: 8282 073d a46d 3e3d 15c4 a53d dc06 d3bb
000002d0: 2939 233c 7138 e0bd 8925 1dbd 0ab7 0a3d
000002e0: a90a f8bd f827 03bd f953 62bd 5513 9f3c
000002f0: a73f 23bc 3318 5e3d 421c 83bd fbbe 81be
00000300: f51a 40bd 7364 073d 02f8 963d 32f0 673e
00000310: 48ad 78bd c8ab f1bd 3a43 c9bd 0aaf 1ebe
00000320: 946e 3bbd b750 2fbe d2b2 703c d7ef 333e
00000330: 3360 933c a4c1 483c f8ea 4f3d 8b48 d93c
00000340: cc9e 9d3d 2197 96be 6d60 e2bb ec6d 0c3d
00000350: 563b a53c 1d27 2d3e f2b9 fa3d 72ae 49be
00000360: ff5d 88bc 5a6b bc3c 3a8d 11be 3291 093e
00000370: 691e 31bc 2736 073e d894 903d 203a f93b
00000380: 19c2 103c b39d 3f3d 876c 3dbe 4855 efbc
00000390: bb70 e2bc d48a efbc dfa7 85bd e400 09bd
000003a0: bba7 b0be d284 9b3d 1e4a 143d 16b1 e1bb
000003b0: ceae b1bd 6936 3c3e f1ff 58be d8f6 0fbe
000003c0: c335 b1bd 8593 05be 1fed 9a3c 6751 e83c
000003d0: f35c 4a3e 18e1 543e 34dd a4bc 3f74 01bd
000003e0: 827a 593d 218e 38bd f456 143e 7305 a2bc
000003f0: 75d8 01be 1987 b1bd ad9d cfbd a327 28be

encoder.0.bias f4 [128]
0.028992679 0.038784567 -0.038825102 0.04258107 -0.0053638183 -0.032086458 0.030991724 0.065262765
0.012610148 0.069973156 0.05874688 0.050371177 -0.0154234795 0.021144668 0.0795769 0.030564114
0.033372074 0.07189003 -0.02522977 0.009916972 0.00054843444 0.043922663 0.0845618 -0.039035853
0.10516653 0.04785266 -0.00038003 0.0032541915 0.03416161 -0.009956317 0.044424556 0.021267623
0.02318805 -0.0039855186 0.050616264 0.0228622 0.012905271 0.060333747 0.07899679 0.06121066
0.050037593 -0.02201955 -0.021938097 0.021158105 -0.027763579 -0.032927886 0.05045769 0.051870074
0.03809689 -0.03004287 0.06998002 0.05242784 -0.013853087 0.01584259 0.04098625 -0.04136756
0.08072388 0.023769002 0.006456716 0.048270967 0.06122396 -0.008770094 0.044673853 0.044115596
-0.008653846 -7.940388e-05 0.066270255 0.015737988 -0.008770057 0.032736614 -0.0011645275 0.020072345
0.084369786 0.093385205 0.033266384 0.00804351 0.0070712077 0.06184586 0.025593754 0.007807924
-0.0042673354 0.015524738 0.046716545 0.0077702096 0.066752516 0.010529471 0.030830892 -0.017528553
0.06208428 0.03981172 -0.019838052 0.007342268 -0.048007205 0.077121355 0.031503715 0.043734897
-0.0367117 0.05834053 0.033252653 0.09897732 0.052539017 0.06143259 0.04733641 -0.011588483
-0.0030482954 0.015299952 0.08064547 -0.0026283711 0.02171806 0.100910924 0.02406824 0.029145924
0.040432177 -0.008877821 0.03710163 0.03655953 -0.015396234 0.04105795 0.049146987 -0.023668554
0.026738169 0.04184842 0.017294765 0.030424692 0.056080427 0.027279815 0.025622949 0.04136303
00000000: 0e82 ed3c 91dc 1e3d 1207 1fbd 7d69 2e3d
00000010: f8c2 afbb 176d 03bd 5be2 fd3c 7ca8 853d
00000020: cb9a 4e3c 164e 8f3d 92a0 703d 0252 4e3d
00000030: c3b2 7cbc 9537 ad3c 37f9 a23d 9861 fa3c
00000040: 28b1 083d 143b 933d aaae cebc cc7a 223c
00000050: d0c4 0f3a 40e8 333d bd2e ad3d 0fe4 1fbd
00000060: 8d61 d73d 2701 443d c33e c7b9 4644 553b
00000070: 0bed 0b3d d21f 23bc 86f6 353d 7039 ae3c
00000080: def4 bd3c f498 82bb 0053 4f3d 8249 bb3c
00000090: a170 533c 8520 773d 12c9 a13d 07b8 7a3d
000000a0: 38f4 4c3d 5862 b4bc 86b7 b3bc c353 ad3c
000000b0: 7270 e3bc 64df 06bd b9ac 4e3d b775 543d
000000c0: 7c0b 1c3d 771c f6bc af51 8f3d 93be 563d
000000d0: 0ff8 62bc 52c8 813c 33e1 273d 0871 29bd
000000e0: 9052 a53d 36b7 c23c dc92 d33b c7b7 453d
000000f0: fac5 7a3d 71b0 0fbc eefb 363d 8eb2 343d
00000100: dcc8 0dbc a285 a6b8 b3b8 873d f4ec 803c
00000110: 49b0 0fbc d416 063d 0fa3 98ba c26e a43c
00000120: 11ca ac3d be40 bf3d 5542 083d edc8 033c
00000130: 97b5 e73b 1652 7d3d fea9 d13c 9dd9 ff3b
00000140: 01d5 8bbb 785b 7e3c d959 3f3d 3e9d fe3b
00000150: 8bb5 883d cd83 2c3c 1191 fc3c 0a98 8fbc
00000160: 164c 7e3d 9d11 233d 6983 a2bc 6897 f03b
00000170: 34a3 44bd cdf1 9d3d 0a0a 013d 5d23 333d
00000180: 025f 16bd 7bf6 6e3d ef33 083d 9fb4 ca3d
00000190: 2733 573d bda0 7b3d d3e3 413d 9fdd 3dbc
000001a0: e9c5 47bb a6ac 7a3c 7429 a53d c040 2cbb
000001b0: 13ea b13c 63aa ce3d c22a c53c 6fc3 ee3c
000001c0: 369c 253d 4874 11bc e1f7 173d 72bf 153d
000001d0: 7c40 7cbc 622c 283d 5a4e 493d 8ee4 c1bc
000001e0: 010a db3c 4069 2b3d c0ad 8d3c 343d f93c
000001f0: 97b4 653d eb79 df3c 38e7 d13c 486c 293d

messages.W_query f4 [1, 128, 128]
-0.04906527 0.07650223 -0.09927908 -0.0023374504 0.0024643843 -0.055460628 0.07952524 -0.020097448
-0.08231567 -0.03102391 -0.06826661 -0.0483548 -0.015028615 0.090325125 0.029983675 0.050149262
0.061047044 0.008397221 -0.022229128 0.046881735 0.058443278 0.08887579 0.03721942 -0.04791813
-0.039965086 0.13812721 0.07957368 0.045384888 -0.14794908 -0.03724478 -0.08196545 -0.09040192
-0.014911832 -0.11086464 0.107443914 -0.0072378046 -0.098237656 -0.2102375 -0.04749204 0.113915496
-0.08058467 -0.02147068 -0.111831896 0.119935036 -0.067332454 0.11164582 -0.0011490824 -0.06896956
0.007981408 0.117974214 -0.07222441 -0.0098580625 0.10544871 0.06620555 0.12942594 0.15054534
0.03193969 -0.113207735 -0.09160901 0.05358563 -0.16149795 -0.076471046 0.017479125 0.2007602
0.007592757 0.022159547 -0.06089879 -0.10345709 0.05258134 0.121489875 -0.06462786 -0.0043578465
0.16781323 -0.0064292755 -0.020466087 0.08292007 0.08378714 0.12832573 0.0071979715 -0.10488584
-0.033108287 0.18136258 -0.12607206 -0.060037374 -0.13396637 -0.06863064 -0.0069174753 -0.09384815
0.105897106 -0.13802607 0.05474629 0.02424059 -0.03915143 -0.13565007 -0.05824433 0.12369197
-0.0790642 -0.19362208 -0.03178736 -0.08491224 -0.17767896 0.15224802 -0.1250778 0.18153447
0.06857083 0.11208348 0.13268794 0.035089556 -0.04976786 -0.05004605 0.13378501 -0.08056946
-0.052535225 -0.019686734 -0.03916064 -0.040592328 0.043781288 0.10863811 0.07538319 0.031464845
-0.05011885 0.11382728 0.08612003 0.02726376 0.05058147 -0.02636575 -0.06482789 0.052135866
-0.09288669 -0.067651436 -0.04739967 -0.0328535 -0.07634136 -0.049468335 -0.001634074 0.04032492
-0.0053776414 -0.0019525589 0.023120271 0.10009678 -0.011732876 -0.0048027253 -0.018095164 -0.03121774
0.033711042 0.02297755 -0.021218454 -0.007392679 0.12077207 -0.006241127 -0.11494344 -0.09072433
-0.0055602966 -0.08288623 0.004157735 0.024798831 0.07515661 0.08449359 0.08642921 -0.032958828
0.15291862 -0.112668514 -0.077825174 -0.020624567 0.06638951 0.034439538 -0.11623594 -0.109900296
0.1112239 -0.03662469 0.08176704 -0.12743613 0.066410966 -0.09149416 0.097285196 0.07344983
0.049885646 -0.09766049 0.018836644 0.06984033 -0.04561534 0.10121335 -0.069859535 -0.112654954
-0.009489149 0.056961045 -0.028067568 0.04375116 0.06353773 -0.0043264832 0.020944292 -0.022718837
0.04573828 0.01836415 -0.20737836 0.058437347 -0.010839829 -0.121112026 0.045768723 0.1555508
0.0014518523 0.030142065 0.034375284 -0.05070504 -0.018773086 -0.041898042 0.06452443 0.0031210054
-0.11194798 -0.13113381 0.08805431 -0.012554998 -0.0042539756 0.12855509 -0.10591305 0.113681935
0.0031045186 0.03890271 -0.0057980623 -0.05095926 0.0028928882 0.10964369 0.08597432 -0.0034663265
-0.029688234 0.08163091 -0.005298359 0.00882514 0.09707313 -0.10103083 -0.016158683 0.020312393
-0.051060658 0.017821664 -0.13558447 -0.12395074 0.06226788 0.059001666 -0.043391112 0.11555615
-0.06730941 0.07670226 0.12052226 -0.020202681 0.07911254 -0.107645385 -0.08879406 0.07029869
-0.025570314 0.092420705 -0.13352366 -0.08086977 0.0012105965 -0.02148478 -0.06888312 -0.022266774
00000000: aaf8 48bd 33ad 9c3d d552 cbbd e92f 19bb
00000010: 8281 213b af2a 63bd 21de a23d 67a3 a4bc
00000020: 1e95 a8bd db25 febc 5dcf 8bbd af0f 46bd
00000030: 943a 76bc 61fc b83d 53a0 f53c 5069 4d3d
00000040: 770c 7a3d 7f94 093c dc19 b6bc 1007 403d
00000050: 3862 6f3d 8304 b63d 6473 183d cd45 44bd
00000060: 6eb2 23bd 3871 0d3e 87f7 a23d 81e5 393d
00000070: f77f 17be fc8d 18bd 80dd a7bd a424 b9bd
00000080: c250 74bc 000d e3bd 8e0b dc3d 1b2b edbb
00000090: d330 c9bd 8048 57be 0387 42bd 874c e93d
000000a0: 9309 a5bd 48e3 afbc 1f08 e5bd 80a0 f53d
000000b0: 99e5 89bd 90a6 e43d cf9c 96ba ea3f 8dbd
000000c0: 74c4 023c 779c f13d 64ea 93bd b683 21bc
000000d0: 7ef5 d73d c796 873d 3c88 043e 8f28 1a3e
000000e0: 31d3 023d 75d9 e7bd 819d bbbd 9b7c 5b3d
000000f0: b85f 25be da9c 9cbd 6230 8f3c 1594 4d3e
00000100: aacc f83b f087 b53c 0271 79bd 50e1 d3bd
00000110: 885f 573d afcf f83d 9d5b 84bd 44cc 8ebb
00000120: 3bd7 2b3e acac d2bb 7fa8 a7bc ffd1 a93d
00000130: 9898 ab3d d267 033e f6dc eb3b 63ce d6bd
00000140: 8e9c 07bd 1db7 393e 0919 01be c0e9 75bd
00000150: 7b2e 09be 398e 8cbd fdab e2bb 7533 c0bd
00000160: 95e0 d83d b556 0dbe a53d 603d 3494 c63c
00000170: 405d 20bd dae7 0abe 9b91 6ebd 3752 fd3d
00000180: 69ec a1bd de44 46be 7633 02bd 78e6 adbd
00000190: 79f1 35be e8e6 1b3e 6514 00be 2ce4 393e
000001a0: dd6e 8c3d 068c e53d 59df 073e 11ba 0f3d
000001b0: 62d9 4bbd 16fd 4cbd f0fe 083e 9a01 a5bd
000001c0: 2d2f 57bd 1346 a1bc e866 20bd 2444 26bd
000001d0: 0254 333d a87d de3d 8062 9a3d 48e1 003d
000001e0: 6c49 4dbd 471e e93d b35f b03d 4058 df3c
000001f0: 842e 4f3d fcfc d7bc 7cc4 84bd 6b8c 553d
00000200: 603b bebd d68c 8abd 2826 42bd 6491 06bd
00000210: dc58 9cbd 4f9f 4abd 6d2e d6ba be2b 253d
00000220: ed36 b0bb 01ed ffba b966 bd3c 8aff cc3d
00000230: 403b 40bc 2e60 9dbb 4f3c 94bc 59bc ffbc
00000240: 9714 0a3d 6a3b bc3c 53d2 adbc 493e f2bb
00000250: 5957 f73d 5e82 ccbb 7767 ebbd adcd b9bd
00000260: 2633 b6bb 41c0 a9bd 9c3d 883b eb26 cb3c
00000270: b5eb 993d fa0a ad3d cc01 b13d d6ff 06bd
00000280: b396 1c3e c0be e6bd ce62 9fbd daf4 a8bc
00000290: 39f7 873d 7910 0d3d 1c0d eebd 6813 e1bd
000002a0: 5bc9 e33d c503 16bd 7a75 a73d 9e7e 02be
000002b0: 7902 883d 4a61 bbbd 763d c73d dd6c 963d
000002c0: e454 4c3d 3902 c8bd 4e4f 9a3c 7208 8f3d
000002d0: 27d7 3abd f248 cf3d 8412 8fbd a4b7 e6bd
000002e0: 6078 1bbc fc4f 693d f5ed e5bc 6b34 333d
000002f0: 1220 823d 2cc5 8dbb 5d93 ab3c db1c babc
00000300: 1058 3b3d 6a70 963c fe5a 54be 005c 6f3d
00000310: 8a99 31bc 9509 f8bd fc77 3b3d b548 1f3e
00000320: 144c be3a 7eec f63c 19cd 0c3d 17b0 4fbd
00000330: 04ca 99bc 489d 2bbd 6225 843d c889 4c3b
00000340: fc44 e5bd f147 06be d155 b43d 7ab3 4dbc
00000350: ef64 8bbb f2a3 033e f1e8 d8bd 13d2 e83d
00000360: 2e75 4b3b 7358 1f3d acfd bdbb a8ba 50bd
00000370: 9c96 3d3b df8c e03d 4e13 b03d 4f2b 63bb
00000380: bd34 f3bc 1b2e a73d db9d adbb 5297 103c
00000390: 47ce c63d 40e9 cebd 375f 84bc 2d66 a63c
000003a0: fb24 51bd bdfe 913c a8d6 0abe e3d9 fdbd
000003b0: 9b0c 7f3d bbab 713d e1ba 31bd b4a8 ec3d
000003c0: 84d9 89bd 1316 9d3d 60d4 f63d 1880 a5bc
000003d0: c105 a23d 2f75 dcbd a9d9 b5bd c2f8 8f3d
000003e0: d678 d1bc 1147 bd3d 6dba 08be 0d9f a5bd
000003f0: e1ac 9e3a d900 b0bc 9812 8dbd cf68 b6bc

messages.W_key f4 [1, 128, 128]
-0.045996737 0.09735403 -0.066389896 0.07876169 0.028944267 0.01925724 0.0742735 -0.12498568
0.032789785 -0.03561469 0.0850751 -0.2038547 -0.014371819 -0.10746923 0.08726392 -0.017789893
-0.04160755 0.02174409 0.09818463 0.027719628 0.0011176117 0.13471413 -0.044727556 0.03629756
-0.0145865455 0.021571763 0.013039732 0.043249313 -0.1179598 0.05962943 0.049359173 -0.0081234
0.040378474 -0.04434461 0.006031024 0.10200498 0.056907017 -0.13770393 0.11580259 -0.020805467
-0.08506758 0.09663409 -0.114390105 -0.06822608 -0.04580601 0.07958087 0.075900726 -0.105877936
-0.01456756 0.05526174 0.069628246 0.0024487374 0.22914636 -0.033745028 -0.06726836 0.15484133
-0.07335768 -0.03952451 0.08088254 -0.059681993 -0.061470717 -0.07256112 -0.058486845 0.05574086
0.017924435 0.10690508 -0.085403234 0.1173573 0.05013472 0.04169428 0.010736909 -0.00080118526
-0.007251903 0.047516517 -0.008232611 -0.071987234 0.09986218 -0.06011462 -0.020852583 -0.040224474
-0.014529024 0.17815629 -0.06816287 -0.05110394 0.055289514 -0.043944687 0.05305343 -0.11486169
-0.07955285 0.035055693 0.109191515 0.0887975 0.062474143 0.034596324 -0.023212623 0.11752884
-0.057246234 -0.16101733 0.10429829 0.08956952 -0.103516184 0.0056380644 -0.026744483 0.15865706
0.08121152 0.0064173336 0.008539461 0.07619241 -0.13681382 0.02094922 0.13545051 -0.058806058
-0.078095816 0.035694987 -0.004463106 0.07182418 0.07455896 -0.07116207 -0.0045493264 0.0827886
-0.13874184 -0.075541146 -0.01346195 -0.0070527163 -0.082492426 0.049099732 0.037981242 0.11776398
-0.11472764 0.08606912 0.08002659 -0.058470484 -0.13597399 -0.06617645 0.015305178 0.091769375
0.0070260586 0.0042600767 -0.0732783 0.047814164 -0.07609258 0.044951286 -0.12802681 -0.084336534
-0.051487613 0.078030735 -0.12980834 0.044962525 0.1136163 -0.06364026 -0.10787863 0.06789776
-0.045553926 -0.0074563483 0.04269815 -0.07158315 0.07198022 0.07051373 -0.017939437 -0.074820556
0.1210386 0.037637495 -0.051531743 0.07434831 0.042900097 0.005809257 0.0041273744 0.065295324
0.081329234 -0.046927907 0.1362814 -0.05855498 -0.023853496 -0.0016843398 -0.014286372 0.009929398
0.034104645 0.02823661 -0.106951796 -0.008842849 -0.1396676 -0.027088156 -0.05151475 -0.12906428
-0.113082156 0.039329957 0.10082806 0.0613937 0.086491205 0.15210776 -0.007937209 -0.11498408
0.063999 -0.08205346 -0.035324916 -0.040000334 0.026496954 0.057475254 -0.13650326 0.053181626
-0.067326486 -0.067496836 0.012440209 0.024318522 -0.11729049 -0.010517354 -0.018266175 -0.0002522188
0.030723576 -0.23504935 0.2079619 0.003999401 -0.043350957 0.1354563 0.05012624 0.19775653
0.054766018 0.031286202 -0.09809556 -0.08752237 0.008760614 0.06900331 0.116618335 -0.040932722
0.010348136 0.09867471 -0.08844353 0.15175411 0.09956236 -0.09979662 -0.022633303 -0.077688776
0.037988015 0.036971897 -0.11179076 -0.10319695 0.0147703 0.032191843 0.0030905758 0.0691233
-0.036947083 0.029216854 0.012084166 0.066385046 -0.122651376 0.003544723 0.041984975 -0.10047616
0.08595599 -0.09896747 -0.04789629 0.021925569 -0.051824532 0.07915356 0.017715165 -0.12477393
00000000: 1367 3cbd 8d61 c73d 6df7 87bd cf4d a13d
00000010: 871c ed3c 5cc1 9d3c b41c 983d 7ef8 ffbd
00000020: 954e 063d b6e0 11bd db3b ae3d 49bf 50be
00000030: c777 6bbc d418 dcbd 6db7 b23d 1cbc 91bc
00000040: ae6c 2abd a920 b23c 0615 c93d 4614 e33c
00000050: d37c 923a 80f2 093e 3e34 37bd c0ac 143d
00000060: 68fc 6ebc 44b7 b03c 9aa4 553c 3126 313d
00000070: e894 f1bd fd3d 743d d82c 4a3d 0218 05bc
00000080: e663 253d b2a2 35bd e59f c53b fde7 d03d
00000090: 5517 693d 4202 0dbe e929 ed3d 3a70 aabc
000000a0: e937 aebd 18e8 c53d 5c45 eabd 1dba 8bbd
000000b0: 159f 3bbd 4cfb a23d d771 9b3d 88d6 d8bd
000000c0: c6ac 6ebc 225a 623d 4199 8e3d ff7a 203b
000000d0: 58a5 6a3e 3a38 0abd fec3 89bd ba8e 1e3e
000000e0: 8d3c 96bd 74e4 21bd bfa5 a53d 1b75 74bd
000000f0: b8c8 7bbd ed9a 94bd e78f 6fbd 8750 643d
00000100: 44d6 923c 0df1 da3d e4e7 aebd 0659 f03d
00000110: 105a 4d3d 9fc7 2a3d dce9 2f3c a206 52ba
00000120: 5fa1 edbb aea0 423d 13e2 06bc 0b6e 93bd
00000130: 8b84 cc3d bf3a 76bd 09d3 aabc 6bc2 24bd
00000140: 250b 6ebc 9a6e 363e fa98 8bbd 5d52 51bd
00000150: 4277 623d 58ff 33bd 8e4e 593d 9b3c ebbd
00000160: 9bec a2bd 8f96 0f3d cd9f df3d 77db b53d
00000170: e3e4 7f3d e0b4 0d3d 6628 bebc f6b2 f03d
00000180: 077b 6abd bae1 24be 589a d53d 3970 b73d
00000190: 4b00 d4bd 83bf b83b 3f17 dbbc ff76 223e
000001a0: 3a52 a63d 7f48 d23b 18e9 0b3c c40a 9c3d
000001b0: ec18 0cbe b39d ab3c 8ab3 0a3e 9fde 70bd
000001c0: b3f0 9fbd e834 123d 3f3f 92bb 8e18 933d
000001d0: 5eb2 983d 6bbd 91bd 8412 95bb 128d a93d
000001e0: 5712 0ebe 51b5 9abd 838f 5cbc 791a e7bb
000001f0: caf1 a8bd cd1c 493d 3892 1b3d 3e2e f13d
00000200: 53f6 eabd 0245 b03d fbe4 a33d bf7e 6fbd
00000210: c43c 0bbe 8587 87bd 92c2 7a3c 95f1 bb3d
00000220: da3a e63b 1d98 8b3b ef12 96bd c9d8 433d
00000230: 6dd6 9bbd d71e 383d 7619 03be a2b8 acbd
00000240: ade4 52bd 94ce 9f3d 7aec 04be a02a 383d
00000250: aaaf e83d d355 82bd 79ef dcbd fb0d 8b3d
00000260: c196 3abd 6254 f4bb 41e4 2e3d 309a 92bd
00000270: 5e6a 933d 8169 903d baf5 92bc 853b 99bd
00000280: 16e3 f73d c629 1a3d f312 53bd ed43 983d
00000290: 03b8 2f3d 945b be3b ed3e 873b 8eb9 853d
000002a0: f18f a63d 7a37 40bd 5a8d 0b3e 59d7 6fbd
000002b0: 6868 c3bc 11c5 dcba 6311 6abc eaae 223c
000002c0: 50b1 0b3d 7750 e73c 8b09 dbbd 99e1 10bc
000002d0: 0605 0fbe fbe7 ddbc 2101 53bd 6d29 04be
000002e0: 9e97 e7bd 7318 213d f17e ce3d f677 7b3d
000002f0: 4d22 b13d 23c2 1b3e 110b 02bc c67c ebbd
00000300: e811 833d a50b a8bd dcb0 10bd 64d7 23bd
00000310: 2410 d93c 2c6b 6b3d 83c7 0bbe fad4 593d
00000320: 78e2 89bd c83b 8abd 05d2 4b3c a337 c73c
00000330: ff35 f0bd fb50 2cbc f2a2 95bc 3c3c 84b9
00000340: 02b0 fb3c c7b0 70be f7f3 543e 680d 833b
00000350: c690 31bd 0eb5 0a3e 2c51 4d3d b080 4a3e
00000360: 5552 603d f625 003d 53e6 c8bd ee3e b3bd
00000370: ae88 0f3c 9b51 8d3d 98d5 ee3d 12a9 27bd
00000380: 3a8b 293c f715 ca3d e221 b5bd 6e65 1b3e
00000390: 5ae7 cb3d 2c62 ccbd 7a69 b9bc 4b1b 9fbd
000003a0: 5299 1b3d d86f 173d 8ef2 e4bd ec58 d3bd
000003b0: 21ff 713c 98db 033d 428b 4a3b 8490 8d3d
000003c0: d355 17bd 2f58 ef3c aafc 453c e2f4 873d
000003d0: a530 fbbd 954e 683b 70f8 2b3d 72c6 cdbd
000003e0: b209 b03d 75af cabd e62e 44bd 409d b33c
000003f0: f645 54bd 431b a23d 651f 913c 7989 ffbd

messages.W_val f4 [1, 128, 128]
0.055311624 0.08469648 0.07563486 0.0922968 -0.012731808 0.035693914 -0.070161976 0.0786964
-0.0017577789 -0.039036676 -0.081022896 0.02069124 -0.075294755 -0.0007081519 0.023441592 -0.07152136
0.026618475 -0.0573121 0.079045445 0.032999467 -0.07819872 -0.053198073 -0.04872227 -0.026042974
0.04814711 -0.10321036 -0.01904981 -0.027432377 0.097154625 -0.12535134 0.048065927 -0.010899295
-0.05005846 0.0278254 -0.04475863 0.07100919 -0.06411396 0.017559174 -0.015551387 -0.1313285
-0.04589377 0.03450638 0.006716629 0.025817145 -0.03291298 0.037929527 -0.0010505031 -0.09465116
-0.091348656 -0.07893353 0.1108263 0.03881411 0.014198981 0.0016538611 -0.021494268 0.05137097
0.00551604 -0.0020283263 0.019143652 0.07650874 0.09535131 -0.013282649 0.07501836 0.006304395
-0.06191252 0.014563966 -0.08929155 -0.015794555 0.06836091 -0.09964074 -0.066247575 0.021641366
-0.0196388 -0.061425067 -0.054916397 0.054226696 0.06562895 0.021405434 -0.016837703 -0.029166676
-0.08054634 0.033494342 0.010787902 -0.024931496 -0.069990166 -0.10819405 -0.06888156 -0.04630219
-0.059312537 0.05791641 -0.037106965 -0.040146053 0.023886368 0.009862356 0.046461336 -0.01249259
0.07357391 -0.07800606 -0.026898133 0.0277309 -0.0053889113 0.11313313 -0.011474763 -0.037419304
0.02549789 -0.009617138 -0.07613661 -0.09615539 0.06306756 0.031431846 0.10484343 0.038869485
0.056058113 0.01622213 0.08789799 -0.13857953 -0.046835 0.07426567 0.00043407484 0.063724086
-0.011064591 0.056639563 0.046118513 -0.051007673 0.07689801 0.07800145 0.08879104 0.0018566533
-0.057334315 -0.034655795 -0.06503094 0.057769768 0.053210024 -0.06689912 0.025210857 0.068195
0.037355278 0.069266245 0.009900038 -0.030686976 0.07264481 -0.07252184 -0.0024216783 -0.030157631
-0.033697937 0.07943908 -0.06450932 -0.025883166 0.0029678938 -0.08494239 -0.049330838 0.03565812
0.0031004034 -0.066439874 -0.08346319 0.059334822 0.036116533 -0.093301356 0.08199141 -0.018381776
-0.057308543 0.058099646 0.08325026 -0.054304954 -0.068145275 -0.013916873 0.09448642 0.0010602985
0.068625465 0.0678806 0.04416105 -0.11522706 -0.025482789 0.08107263 -0.03627475 -0.07778736
-0.08852523 0.10822747 0.028752668 -0.07851544 0.09271132 0.072785266 -0.00703717 -0.01925679
-0.024781339 -0.04504807 -0.062080026 0.08966393 -0.06615725 -0.0053855046 0.09132243 -0.051331855
-0.0818245 -0.027030831 -0.11065615 0.0108909495 0.04873811 -0.017316187 0.044188134 0.03115083
-0.052952483 0.1167093 0.020866405 0.1355278 0.012051854 -0.067132235 0.012315754 0.016592601
-0.08310845 0.01900575 0.04999077 -0.06857998 -0.091633745 0.029918946 -0.08318864 -0.0074201887
0.008859192 -0.012406363 0.015633982 -0.09280089 -0.00922033 0.048471227 -0.07792501 -0.07721388
-0.08535469 0.055454135 -0.0044899145 0.047809552 0.080349594 0.01999644 -0.061218828 0.1035919
-0.02501317 0.0015170289 -0.04364402 0.02978955 0.05274146 -0.09088378 0.035132144 -0.072445646
0.084050626 -0.06356898 -0.08609404 -0.06599133 -0.040035274 -0.06310945 -0.024924167 -0.013080761
-0.021705607 0.0583235 0.09439798 -0.006377643 -0.010654266 0.036425572 0.093180135 -0.07240867
00000000: 718e 623d 5975 ad3d 73e6 9a3d 1b06 bd3d
00000010: 1399 50bc c833 123d 15b1 8fbd 942b a13d
00000020: 4665 e6ba ece4 1fbd 55ef a5bd ad80 a93c
00000030: 2334 9abd 45a3 39ba 9508 c03c ca79 92bd
00000040: fd0e da3c 18c0 6abd 94e2 a13d 732a 073d
00000050: a726 a0bd 39e6 59bd 0191 47bd 1358 d5bc
00000060: e735 453d f45f d3bd 590e 9cbc ddb9 e0bc
00000070: 01f9 c63d 1a5c 00be c7e0 443d f592 32bc
00000080: 1a0a 4dbd 18f2 e33c d354 37bd 446d 913d
00000090: 2e4e 83bd 42d8 8f3c 3fcb 7ebc fa7a 06be
000000a0: 1bfb 3bbd 9056 0d3d 2b17 dc3b 7a7e d33c
000000b0: c3cf 06bd fe5b 1b3d 09b1 89ba 78d8 c1bd
000000c0: 0115 bbbd e7a7 a1bd e6f8 e23d 8bfb 1e3d
000000d0: d8a2 683c 5fc6 d83a bf14 b0bc 5e6a 523d
000000e0: e6bf b43b abed 04bb 26d3 9c3c 9db0 9c3d
000000f0: 8c47 c33d 789f 59bc 3aa3 993d 1995 ce3b
00000100: fc97 7dbd b39d 6e3c 7dde b6bd 9563 81bc
00000110: ce00 8c3d 7210 ccbd cfac 87bd 3c49 b13c
00000120: 8ce1 a0bc da98 7bbd 04f0 60bd d01c 5e3d
00000130: 7968 863d 735a af3c 39ef 89bc f4ee eebc
00000140: 7bf5 a4bd 5d31 093d bebf 303c 233d ccbc
00000150: 0157 8fbd d894 ddbd c611 8dbd 5da7 3dbd
00000160: b4f1 72bd c239 6d3d 79fd 17bd 3070 24bd
00000170: 58ad c33c b895 213c 3e4e 3e3d b8ad 4cbc
00000180: ebad 963d a4c1 9fbd 7959 dcbc ea2b e33c
00000190: 7795 b0bb 58b2 e73d a500 3cbc fc44 19bd
000001a0: f3e0 d03c 3391 1dbc 83ed 9bbd 1eed c4bd
000001b0: 9129 813d aebe 003d 27b8 d63d 9c35 1f3d
000001c0: 319d 653d 46e4 843c dd03 b43d cbe7 0dbe
000001d0: 0fd6 3fbd 9918 983d 8a94 e339 c681 823d
000001e0: 4248 35bc e3fe 673d c4e6 3c3d 6ced 50bd
000001f0: b47c 9d3d 39bf 9f3d 14d8 b53d f25a f33a
00000200: 63d7 6abd 3cf3 0dbd f12e 85bd fe9f 6c3d
00000210: c1f2 593d 6802 89bd 0087 ce3c d2a9 8b3d
00000220: d901 193d 76db 8d3d c533 223c 4163 fbbc
00000230: cdc6 943d 5586 94bd 05b5 1ebb 230d f7bc
00000240: d906 0abd f5b0 a23d 761d 84bd ef08 d4bc
00000250: ff80 423b 47f6 adbd 220f 4abd 400e 123d
00000260: 2330 4b3b a111 88bd c0ee aabd 1209 733d
00000270: eeee 133d c814 bfbd 1deb a73d 6195 96bc
00000280: 5dbc 6abd e5f9 6d3d 1d7f aa3d df6e 5ebd
00000290: c08f 8bbd 9903 64bc 1982 c13d b7f9 8a3a
000002a0: 828b 8c3d fc04 8b3d 38e2 343d 2afc ebbd
000002b0: 48c1 d0bc 6809 a63d d594 14bd fb4e 9fbd
000002c0: b74c b5bd 5da6 dd3d b78a eb3c b4cc a0bd
000002d0: 6fdf bd3d 7110 953d 1098 e6bb 6ac0 9dbc
000002e0: 3c02 cbbc 5384 38bd a047 7ebd b9a1 b73d
000002f0: 747d 87bd e378 b0bb 4107 bb3d 5a41 52bd
00000300: 9a93 a7bd c36f ddbc b19f e2bd f46f 323c
00000310: 9da1 473d adda 8dbc 9efe 343d 0730 ff3c
00000320: b4e4 58bd 4905 ef3d 06f0 aa3c cdc7 0a3e
00000330: 2475 453c a07c 89bd 04c8 493c 35ed 873c
00000340: c334 aabd f2b1 9b3c 1fc3 4c3d a973 8cbd
00000350: 79aa bbbd 9418 f53c ce5e aabd 0e25 f3bb
00000360: 2526 113c 0f44 4bbc d612 803c 650e bebd
00000370: de10 17bc c489 463d 2697 9fbd 5022 9ebd
00000380: 71ce aebd e023 633d 2220 93bb f3d3 433d
00000390: 548e a43d 93cf a33c 98c0 7abd fd27 d43d
000003a0: 6be8 ccbc 0bd7 c63a 12c4 32bd 3709 f43c
000003b0: 6e07 583d 4621 babd b9e6 0f3d 625e 94bd
000003c0: bc22 ac3d 7430 82bd 1252 b0bd 7626 87bd
000003d0: 07fc 23bd 873f 81bd c42d ccbc b050 56bc
000003e0: f5cf b1bc 9fe4 6e3d ba53 c13d 8cfb d0bb
000003f0: 3b8f 2ebc fb32 153d 3ad5 be3d ff4a 94bd

messages.W_out f4 [1, 128, 128]
0.050755616 -0.08737213 0.003922309 -0.020782415 0.04940582 0.09195858 0.015550773 -0.079511136
-0.056636404 -0.12194036 0.06821394 -0.009569701 -0.0061284658 -0.006255021 -0.066081665 -0.07623201
-0.08580245 -0.07636635 0.074029446 0.0438191 -0.06831238 -0.013846618 -0.058235064 -0.07659814
0.026338493 0.046878085 -0.062238496 -0.051496968 0.025833603 0.019316107 0.060083013 -0.05588646
-0.051553942 -0.054507893 -0.072979316 -0.032323554 -0.056159243 0.028204074 -0.059131525 -0.008281634
0.04977011 0.07703206 -0.0010739756 -0.08298048 0.073982894 -0.05010244 0.032694552 0.03199282
0.084218934 0.065494694 -0.056529853 0.02428457 0.020967426 -0.06495844 -0.09856401 -0.008724496
-0.051112134 -0.023816122 -0.045600478 0.0313432 0.03117019 -0.04489378 -0.016951192 -0.029967288
0.03216177 -0.0043593277 -0.0006000036 0.031846847 -0.101183444 0.04897284 0.087092005 0.08087711
-0.07248081 -0.017859345 0.020147473 0.106112145 -0.066441596 0.014106128 -0.05626048 -0.005351125
-0.003154548 0.023529127 0.043078072 -0.052223712 -0.053347953 -0.056377895 0.03652191 -0.024762416
0.096050106 -0.05827124 -0.03360873 -0.043247074 -0.07813742 -0.024584927 -0.042102087 -0.102576576
-0.030044885 0.009800564 -0.05909937 -0.05870493 -0.06583474 -0.032185968 -0.040242657 0.057802692
-0.028819334 0.0818882 -0.07037845 -0.056554038 -0.11042988 -0.040657397 -0.054856375 0.05016532
0.020249618 -0.0025995118 -0.0060807765 -0.07718026 -0.06620953 0.039503455 0.0976445 0.025941052
-0.049673345 -0.058106925 -0.045762368 0.032206688 -0.068737514 0.023222098 -0.011264205 0.08897421
0.07988672 -0.009952449 0.05320232 -0.15778369 -0.026037209 -0.11367341 -0.08689279 -0.068249166
-0.12121563 0.0009459917 -0.11041104 -0.024006564 -0.042739376 0.074739724 0.029192114 -0.13107361
0.053735465 0.051654287 -0.026594484 0.106789455 0.04892019 -0.045127686 0.19096449 0.029947715
0.12806019 -0.013439328 0.009990548 0.0279672 -0.05179325 0.01951976 0.09313541 0.13240153
-0.049666096 0.057547342 -0.015134885 0.0138827525 -0.06165348 0.07759456 0.061499763 -0.019259498
0.035002057 0.07285318 0.08631131 0.07212297 -0.0052342094 -0.021088352 0.089069605 0.02986955
-0.012522202 0.06868228 0.04337173 0.056153104 0.0696618 0.11751004 0.019620553 0.098310634
0.066507444 -0.06826825 0.0029094487 0.0853267 -0.047623638 -0.14593631 -0.037248775 -0.08193538
-0.091213666 -0.04813743 -0.054882847 -0.07958938 -0.04352756 0.024311429 0.13200101 0.041716374
0.035601847 0.011872838 0.0005147785 0.14581546 -0.029295834 -0.008474691 -0.059835363 0.09105228
0.09479526 0.04043256 0.012628114 0.0059206947 -0.029462025 0.08316804 0.036516678 -0.07212239
0.017923295 0.12673707 -0.044112656 0.046215907 -0.067608595 -0.06901416 0.03654082 -0.03277308
-0.04447294 -0.06929954 -0.04244568 0.006876278 0.08233794 -0.060816254 0.030512588 -0.05289716
-0.005463239 0.031293906 -0.11530869 0.03469682 -0.08432321 0.05986908 -0.13986878 -0.0579948
0.040620785 -0.03205682 0.02802337 -0.035680164 0.02354137 0.14804544 0.029657029 0.07218972
0.03476978 -0.019837301 0.06016767 0.00011457844 -0.0690639 -0.070244506 -0.08588225 0.098575026
00000000: 1fe5 4f3d 29f0 b2bd b686 803b e23f aabc
00000010: c25d 4a3d c854 bc3d abc8 7e3c bcd6 a2bd
00000020: 93fb 67bd debb f9bd c0b3 8b3d 3cca 1cbc
00000030: 4cd1 c8bb ebf6 ccbb d355 87bd 871f 9cbd
00000040: 32b9 afbd f665 9cbd c09c 973d a87b 333d
00000050: 5ce7 8bbd eddc 62bc e487 6ebd 7cdf 9cbd
00000060: d3c3 d73c 3c03 403d cbed 7ebd 7cee 52bd
00000070: fea0 d33c d03c 9e3c 9b19 763d 33e9 64bd
00000080: 3a2a 53bd ab43 5fbd 2e76 95bd b465 04bd
00000090: 3c07 66bd 3b0c e73c e633 72bd b1af 07bc
000000a0: bedb 4b3d fcc2 9d3d a4c4 8cba abf1 a9bd
000000b0: 5884 973d 3738 4dbd b9ea 053d e70a 033d
000000c0: fa7a ac3d 1522 863d d98b 67bd 6ff0 c63c
000000d0: e1c3 ab3c ee08 85bd eddb c9bd 30f1 0ebc
000000e0: f55a 51bd 071a c3bc 91c7 3abd ba61 003d
000000f0: a058 ff3c 8ae2 37bd 3add 8abc f57d f5bc
00000100: 0fbc 033d b1d8 8ebb 8f49 1dba d771 023d
00000110: 4439 cfbd bf97 483d 4b5d b23d e6a2 a53d
00000120: d270 94bd c34d 92bc 500c a53c 5351 d93d
00000130: 8812 88bd 641d 673c 6471 66bd 7d58 afbb
00000140: 88bc 4ebb 28c0 c03c a272 303d 88e8 55bd
00000150: 6283 5abd 82ec 66bd 0098 153d 8dda cabc
00000160: ebb5 c43d d3ad 6ebd 4fa9 09bd d823 31bd
00000170: 8306 a0bd 5466 c9bc 3d73 2cbd ab13 d2bd
00000180: b120 f6bc 8b92 203c 2e12 72bd 9574 70bd
00000190: 5dd4 86bd 6fd5 03bd 7cd5 24bd 84c2 6c3d
000001a0: 8616 ecbc 00b5 a73d 9422 90bd 35a5 67bd
000001b0: 1029 e2bd 5f88 26bd 14b1 60bd 277a 4d3d
000001c0: 87e2 a53c 925c 2abb 4041 c7bb af10 9ebd
000001d0: dd98 87bd 60ce 213d d7f9 c73d 5482 d43c
000001e0: 4776 4bbd 8701 6ebd 5271 3bbd 29eb 033d
000001f0: 41c6 8cbd 453c be3c 808d 38bc 1c38 b63d
00000200: a69b a33d 990f 23bc adea 593d 0c92 21be
00000210: fc4b d5bc 9bcd e8bd d9f4 b1bd 38c6 8bbd
00000220: e63f f8bd 6efc 773a 2f1f e2bd 6aa9 c4bc
00000230: 7c0f 2fbd 2411 993d 4d24 ef3c 2938 06be
00000240: b819 5c3d 7293 533d addc d9bc 6eb4 da3d
00000250: 8a60 483d cfd7 38bd 328c 433e e954 f53c
00000260: 3622 033e a130 5cbc 65af 233c 781b e53c
00000270: 2925 54bd e7e7 9f3c c7bd be3d 4494 073e
00000280: ad6e 4bbd c3b6 6b3d 4ff8 77bc 7c74 633c
00000290: 5c88 7cbd e6e9 9e3d 2de7 7b3d 18c6 9dbc
000002a0: 515e 0f3d 0c34 953d fcc3 b03d 35b5 933d
000002b0: bb83 abbb 7bc1 acbc 206a b63d fdb0 f43c
000002c0: ec29 4dbc 4ca9 8c3d 8ea6 313d cc00 663d
000002d0: d9aa 8e3d 1ba9 f03d 48bb a03c 1657 c93d
000002e0: 0e35 883d 39d0 8bbd 73ac 3e3b c4bf ae3d
000002f0: 0111 43bd 5470 15be 2c92 18bd bdcd a7bd
00000300: 3bce babd c12b 45bd d6cc 60bd c2ff a2bd
00000310: f449 32bd c328 c73c 462b 073e cade 2a3d
00000320: 3ed3 113d 4b86 423c 33f2 063a a650 153e
00000330: d1fd efbc 6ed9 0abc ed15 75bd 9e79 ba3d
00000340: 0424 c23d 9d9c 253d 26e6 4e3c 6302 c23b
00000350: 585a f1bc 0154 aa3d 8392 153d e7b4 93bd
00000360: e0d3 923c 5dc7 013e 79af 34bd e44c 3d3d
00000370: 6076 8abd 4c57 8dbd d4ab 153d 113d 06bd
00000380: 4229 36bd ebec 8dbd 85db 2dbd 6752 e13b
00000390: cba0 a83d 771a 79bd 89f5 f93c b1aa 58bd
000003a0: f804 b3bb 0a2e 003d f626 ecbd 411e 0e3d
000003b0: a6b1 acbd 4839 753d c339 0fbe f58b 6dbd
000003c0: fb61 263d 034e 03bd 4491 e53c 5d25 12bd
000003d0: d5d9 c03c 3999 173e 4cf3 f23c 34d8 933d
000003e0: c26a 0e3d d681 a2bc 6072 763d d549 f038
000003f0: 6071 8dbd 5adc 8fbd 08e3 afbd b4e1 c93d

update.0.weight f4 [128, 256]
0.043774806 -0.11790292 -0.10164657 -0.05004816 -0.048728112 0.061252475 0.0022681993 0.13160707
-0.06794495 -0.007448529 -0.039149918 -0.038888156 0.13469055 -0.14907655 -0.044694893 0.025194595
0.026621126 0.014518907 0.026021581 0.039521564 -0.014483563 0.05979887 0.080391504 0.016378658
0.004644665 0.009639854 -0.13814653 -0.065672144 0.02596764 -0.085715264 -0.06353644 0.014416947
-0.08488578 -0.062311016 0.08091941 -0.051193863 -0.10320127 0.21521212 -0.18631054 0.0014651138
-0.052464772 0.12373807 -0.02396909 0.024034226 -0.12375396 -0.06195626 -0.027051687 -0.030407183
-0.10632797 -0.118020914 0.07852885 -0.09008257 0.037587352 -0.06908355 -0.1844466 0.13457716
0.04000522 0.13425988 -0.1298444 -0.028497236 -0.062382687 0.048467103 0.06896073 -0.01390955
-0.050171137 -0.01649477 0.021675682 -0.024894726 0.05787067 0.012673989 0.09493597 -0.0037114376
0.16144624 0.14461003 0.046812914 -0.092782155 -0.027110001 0.1395622 0.018160857 -0.12154622
-0.02477562 -0.1512497 -0.0699084 -0.022019137 0.2268155 -0.072051205 -0.03332879 -0.029587591
0.13649262 -0.046548918 -0.02349513 -0.007721106 -0.0982363 -0.05591781 -0.02824223 -0.022975724
0.007996362 0.05454088 0.0735303 0.058101326 0.09374986 0.030507188 -0.08800031 -0.08274008
0.014049119 -0.049279343 -0.09077789 -0.046055485 -0.06553226 0.028353563 0.013954682 0.06519826
-0.17296413 0.020148408 0.10936677 -0.06124445 -0.035743188 0.03642252 -0.05941487 0.05144275
0.081401415 -0.017943459 0.09585551 0.027872661 -0.04005777 -0.06773022 -0.039063692 -0.10375765
0.07436335 0.16772838 0.029185563 -0.12730098 0.06469674 0.04073126 0.094199255 -0.030410597
-0.014140167 -0.04718742 0.010857667 0.06062947 0.076809585 0.0012352208 -0.0025221931 0.037553295
0.07407139 0.02827917 0.027235813 -0.040143576 0.0058532064 -0.012391478 0.084372684 0.099335544
0.0147148585 -0.102390505 -0.03727949 0.027438149 0.023250965 -0.033657875 0.020937981 -0.0099937
0.1395709 -0.018211657 0.077333264 0.048904937 0.011325883 -0.050074026 -0.07715175 -0.032704666
0.044884473 0.062214825 -0.0032675155 0.02294342 0.07978347 0.03982055 0.035985555 0.03311803
-0.0016367689 -0.110324234 0.10909856 0.0051490646 0.041719485 0.023690542 0.040225834 0.045587733
0.06418944 0.038459267 0.024921209 -0.091760494 -0.09762505 0.075804 0.03996739 -0.07328647
0.02005741 0.0791538 0.057947922 -0.010904223 -0.03283291 0.0027212142 -0.020251593 0.039406147
-0.02655651 0.011445512 0.03146931 0.054350417 0.06897384 0.021031883 -0.16078576 -0.07172216
-0.052933577 0.093836375 -0.07368798 -0.1471954 0.09828676 -0.011731441 0.007064272 0.037070043
0.14326242 -0.036932413 -0.03912877 0.07996664 0.05082647 0.1672658 -0.004760916 0.09450434
0.048401006 0.038959924 -0.1464296 -0.110447474 0.03327069 -0.060560502 -0.009313991 0.13094683
0.08092235 -0.10276989 -0.013686456 -0.06421478 0.028201966 0.058669213 -0.052069962 0.0016348335
0.10284317 0.0069124284 0.047307134 0.07013672 -0.00017377258 0.03509048 -0.1111451 0.088582605
-0.100822575 0.042709243 0.10394977 0.015127138 0.004029041 0.09948243 0.044506174 -0.034867756
00000000: 364d 333d 1677 f1bd 142c d0bd 4dff 4cbd
00000010: 2197 47bd e0e3 7a3d 12a6 143b 01c4 063e
00000020: b926 8bbd ca12 f4bb aa5b 20bd 3049 1fbd
00000030: 52ec 093e 86a7 18be fe11 37bd e564 ce3c
00000040: 8c14 da3c b6e0 6d3c 362b d53c 5de1 213d
00000050: 774c 6dbc a9ef 743d 4da4 a43d 892c 863c
00000060: 4632 983b 7af0 1d3c 4976 0dbe 1e7f 86bd
00000070: 17ba d43c 7c8b afbd 651f 82bd 0f35 6c3c
00000080: 99d8 adbd d639 7fbd 13b9 a53d a8b0 51bd
00000090: 305b d3bd 9160 5c3e 31c8 3ebe 1009 c03a
000000a0: 4de5 56bd 636a fd3d d35a c4bc 6de3 c43c
000000b0: b772 fdbd d9c5 7dbd 809b ddbc 7c18 f9bc
000000c0: 7bc2 d9bd f3b4 f1bd bcd3 a03d 367d b8bd
000000d0: 32f5 193d ad7b 8dbd 92df 3cbe 98ce 093e
000000e0: 83dc 233d 6c7b 093e eef5 04be 0973 e9bc
000000f0: fd84 7fbd 7185 463d 493b 8d3d e2e4 63bc
00000100: 4080 4dbd 0a20 87bc 3391 b13c 06f0 cbbc
00000110: cc09 6d3d 90a6 4f3c ca6d c23d 973b 73bb
00000120: 2a52 253e a714 143e e6be 3f3d 9204 bebd
00000130: cb15 debc 65e9 0e3e 14c6 943c 39ed f8bd
00000140: 3ef6 cabc 34e1 1abe 232c 8fbd 7a61 b4bc
00000150: 5342 683e 958f 93bd c583 08bd ad61 f2bc
00000160: b9c4 0b3e 14aa 3ebd dc78 c0bc 5501 fdbb
00000170: 1d30 c9bd 130a 65bd 405c e7bc 9637 bcbc
00000180: 2c03 033c 4266 5f3d 0e97 963d a8fb 6d3d
00000190: edff bf3d 36ea f93c 8239 b4bd a273 a9bd
000001a0: 472e 663c 23d9 49bd c2e9 b9bd ada4 3cbd
000001b0: c735 86bd bb45 e83c 2ea2 643c aa86 853d
000001c0: 821d 31be 460e a53c affb df3d 76db 7abd
000001d0: 7367 12bd c82f 153d 025d 73bd a2b5 523d
000001e0: c9b5 a63d 29fe 92bc e54f c43d 3555 e43c
000001f0: 9e13 24bd 24b6 8abd 4001 20bd e47e d4bd
00000200: d04b 983d fdc0 2b3e 9016 ef3c 305b 02be
00000210: b97f 843d d2d5 263d 8aeb c03d a51f f9bc
00000220: 29ac 67bc 9947 41bd 5be4 313c 9b56 783d
00000230: 584e 9d3d 22e7 a13a 614b 25bb 7cd1 193d
00000240: beb2 973d b8a9 e73c a41d df3c 976d 24bd
00000250: 41cc bf3b a005 4bbc 96cb ac3d 6f70 cb3d
00000260: 9716 713c 1db2 d1bd 61b2 18bd f8c5 e03c
00000270: cf78 be3c d7dc 09bd 2186 ab3c 9ebc 23bc
00000280: adeb 0e3e 9d30 95bc e760 9e3d 8b50 483d
00000290: 3290 393c 6c1a 4dbd bd01 9ebd 54f5 05bd
000002a0: c8d8 373d f9d4 7e3d d023 56bb d7f3 bb3c
000002b0: 8465 a33d df1a 233d 9765 133d c5a6 073d
000002c0: da88 d6ba acf1 e1bd 116f df3d 7cb9 a83b
000002d0: 0de2 2a3d ab12 c23c d8c3 243d 34ba 3a3d
000002e0: c175 833d 7787 1d3d 9027 cc3c edec bbbd
000002f0: a4ef c7bd 213f 9b3d d9b4 233d 3717 96bd
00000300: 704f a43c 631b a23d cd5a 6d3d a0a7 32bc
00000310: cd7b 06bd 6656 323b abe6 a5bc 5768 213d
00000320: 0a8d d9bc f585 3b3c f7e5 003d 8b9e 5e3d
00000330: 2842 8d3d 0e4b ac3c 06a5 24be 11e3 92bd
00000340: e1d0 58bd 492d c03d b9e9 96bd 64ba 16be
00000350: 924a c93d 3b35 40bc 697b e73b c2d6 173d
00000360: 62b3 123e 7146 17bd 7d45 20bd 8dc5 a33d
00000370: 6b2f 503d ba47 2b3e 7501 9cbb 7e8b c13d
00000380: 2240 463d 7194 1f3d a4f1 15be 4932 e2bd
00000390: d946 083d 4a0e 78bd b699 18bc ed16 063e
000003a0: 9eba a53d 0579 d2bd 283d 60bc 0a83 83bd
000003b0: cf07 e73c 214f 703d 5047 55bd e947 d63a
000003c0: 719f d23d a781 e23b 20c5 413d d7a3 8f3d
000003d0: b936 36b9 09bb 0f3d 0ba0 e3bd cc6a b53d
000003e0: 117c cebd e3ef 2e3d 9ee3 d43d d1d7 773c
000003f0: 0c06 843b 72bd cb3d 1b4c 363d 7ed1 0ebd

update.0.bias f4 [128]
0.062013663 0.044081155 0.08555004 0.059277833 -0.0736537 -0.006949331 0.024560716 0.08264337
0.0010905232 0.031765696 -0.033806216 0.05927122 0.08290764 0.061329678 0.056589216 0.05518175
0.02233678 0.02006199 0.0017853698 -0.07980417 -0.0104963435 0.0313499 0.043160614 0.0043374356
0.06994406 0.034632932 0.027636448 0.03224837 -0.00232856 0.015110797 0.010707765 0.05674373
0.0423668 -0.020158779 0.05859619 0.025581688 -0.010352472 0.056617737 -0.022964805 0.022095624
0.017277535 0.1896572 0.046271708 0.022722205 0.024837395 0.0878948 -0.043745317 0.040329505
0.023565719 -0.0043969406 0.07383266 0.062274627 0.1138034 0.01963949 -0.04111595 -0.044451814
0.04113797 -0.015692389 -0.0050659613 -0.002892049 0.09561208 -0.0068853716 0.031048663 0.048952207
0.031708997 -0.005439401 0.019103866 -0.0002615539 0.021285068 -0.0009730121 0.0646552 0.02336286
0.06085924 0.03446023 0.016747903 0.069278456 -0.025286814 0.07708239 -0.016292261 -0.003613336
0.0058236667 0.030912684 -0.03304548 -0.024900248 0.05898114 -0.035367746 0.032463763 0.082160786
-0.043246724 0.002896409 0.0038390798 0.028387398 0.04193914 -0.0073122857 -0.0022526977 0.030426161
0.045533452 -0.0382186 0.08641672 0.06384692 0.054173984 0.026340388 0.02769254 0.037319403
-0.027529357 -0.0068256375 0.03715162 0.02412438 0.04433434 0.04248764 0.021841047 0.042600367
-0.009370885 -0.062146705 0.021806957 0.034498073 -0.017864766 -0.014494207 0.018106276 0.030973878
0.036359474 -0.01253534 0.040470824 0.033562556 0.0074562435 0.040277265 0.051897876 0.02534518
00000000: 0a02 7e3d 718e 343d dc34 af3d 50cd 723d
00000010: c0d7 96bd 37b7 e3bb 8e33 c93c ed40 a93d
00000020: e3ef 8e3a bf1c 023d 6378 0abd 61c6 723d
00000030: 7bcb a93d d434 7b3d 18ca 673d 4206 623d
00000040: 9ffb b63c 0b59 a43c 1203 ea3a 5e70 a3bd
00000050: dbf8 2bbc c168 003d 2fc9 303d 0c21 8e3b
00000060: d53e 8f3d 43db 0d3d d565 e23c de16 043d
00000070: c19a 18bb 4793 773c 9f6f 2f3c 1d6c 683d
00000080: cf88 2d3d 0624 a5bc 8f02 703d b090 d13c
00000090: 6a9d 29bc 00e8 673d b020 bcbc e201 b53c
000000a0: 9e89 8d3c 7f35 423e 6787 3d3d eb23 ba3c
000000b0: cb77 cb3c 3002 b43d 4a2e 33bd 8d30 253d
000000c0: e50c c13c 3614 90bb 9435 973d ae13 7f3d
000000d0: c211 e93d ffe2 a03c 3369 28bd 1b13 36bd
000000e0: 4a80 283d 538d 80bc 5d00 a6bb 8888 3dbb
000000f0: 44d0 c33d af9e e1bb c459 fe3c 1c82 483d
00000100: 4be1 013d 013d b2bb b67f 9c3c 2c21 89b9
00000110: 065e ae3c bd11 7fba f269 843d 7863 bf3c
00000120: 8a47 793d 2c26 0d3d e632 893c dde1 8d3d
00000130: 4b26 cfbc 5fdd 9d3d 5977 85bc b8cd 6cbb
00000140: 75d4 be3b 993c fd3c b25a 07bd 9bfb cbbc
00000150: 3596 713d c5dd 10bd b9f8 043d ea43 a83d
00000160: 7a23 31bd aed1 3d3b 1299 7b3b b08c e83c
00000170: 60c8 2b3d e69b efbb ffa1 13bb 4940 f93c
00000180: 4981 3a3d 1b8b 1cbd 40fb b03d 2dc2 823d
00000190: 8ae5 5d3d ccc7 d73c 77db e23c 3bdc 183d
000001a0: 3f85 e1bc 99a9 dfbb 4c2c 183d 7ea0 c53c
000001b0: ed97 353d 8507 2e3d ffeb b23c b97d 2e3d
000001c0: 5788 19bc 8b8d 7ebd 81a4 b23c da4d 0d3d
000001d0: 2159 92bc 1c79 6dbc 9d53 943c eebc fd3c
000001e0: aced 143d 0761 4dbc bcc4 253d e478 093d
000001f0: 8153 f43b c6f9 243d de92 543d b2a0 cf3c
