models/ss/na10_uc.pt (torch_old, 965370 bytes, 230 tensors)

encoder.0.weight f4 [128, 4]
0	0x3bf57b7c	0.007491527
1	0x3c9c19cb	0.019055268
2	0xbdb51ade	-0.08843015
3	0xbecca223	-0.3996745
4	0x3d33f5fd	0.043935765
5	0xbd281fbb	-0.041045886
6	0x3e5a65bf	0.21327876
7	0x3e0ed87a	0.13949767
8	0xbdad134a	-0.08450945
9	0x3df8bbcd	0.12145195
10	0x3cc064f5	0.02348564
11	0x3bf837a1	0.007574991
12	0x3d41df41	0.047332052
13	0xbde7a41e	-0.113106
14	0xbe929fd1	-0.28637555
15	0xbc2972d4	-0.010342319
16	0xbe419362	-0.18903878
17	0xbde16fac	-0.11007628
18	0xbd8bb258	-0.06821126
19	0x3c0810bb	0.00830477
20	0xbe0e7a8a	-0.13913932
21	0xbe0ef5e5	-0.13960989
22	0x3ce7dd4a	0.028303761
23	0xbcc68b75	-0.02423642
24	0x3d35ec58	0.044414848
25	0xbc010e8d	-0.007877004
26	0xbe7e7797	-0.24850307
27	0xbe78311d	-0.24237485
28	0xbd4e6f90	-0.050399363
29	0xbc9bb642	-0.019007806
30	0xbe2720ac	-0.16321057
31	0x3e293863	0.16525416
32	0x3d1b91bd	0.037980784
33	0x3d9c844d	0.07642422
34	0x3e276d55	0.163503
35	0xbe227308	-0.15864193
36	0xbea55711	-0.3229299
37	0x3e37fad3	0.17966776
38	0xbd17081f	-0.03687298
39	0x3cd4ee36	0.025992494
40	0x3bfc56c8	0.007700775
41	0x3cf7a172	0.03022835
42	0xbe077ba6	-0.13230762
43	0xbc9f1e56	-0.019423645
44	0x3de44715	0.1114637
45	0xbe4771c1	-0.19476987
46	0x3d730235	0.059328277
47	0xbe687077	-0.22699152
48	0xbbefab09	-0.00731409
49	0x3b78fa15	0.0037990857
50	0xbdc7a07f	-0.09747409
51	0x3ed05245	0.40687767
52	0xbe5486f0	-0.207546
53	0x3d96998a	0.07353504
54	0x3e031878	0.12802303
55	0xbcb3e701	-0.021960737
56	0xbd77fa4b	-0.060541432
57	0xbd3cffec	-0.046142504
58	0xbc106ecb	-0.008815478
59	0x3e1cd5e4	0.15315968
60	0x3b83c1c4	0.0040209014
61	0x3da85ee3	0.08221223
62	0xbd277510	-0.040883124
63	0xbb2f7b9a	-0.0026776553
64	0xbe1cd575	-0.15315802
65	0xbd896cdb	-0.06710216
66	0x3d465d03	0.048428547
67	0x3d10e8c3	0.03537823
68	0xbd0b1c88	-0.033962756
69	0xbca603e9	-0.020265536
70	0xbe3fcd9b	-0.18730776
71	0x3e20596c	0.15659112
72	0xbe021f4b	-0.1270725
73	0xbd9a31d6	-0.07529037
74	0x3da3ea59	0.08003683
75	0x3c8e6f4d	0.017387057
76	0xbe211746	-0.15731534
77	0xbd83452a	-0.064096764
78	0xbe67a6cd	-0.22622223
79	0xbdbef1f3	-0.09323492
80	0x3d1f4302	0.038882263
81	0x3ccd8b1f	0.025090752
82	0x3e4ed713	0.20199232
83	0x3da7b637	0.081890516
84	0xbce30d5a	-0.027716327
85	0x3cebb957	0.0287749
86	0xbc6e9abb	-0.014563258
87	0xbc80697b	-0.015675297
88	0xbd4c6050	-0.04989654
89	0xbda7250c	-0.08161363
90	0xbd81aee9	-0.063321896
91	0x3d32d24f	0.043657597
92	0x3cd67f4e	0.02618375
93	0xbd908e88	-0.07058436
94	0x3e000e7c	0.12505525
95	0xbe93de0e	-0.28880352
96	0xbbfab296	-0.0076506836
97	0xba87d6d2	-0.0010363704
98	0xbe08ba66	-0.13352355
99	0x3d2a903e	0.041641466
100	0xbde9d5fb	-0.11417767
101	0x3c49055e	0.012269346
102	0x3da08ed2	0.07839741
103	0xbcfb0203	-0.030640608
104	0xbd94032a	-0.07227166
105	0x3d882a87	0.066487364
106	0xbcc6f4d2	-0.024286661
107	0xbe5a20e2	-0.21301606
108	0xbac96f0e	-0.001536818
109	0x3da83619	0.08213443
110	0xbd08bab7	-0.03338119
111	0xbc9205e0	-0.017825067
112	0x3daa3257	0.08310383
113	0x3e983735	0.2972962
114	0xbd1e4736	-0.03864213
115	0xbdee64d9	-0.11640329
116	0x3b995092	0.004678794
117	0xbccd3b2b	-0.025052628
118	0x3c2009ab	0.00976793
119	0xbe3bbd9b	-0.18334047
120	0xbd0be672	-0.034155317
121	0x3dfff45f	0.12497782
122	0xbc808571	-0.01568863
123	0x3d929d1e	0.07158874
124	0x3dd153b4	0.10221043
125	0xbd0f356c	-0.034963056
126	0x3c0f17d8	0.008733712
127	0x3e005ec3	0.12536149
128	0xbda8ed19	-0.08248348
129	0xbd7dfa8f	-0.06200653
130	0x3e70a5a8	0.23500693
131	0x3dea8655	0.11451403
132	0xbc8cfc20	-0.017210066
133	0x3caa07e7	0.020755721
134	0x3e3b38ac	0.18283337
135	0xbe75c672	-0.24001482
136	0xbc9f7006	-0.019462597
137	0x3cf4af61	0.029868783
138	0x3daf0433	0.08545723
139	0x3e173d62	0.1476951
140	0x3e1f4eb2	0.15557364
141	0x3d242350	0.04007274
142	0x3c992397	0.018693728
143	0xbc4abffc	-0.012374874
144	0x3c03ffd0	0.008056596
145	0xbccda7e5	-0.025104472
146	0xbc290eba	-0.0103184525
147	0xbddb0926	-0.10695104
148	0xbcfef239	-0.03112136
149	0x3db2e3ae	0.08734833
150	0x3d8dbbbd	0.06920574
151	0xbdca078b	-0.0986472
152	0xbe0f3e0d	-0.13988514
153	0xbc96d87f	-0.01841378
154	0xbcdf7b24	-0.027280398
155	0x3ca10828	0.01965721
156	0x3d1be8d6	0.038063847
157	0xbe16fa47	-0.1474391
158	0xbdd0361f	-0.10166573
159	0xbc9a66a2	-0.018847767
160	0xbc8a0110	-0.01684621
161	0xbb9b98c2	-0.0047484348
162	0x3d551c55	0.052028973
163	0xbe0d7211	-0.13813044
164	0xbda7bbec	-0.0819014
165	0x3de8ea25	0.113727845
166	0x3d8a5cdb	0.06755992
167	0x3e45e5d6	0.19325957
168	0x3b14ea77	0.002272276
169	0x3cd99b94	0.026563443
170	0x3d532dd9	0.051557396
171	0x3e02710d	0.12738438
172	0x3c0d1280	0.008610368
173	0xbcf9d8a1	-0.030498805
174	0x3d95e4fd	0.07319067
175	0xbe0240fc	-0.12720102
176	0x3d8ee445	0.06977133
177	0x3d95d47c	0.07315919
178	0x3ecc084c	0.3985008
179	0x3e420890	0.18948579
180	0x3d6aed91	0.057355467
181	0x3d64a296	0.055819117
182	0x3d13a136	0.036042415
183	0xbcf0ab80	-0.029378653
184	0x3c037191	0.008022682
185	0xbd0e5d7a	-0.034757115
186	0x3df618a7	0.12016421
187	0xbe387936	-0.18014988
188	0xbdeaff52	-0.1147448
189	0x3e1fed0d	0.15617771
190	0xbeac3b55	-0.33639017
191	0x3e08d329	0.13361801
192	0xb9ec54df	-0.00045076662
193	0x3cd1ff20	0.025634348
194	0x3e0c7f20	0.1372037
195	0xbe071512	-0.13191631
196	0xbd17f3a6	-0.037097596
197	0x3cef74fd	0.029230589
198	0xbc167a86	-0.009184485
199	0x3e18a8a2	0.14908078
200	0xbb833dca	-0.0040051686
201	0x3d2e2be4	0.042522326
202	0x3dcd8785	0.10035614
203	0xbc040159	-0.008056962
204	0x3d590129	0.052979622
205	0x3cc92004	0.024551399
206	0x3e4a250f	0.19740699
207	0x3aca956a	0.0015455906
208	0xbd67391a	-0.05645094
209	0xbc6f6e4f	-0.014613702
210	0xbb2ea744	-0.002664999
211	0xbd3ca784	-0.046058193
212	0xbe1694f5	-0.1470526
213	0x3d95e30e	0.07318698
214	0xbc7259cc	-0.014791917
215	0x3c707dcf	0.014678433
216	0x3dc4d761	0.09611393
217	0xbe3afcd7	-0.18260513
218	0x3d68c01e	0.056823842
219	0x3dae057b	0.08497139
220	0x3d3d0037	0.046142783
221	0x3d0d8efe	0.034560196
222	0x3e86f406	0.2635805
223	0x3d71f2d5	0.059069473
224	0xba499bdb	-0.0007690766
225	0x3b96aaff	0.004598021
226	0xbe8b4e04	-0.2720796
227	0x3e5506da	0.20803395
228	0xbd26fee1	-0.040770415
229	0xbcd4b83a	-0.025966752
230	0xbe3d065a	-0.18459454
231	0xbc36690f	-0.011133446
232	0x3ccbc33b	0.024873367
233	0xbcfe267d	-0.031024212
234	0xbd5e0f94	-0.054214075
235	0xbe07a842	-0.13247779
236	0xbdacbcb6	-0.08434431
237	0x3d3b280f	0.0456925
238	0xbde6a7f0	-0.112625
239	0xbc539cf3	-0.012915838
240	0x3d143b07	0.036189105
241	0xbc0c2833	-0.008554506
242	0xbdf0bbe1	-0.11754585
243	0xbd22127e	-0.039568417
244	0xbd4990ff	-0.049210545
245	0x3d5d0e51	0.05396873
246	0x3e8151f2	0.25257832
247	0x3cb971bb	0.022637239
248	0xbdc25f88	-0.094908774
249	0xbcb078e1	-0.021542015
250	0xbce37d79	-0.027769791
251	0x3d159bae	0.03652542
252	0x3ac14144	0.0014744182
253	0x3df49eff	0.119443886
254	0x3d21c8b3	0.039498042
255	0xbda403f4	-0.080085665

encoder.0.bias f4 [128]
0	0xbc07acc1	-0.008280934
1	0x3dc858d2	0.09782566
2	0x3e142cda	0.14470235
3	0x3dd69559	0.104777046
4	0x3d3cfec4	0.0461414
5	0x3dfa9998	0.12236327
6	0x3c2dd314	0.010609407
7	0x3c34f812	0.011045473
8	0x3d953730	0.07285917
9	0x3d86ec82	0.06588079
10	0x3e2ba60c	0.1676256
11	0x3dd19561	0.1023357
12	0xbd4d7298	-0.050158113
13	0xbce2e12f	-0.027695267
14	0x3e3a13ca	0.18171611
15	0x3de16dbf	0.110072605
16	0x3da66bc0	0.081260204
17	0x3d5e79df	0.054315444
18	0x3ddf6bd1	0.10909236
19	0xbd47f32f	-0.048815902
20	0x3c00e496	0.007866999
21	0x3de8081a	0.1132967
22	0x3ddf2f88	0.10897738
23	0x3c678bbb	0.014132435
24	0x3e29c069	0.16577305
25	0x3db92a4f	0.09041273
26	0x3e3200a8	0.17383063
27	0x3d5c58b5	0.053795535
28	0xbaa145ba	-0.0012304105
29	0x3e1cc52d	0.15309592
30	0x3dee78cd	0.11644135
31	0x3dec8ab6	0.115498945
32	0x3adbaeb6	0.0016760442
33	0x3de43c83	0.11144354
34	0x3e47574f	0.194669
35	0x3dd3d795	0.103438534
36	0x3dfc0d4a	0.12307222
37	0x3e3109b6	0.1728886
38	0x3d741daf	0.05959862
39	0x3dc29aef	0.095022075
40	0x3e235c94	0.15953285
41	0x3dfd4258	0.1236617
42	0x3e1e3223	0.15448813
43	0x3e0dbde8	0.13841975
44	0xbdebbd58	-0.11510724
45	0x3da80de6	0.08205776
46	0x3e61a3e0	0.2203517
47	0x3cb76dd4	0.022391237
48	0x3df2e5c9	0.11860234
49	0x3e283027	0.16424619
50	0x3e02769e	0.12740561
51	0x3e3fc72b	0.1872832
52	0x3de4e31b	0.111761294
53	0x3dfa3131	0.12216414
54	0x3dd25245	0.10269598
55	0x3e13fa6c	0.14450997
56	0x3e0c62e9	0.13709606
57	0x3e54c015	0.20776398
58	0x3e1995ca	0.14998546
59	0x3d95dc7a	0.07317443
60	0x3e22f95b	0.15915434
61	0xbcbb40fd	-0.022858137
62	0x3e056a0f	0.1302874
63	0x3e069c56	0.13145575
64	0xbd07d9bc	-0.033166632
65	0x3dc48f90	0.09597695
66	0xbd3dd7b9	-0.046348307
67	0x3df55c35	0.11980478
68	0x3e12f332	0.14350584
69	0x3e356497	0.17714153
70	0x3e0daf5d	0.13836427
71	0x3e0d5169	0.13800587
72	0xbd335d98	-0.04379043
73	0xbcfb3748	-0.030666009
74	0xbd579135	-0.052628715
75	0x3e0379f5	0.12839492
76	0x3db9e46e	0.09076773
77	0xbd15e04c	-0.03659086
78	0x3da4f0ac	0.08053717
79	0xbb00a595	-0.0019629945
80	0x3da63dc1	0.081172474
81	0x3e0c431d	0.13697477
82	0x3e2fc8dc	0.17166466
83	0xbbd5224c	-0.0065043326
84	0xbdc3f716	-0.09568612
85	0xbd6cf43b	-0.057850104
86	0x3ccec1ef	0.02523896
87	0xbc69c6cc	-0.014268588
88	0x3e0ba5cf	0.1363747
89	0x3e4527be	0.19253442
90	0xbd89cdab	-0.06728681
91	0x3db09bd7	0.08623474
92	0x3df2f31a	0.11862774
93	0xbd0b1aaa	-0.033960976
94	0x3e57af73	0.21063022
95	0x3d973eec	0.07385048
96	0x3e132def	0.14372991
97	0xbd567eb2	-0.05236692
98	0x3e0fd374	0.14045507
99	0x3bf3caf5	0.007439966
100	0x3e1e9448	0.15486252
101	0x3ca3ad5f	0.01998013
102	0x3dfc31c0	0.123141766
103	0x3ddcf05c	0.107880324
104	0x3db3b925	0.08775548
105	0xbd064207	-0.032777812
106	0x3e4cf357	0.20014702
107	0x3e16bf92	0.14721516
108	0xbdb664f4	-0.08905974
109	0x3d5e293c	0.054238543
110	0x3e109451	0.14119078
111	0x3e78db7b	0.24302475
112	0x3dced08f	0.10098373
113	0x3cea3cca	0.02859344
114	0x3e315a93	0.17319708
115	0x3e0894f6	0.13338074
116	0x3d0b9598	0.03407821
117	0x3e0ca673	0.1373537
118	0x3dd7aa17	0.10530489
119	0x3e4ccb0f	0.19999336
120	0x3d17b191	0.037034575
121	0x3e214119	0.15747489
122	0x3e17fb4c	0.14841956
123	0x3db9d30d	0.09073458
124	0x3e1a342d	0.15058966
125	0x3d846199	0.06463928
126	0x3de211d9	0.110385604
127	0x3dcdc0b1	0.100465186

messages.W_query f4 [1, 128, 128]
0	0x3e12952a	0.14314714
1	0x3d4a6113	0.049408983
2	0x3cefcf59	0.029273676
3	0x3bb6fa8d	0.005584067
4	0xbdabdf89	-0.08392245
5	0xbc893b79	-0.016751992
6	0x3e1c0c91	0.15239169
7	0x3c9720bc	0.018448226
8	0x3c5004b6	0.012696436
9	0x3d2672e1	0.0406369
10	0xbd473ce0	-0.04864204
11	0x3e1f8501	0.1557808
12	0x3be72995	0.0070545175
13	0xbdebacba	-0.11507554
14	0xbc9791d4	-0.018502153
15	0x3dd97083	0.10617163
16	0x3dc576e0	0.09641814
17	0x3d15909d	0.036514867
18	0xbdb4d0ae	-0.08828865
19	0x3d7970f2	0.06089873
20	0x3b1ee173	0.0024243265
21	0x3da2a560	0.07941699
22	0x3e46ff0f	0.19433235
23	0x3d954a94	0.07289615
24	0x3d62662e	0.055273227
25	0xbda771ce	-0.081760034
26	0xbca2f2b9	-0.01989113
27	0x3d98c8f4	0.07460204
28	0xbe096cf2	-0.13420466
29	0x3d51cb6b	0.051219385
30	0xbd742051	-0.05960113
31	0xbc050288	-0.008118279
32	0xbce9e61a	-0.028552104
33	0x3db822cc	0.08991012
34	0x3bbab09c	0.005697323
35	0xbce6b95a	-0.028164554
36	0xbdbfcec8	-0.09365612
37	0xbdc1d35d	-0.094641425
38	0xbce86987	-0.028370632
39	0xbbd34a9a	-0.006448102
40	0x3db031ad	0.08603225
41	0x3e4c12a1	0.19928981
42	0xbc7aaffd	-0.015300748
43	0xbc4adfa5	-0.012382423
44	0xbe1fabd9	-0.15592898
45	0x3d38093e	0.04493069
46	0x3d76848c	0.060185
47	0x3c7bc544	0.015366856
48	0x3c22e4ee	0.009942276
49	0xbd717593	-0.05895002
50	0xbda700a9	-0.08154423
51	0xbc2968ce	-0.010339929
52	0xbc1d2b48	-0.009592839
53	0x3d7c3fd0	0.061584294
54	0x3db4db4d	0.08830891
55	0xbe2deb34	-0.16984254
56	0xbd65448f	-0.055973586
57	0x3df3e599	0.11909027
58	0xbb18220e	-0.0023213658
59	0x3e08248f	0.13295196
60	0xbd89a034	-0.067200094
61	0xbcd8abec	-0.026449166
62	0x3e451279	0.19245328
63	0x3cdee9e7	0.027211143
64	0xbd4e23ee	-0.050327234
65	0xbd4ac7cd	-0.04950695
66	0x3cc610b9	0.024177896
67	0xbd2d6c17	-0.04233941
68	0x3c404602	0.011735441
69	0x3e81b325	0.2533199
70	0x3e081f16	0.13293108
71	0x3dc443e0	0.09583259
72	0x3c82cb1f	0.015965996
73	0x3de55cec	0.11199364
74	0x3dd95ea2	0.10613753
75	0xbc83c044	-0.01608289
76	0xbdcd8178	-0.1003446
77	0x3db75fd6	0.08953826
78	0x3d98cea2	0.07461287
79	0xbd5731bc	-0.052537665
80	0x3dae72af	0.08517968
81	0xbe6759a5	-0.2259279
82	0xbd87a6d9	-0.066236205
83	0x3db1d238	0.08682674
84	0x3d803a2c	0.062610954
85	0x3e460dea	0.19341245
86	0x3cd24e85	0.025672207
87	0xbe2d556a	-0.16927114
88	0xbda6a0fb	-0.08136173
89	0xbcdcd895	-0.026958743
90	0xbcbb471e	-0.02286106
91	0x3d849bfb	0.064750634
92	0x3e45359b	0.1925873
93	0x3df144b8	0.11780685
94	0x3e14ddde	0.1453776
95	0xbd195eba	-0.037443854
96	0xbde57121	-0.11203218
97	0xbdac5635	-0.0841488
98	0xbc58e9dd	-0.013239351
99	0x3daf92a7	0.085728936
100	0x3c7c5f5a	0.015403593
101	0xbdcef911	-0.101060994
102	0x3c93e63a	0.018054117
103	0x3da19f2c	0.07891688
104	0x3db35f37	0.08758395
105	0x3d3221bf	0.043489214
106	0xbdb3ad24	-0.08773258
107	0xbd060279	-0.0327172
108	0x3d7a2ba2	0.061076768
109	0x3b9ab0b1	0.0047207703
110	0xbcbb4f34	-0.022864915
111	0x3de0730e	0.10959445
112	0xbe8061c5	-0.25074592
113	0xbd6e86ab	-0.058233898
114	0x3d81bd1e	0.06334899
115	0xbe10417a	-0.14087477
116	0x3cf7f781	0.030269386
117	0x3e149592	0.14510182
118	0xbdca4ce4	-0.09877947
119	0x3d562d40	0.052289248
120	0xbda6874c	-0.081312746
121	0x3d85d2d5	0.06534354
122	0xbe067bd3	-0.13133173
123	0xbdecd55f	-0.11564135
124	0xbd0e2492	-0.034702845
125	0x3c9a3a13	0.01882652
126	0xbc9daee8	-0.01924844
127	0xbd2c6f83	-0.042098533
128	0x3d9d0e3d	0.07668731
129	0x3e11e896	0.1424888
130	0x3d8b8769	0.06812937
131	0xbc8aa985	-0.016926536
132	0xbd28c927	-0.04120746
133	0x3b50ae17	0.0031842047
134	0x3bfa3f58	0.0076369457
135	0x3dad1036	0.084503576
136	0xbdeef99e	-0.116687045
137	0x3d8972fd	0.067113854
138	0x3d82ad9e	0.06380771
139	0xbdd8b96b	-0.10582241
140	0x3d2fdea6	0.042936943
141	0xbd694988	-0.05695489
142	0xbe3cac96	-0.18425211
143	0x3dcd7bf0	0.10033405
144	0xbc92832e	-0.017884817
145	0xbe0dd9c9	-0.1385261
146	0xbe3ebacc	-0.18625945
147	0x3d063791	0.032767836
148	0xbd824016	-0.0635988
149	0x3b8c658c	0.0042845663
150	0x3d1c8d13	0.038220476
151	0x3d2643a8	0.040591866
152	0x3d410826	0.04712691
153	0x3ddf89f2	0.10914983
154	0x3e27b098	0.16375959
155	0xbd35ca1f	-0.04438221
156	0xbc34d458	-0.011036955
157	0xbd36838c	-0.044559047
158	0xbd9a9793	-0.07548442
159	0xbe0088e9	-0.12552227
160	0xba27c6b4	-0.00064001535
161	0x3d860780	0.06544399
162	0xbc016319	-0.007897162
163	0x3d860a0c	0.06544885
164	0xbb50d935	-0.0031867747
165	0x3e074ae9	0.1321217
166	0xbd1bf410	-0.038074553
167	0x3e1c8ef1	0.15288903
168	0xbc9fdcb2	-0.019514415
169	0xbd812fde	-0.06307958
170	0x3d7b501a	0.061355688
171	0x3d3db751	0.046317402
172	0xbc04e3db	-0.008110966
173	0xbd79e38c	-0.06100802
174	0xbdac40ff	-0.084108345
175	0xbda9b98c	-0.082873434
176	0x3d1bed00	0.038067818
177	0xbe2cde5e	-0.16881701
178	0x3b2a5c0f	0.0025994813
179	0x3d0ea948	0.034829408
180	0xbdf85c65	-0.12126998
181	0xbd679972	-0.05654282
182	0xbda5ca1d	-0.08095191
183	0x3ddc6192	0.107607976
184	0x3d0d5d10	0.03451258
185	0xbe1c4b8e	-0.15263197
186	0xbdac7693	-0.08421054
187	0x3dbbc28a	0.09167965
188	0x3d23ada2	0.03996051
189	0x3e0ae87a	0.13565245
190	0xbd3ec0a5	-0.04657044
191	0xbbdb7a5c	-0.006697936
192	0x3dc96d79	0.098353334
193	0x3c1f91e9	0.009739378
194	0xbcb1162a	-0.021617014
195	0x3dacabf2	0.084312335
196	0x3d27a30a	0.04092697
197	0xbd151b15	-0.03640278
198	0xbcfdb0dd	-0.030968124
199	0x3c94efa0	0.018180668
200	0x3c127dfd	0.008941171
201	0x3c9f3f36	0.019439321
202	0x3e0c3055	0.13690312
203	0xbdc6ee28	-0.097133934
204	0xbd978b59	-0.07399625
205	0x3ce3ec30	0.027822584
206	0xbc8db503	-0.017298227
207	0x3d2cd72b	0.042197388
208	0x3dc0b0cb	0.094087206
209	0x3d254068	0.040344626
210	0x3be41376	0.0069603277
211	0x3d639939	0.055566046
212	0xbd24cd81	-0.040235046
213	0xbd8ff65b	-0.070294105
214	0x3d3c7c71	0.046017114
215	0xbcad9b75	-0.021192292
216	0xbbb188a3	-0.0054178997
217	0xbd662792	-0.05619008
218	0xbb68694f	-0.003546316
219	0x3c869cd2	0.0164322
220	0x3b8801fd	0.0041506276
221	0xbc7fd902	-0.015615704
222	0xbc4d5b7a	-0.012534017
223	0xbc824e74	-0.01590655
224	0xbd271f9d	-0.040801633
225	0x3df84b7c	0.121237725
226	0x3bcbf9d4	0.00622485
227	0xbdcb7d7e	-0.09936045
228	0xbdbd31fe	-0.09238051
229	0x3d0d2787	0.034461524
230	0x3da7d736	0.08195345
231	0xbd8d831b	-0.06909772
232	0xbd42cb5a	-0.047557212
233	0x3dbf55bd	0.09342525
234	0xbd2d5c8d	-0.04232459
235	0x3da00dcf	0.07815134
236	0x3dce2fe1	0.10067726
237	0x3e172cde	0.14763209
238	0x3d91b9fc	0.07115552
239	0xbd051e7b	-0.03249977
240	0x3d5ffdd8	0.054685444
241	0x3e04d9cb	0.12973706
242	0xbcab6c93	-0.020925796
243	0x3d7d33fc	0.061817154
244	0x3dcfe1b7	0.101504736
245	0xbd778b54	-0.060435608
246	0xbe1c413a	-0.15259257
247	0xbdcc5c53	-0.09978547
248	0xbccc8b0c	-0.024968646
249	0x3cf5f59c	0.030024342
250	0xbd7bb424	-0.061451092
251	0xbd2c57f0	-0.04207605
252	0x3d8ff658	0.07029408
253	0x3dbb5b0d	0.09148226
254	0x3cab1e8a	0.020888586
255	0xbd9af137	-0.07565539

messages.W_key f4 [1, 128, 128]
0	0x3d4b8dab	0.049695652
1	0xbe466fdf	-0.19378613
2	0xbd4ca734	-0.049964145
3	0x3cc5dc6a	0.024152953
4	0x3de44d34	0.11147538
5	0x3dea2bb9	0.11434121
6	0x3d3e4807	0.04645541
7	0xbdb4e19e	-0.088320956
8	0xbdc53b00	-0.09630394
9	0xbb134a40	-0.0022474676
10	0xbd591358	-0.052996963
11	0x3d26cc3f	0.040722128
12	0x3a426c84	0.0007416683
13	0xbdbc5efb	-0.091978036
14	0xbd10f4e7	-0.035389807
15	0x3d3fc06f	0.04681438
16	0xbdaa7bc7	-0.0832439
17	0x3c764070	0.015030012
18	0xbde13d9c	-0.10998079
19	0x3d86ec26	0.065880105
20	0xbdd32808	-0.1031037
21	0x3d8b4d22	0.06801821
22	0xbcefbaae	-0.02926382
23	0xbdd9f67a	-0.10642715
24	0xbd066bf9	-0.032817814
25	0x3d097b0e	0.03356462
26	0xbb63e964	-0.0034776563
27	0xbd6f5d96	-0.05843886
28	0xbe5f3c8c	-0.2180044
29	0xbe231ce0	-0.15928984
30	0xbdb30dda	-0.08742876
31	0x3d67675c	0.056495056
32	0x3e6e0331	0.23243405
33	0x3d9b2c9d	0.07576869
34	0xbcb3b8d3	-0.021938717
35	0x3c0dba03	0.008650306
36	0x3d190969	0.03736249
37	0xbd1ab6d3	-0.03777201
38	0x3c7074aa	0.014676252
39	0xbe138fb2	-0.14410284
40	0x3c1cbfa5	0.009567176
41	0x3e924e3c	0.28575313
42	0xbdf63ce2	-0.12023331
43	0x3d883610	0.066509366
44	0x3b028a51	0.0019918869
45	0x3e18dfe9	0.14929165
46	0xbdfa578c	-0.122237295
47	0xbdaaf713	-0.08347907
48	0xbd691a6a	-0.056909956
49	0x3d9216f5	0.07133285
50	0xbd4467ef	-0.04795068
51	0x3e0c92d0	0.1372788
52	0xbd68b9f8	-0.05681798
53	0x3d3c3f85	0.045959014
54	0x3e40f83f	0.18844698
55	0xbd6488b0	-0.055794418
56	0xbdef902e	-0.11697422
57	0x3c3435dc	0.010999169
58	0x3c98bdcc	0.01864519
59	0xbe43aa68	-0.19107974
60	0xbcff25ed	-0.031146014
61	0xbdd50b57	-0.104025535
62	0x3cd6416a	0.026154239
63	0xbe0cf1f9	-0.1376418
64	0xbe605f60	-0.21911383
65	0x3d1e8765	0.03870334
66	0xbd218b0b	-0.039439242
67	0xbdbadccc	-0.09124145
68	0x3c9db92e	0.01925334
69	0x3dadc638	0.08485073
70	0xbd6f94ad	-0.058491398
71	0xbcacadce	-0.02107897
72	0xbdf93d63	-0.12169912
73	0x3dd4c8f0	0.10389888
74	0xbd796b91	-0.0608936
75	0x3e37e6f6	0.17959198
76	0x3d933195	0.071871914
77	0x3d1d6281	0.03842402
78	0xbdb265ad	-0.08710799
79	0xbe6777d8	-0.2260431
80	0xbcd4f1fb	-0.025994292
81	0xbe3cd34d	-0.1843998
82	0x3be53256	0.006994526
83	0x3c351261	0.011051745
84	0x3e5451c7	0.2073432
85	0x3daeaf11	0.08529485
86	0x3e40e5e7	0.18837701
87	0xbe08ae0d	-0.13347645
88	0xbdfc1c5d	-0.12310097
89	0x3d6e3585	0.05815651
90	0xbdc5678b	-0.0963889
91	0x3c3e29a7	0.01160661
92	0xbdd355b2	-0.103190795
93	0xbe17bcfc	-0.14818186
94	0x3d2d6392	0.042331286
95	0xbe273628	-0.16329253
96	0x3e244d82	0.16045192
97	0xbdea13ae	-0.11429535
98	0xbd89b334	-0.067236334
99	0x3d8b8d4a	0.06814058
100	0xbcc01738	-0.023448572
101	0xbdda3c2f	-0.1065601
102	0xbd53a69d	-0.051672567
103	0x3d90a0f5	0.0706195
104	0xbdd9014b	-0.1059595
105	0x3d9203bf	0.07129621
106	0x3d766519	0.060155008
107	0xbd2c9b4c	-0.04214029
108	0xbe046a34	-0.12931138
109	0xbc26dcf3	-0.010184514
110	0xbe836d77	-0.25669453
111	0xbc47c1b0	-0.012192175
112	0xbe0ae182	-0.13562587
113	0xbcdc1bc8	-0.026868716
114	0xbd6db28f	-0.058031615
115	0xbddf18f2	-0.1089343
116	0xbdbd8fae	-0.0925592
117	0xbd835307	-0.064123206
118	0xbdfc5794	-0.12321392
119	0xbce4ac8b	-0.027914306
120	0x3dc8588d	0.09782515
121	0xbe3a0489	-0.18165793
122	0xbc70a052	-0.014686661
123	0xbe6e79e3	-0.23288684
124	0xbe5330e1	-0.20624115
125	0xbd2f5d1a	-0.042813398
126	0xbd36f485	-0.044666786
127	0xbe156dd3	-0.14592676
128	0xbccd0bf7	-0.02503012
129	0xbda8317b	-0.08212563
130	0xbda3a103	-0.07989695
131	0x3e0c6f13	0.13714246
132	0x3de0761b	0.10960027
133	0x3df9d3cc	0.121986
134	0x3dabf232	0.083958045
135	0xbd2fa320	-0.042880177
136	0xbd16fa14	-0.036859587
137	0xbe7b7b35	-0.24558719
138	0xbd691160	-0.056901336
139	0x3d3b72c9	0.045763765
140	0xbbcb6420	-0.006207004
141	0x3e1d67c7	0.15371619
142	0x3c345ac3	0.011007967
143	0xbb74ebb2	-0.003737193
144	0x3d081e27	0.03323188
145	0xbde7677e	-0.112990364
146	0x3da905ac	0.08253035
147	0x3d8fd7b1	0.07023562
148	0x3c9afc3a	0.0189191
149	0xbc07705c	-0.008266535
150	0x3ded2956	0.1158015
151	0x3c5f3b58	0.0136249885
152	0xbd2109a7	-0.039315846
153	0x3cddc53f	0.027071593
154	0x3e0fbbf9	0.1403655
155	0x3ccc17a5	0.024913618
156	0x3e1fc211	0.15601374
157	0xbdac13a4	-0.08402184
158	0xbb33e456	-0.0027449331
159	0x3d46eece	0.048567586
160	0xbda05e0b	-0.07830437
161	0xbd671a2d	-0.056421448
162	0x3baf7ead	0.005355677
163	0x3d66f697	0.05638751
164	0x3e51c36b	0.20484702
165	0x3e04eda6	0.1298128
166	0xbce4f4d6	-0.027948778
167	0xbd39b8f2	-0.045342393
168	0xbdcb62c3	-0.09930947
169	0xbca98331	-0.02069244
170	0xbd8afee5	-0.067868985
171	0xbdd766c9	-0.105176516
172	0xbc3ae986	-0.011408215
173	0x39862d83	0.0002559238
174	0xbd399b71	-0.045314256
175	0x3c8e685b	0.017383745
176	0xbd80887c	-0.06276032
177	0x3cc5b57f	0.024134396
178	0x3cfb5da4	0.0306843
179	0xbdc49384	-0.09598449
180	0x3d849651	0.06473983
181	0xbe154633	-0.1457756
182	0x3d9c5701	0.07633782
183	0x3cab23ce	0.020891096
184	0xbd5920ae	-0.05300968
185	0xbd9ed0d1	-0.07754672
186	0x3d009495	0.0313917
187	0x3a42a6c7	0.00074253645
188	0xbe04ae65	-0.12957151
189	0x3d5f5509	0.054524455
190	0xbcadfc3a	-0.021238435
191	0xbdec3d98	-0.115351856
192	0x3d8e6ab7	0.06953948
193	0xbdd67c95	-0.10472981
194	0xbd8575ca	-0.06516607
195	0xbc860a5b	-0.01636236
196	0xbc19a4df	-0.009377687
197	0xbc8cfe8e	-0.017211225
198	0xbe21426f	-0.15747999
199	0x3da6b3e3	0.081397794
200	0x3dca712f	0.09884869
201	0xbd542770	-0.051795423
202	0x3c5a9c8d	0.013342989
203	0x3d75cfe5	0.060012717
204	0xbc1958c9	-0.009359547
205	0xbd94955c	-0.072550505
206	0xbc621484	-0.013798837
207	0xbd12be25	-0.035825867
208	0xbd2570dc	-0.040390834
209	0xbd40ce70	-0.047071874
210	0x3da09997	0.07841795
211	0x3d936b10	0.07198155
212	0x3d30d009	0.043167148
213	0xbe0763ce	-0.13221666
214	0xbd58eb10	-0.052958548
215	0x3d2593a4	0.040424004
216	0x3d3d803b	0.04626487
217	0xbc02d68f	-0.007985725
218	0x3cb0588e	0.021526601
219	0xbda9a38a	-0.08283146
220	0xbd092ae4	-0.03348817
221	0x3c1acf9b	0.009448911
222	0x3d4783a8	0.04870954
223	0xbe0d872f	-0.138211
224	0xbcac9e01	-0.021071436
225	0x3c8e2740	0.0173527
226	0xbdb23379	-0.08701224
227	0xbdc225e5	-0.09479884
228	0x3d31550a	0.04329399
229	0xbc022c06	-0.007945066
230	0xbe5ddebc	-0.21666998
231	0x3d0c7536	0.03429147
232	0xbcecb9a2	-0.02889711
233	0x3cad72f1	0.021172972
234	0x3d3949d8	0.04523644
235	0xbd94ae83	-0.07259848
236	0x3c578b93	0.013155836
237	0x3ddd41d1	0.10803569
238	0xbd908d41	-0.07058192
239	0xbe250db1	-0.16118504
240	0xbdd0fbfd	-0.10204313
241	0x3dfb1fc9	0.12261922
242	0xbd4d4548	-0.0501149
243	0xbdba1ba4	-0.09087303
244	0x3d3992f5	0.045306165
245	0xbe72448d	-0.23658963
246	0xbddb115d	-0.10696671
247	0xbd8283fe	-0.06372832
248	0xbdae17cd	-0.085006334
249	0x3cd843e6	0.026399564
250	0x3dd94edf	0.106107466
251	0x3d06619d	0.032807935
252	0x3e48f2a7	0.19623815
253	0xbdee3ae3	-0.116323255
254	0xbe1a4981	-0.15067102
255	0xbdc7e6d0	-0.09760821

messages.W_val f4 [1, 128, 128]
0	0x3e23fbe2	0.16014054
1	0x3d724634	0.059148982
2	0x3ba1589d	0.0049238936
3	0xbdcb24db	-0.09919139
4	0x3db6ea2d	0.08931384
5	0xbc40b83b	-0.011762674
6	0x3cd51960	0.026013076
7	0xbb8ab872	-0.0042334134
8	0x3e127acf	0.1430466
9	0x3df8cc18	0.12148303
10	0xbc069168	-0.0082133785
11	0xbcc2df84	-0.023788221
12	0x3d2242c8	0.03961447
13	0x3dbfb59e	0.093608126
14	0x3def9367	0.11698037
15	0x3d9eedde	0.07760213
16	0xbd70cb30	-0.058787525
17	0xbd94b51a	-0.07261105
18	0xbdcfee2b	-0.10152849
19	0xbce40e04	-0.027838714
20	0x3d827e9d	0.06371806
21	0x3ceadd46	0.028669965
22	0xbc3c1859	-0.011480414
23	0x3e2dda5a	0.16977826
24	0xbd8e9e89	-0.06963832
25	0xbdacc251	-0.084355004
26	0x3e2aabba	0.16667071
27	0x3ce872ba	0.028375018
28	0x3dfc6dda	0.1232564
29	0x3be9b465	0.0071321004
30	0x3bb26e1f	0.0054452564
31	0x3e1d6dac	0.15373868
32	0x3d38aeff	0.045088764
33	0x3d5800e6	0.05273523
34	0xbd97a8c8	-0.07405239
35	0xbd79df9c	-0.061004266
36	0x3c8dd45e	0.017313179
37	0x3decfdf7	0.115718774
38	0xbd2617fb	-0.040550213
39	0xbd91bfb3	-0.07116642
40	0xbd84f26c	-0.06491551
41	0x3b91d1e4	0.0044500697
42	0xbd723184	-0.059129253
43	0x3d7c6106	0.061615966
44	0xbc5e363e	-0.013562737
45	0xbd02e376	-0.031955205
46	0x3e04a5ae	0.12953827
47	0x3d600715	0.054694254
48	0x3d6780b0	0.05651921
49	0x3d6e3dc2	0.058164366
50	0xbe0447bd	-0.12917991
51	0xbc22c0f7	-0.009933702
52	0xbc0171b0	-0.00790064
53	0x3d7921a6	0.060823105
54	0xbdbc9b89	-0.092093535
55	0xbba9da4d	-0.005183494
56	0x3dd37260	0.1032455
57	0xbdee26bd	-0.116284825
58	0xbd7daab0	-0.06193036
59	0x3db7243f	0.0894246
60	0xbd3dda01	-0.046350483
61	0xbd289c68	-0.041164786
62	0x3d9624da	0.07331248
63	0x3dc402c8	0.09570843
64	0xbbf61269	-0.007509519
65	0xbe2a935c	-0.16657776
66	0x3cf1fbcd	0.029539013
67	0x3df58965	0.119890966
68	0xbdc1b9d1	-0.0945927
69	0xbb16f817	-0.0023036057
70	0xbd28a9e8	-0.04117766
71	0x3d5f3093	0.054489683
72	0xbda1db0f	-0.0790311
73	0xbda45602	-0.08024217
74	0xbc6839d8	-0.014173947
75	0xbdadadb4	-0.08480397
76	0xbcb76117	-0.022385163
77	0xbdb07429	-0.08615906
78	0xbd9d95e8	-0.07694608
79	0xbd0dd242	-0.034624346
80	0xbe0a28bb	-0.134921
81	0xbdf5042e	-0.11963688
82	0x3d8c71a1	0.068576105
83	0xbdb67f3f	-0.08910989
84	0x3d2c078a	0.041999377
85	0x3d2aa2b7	0.041659083
86	0x3c8f4ddc	0.01749318
87	0xbd8a69d2	-0.06758465
88	0x3d3703cd	0.04468136
89	0xbc7ef54f	-0.015561416
90	0xbdfbaa60	-0.12288356
91	0xbde0f413	-0.109840535
92	0xbcc282e0	-0.023744047
93	0x3d36500c	0.044509932
94	0xbd14fb55	-0.0363725
95	0x3d51222c	0.05105798
96	0xbd1cf5ef	-0.038320478
97	0xbd9edb76	-0.077567026
98	0x3d31bd34	0.04339333
99	0xbc66d808	-0.014089592
100	0x3d0a8ae0	0.033823848
101	0x3d928c52	0.0715567
102	0x3dbeba51	0.09312881
103	0xbdf2a33e	-0.11847542
104	0x3cab7fa9	0.020934897
105	0x3e5989de	0.21243998
106	0xbd81e7ec	-0.06343064
107	0x3cf878f9	0.030331122
108	0xbd892de9	-0.0669821
109	0x3da38cc7	0.079858355
110	0x3e10807d	0.14111514
111	0x3cbc33c7	0.022973908
112	0xbdf37a69	-0.11888582
113	0xbdccc7af	-0.09999024
114	0x3d55402a	0.052063145
115	0xbd4c44ac	-0.049870178
116	0x3daba758	0.08381528
117	0xbe3bab9d	-0.18327184
118	0x3d85a91a	0.06526394
119	0x3b5239d2	0.003207792
120	0xbd417362	-0.04722918
121	0xbc081007	-0.0083046025
122	0x3d25f40b	0.04051594
123	0x3d9d5651	0.07682479
124	0xbd75b8df	-0.05999076
125	0x3d916c2f	0.071007125
126	0xbe03f80e	-0.12887594
127	0x3b78df92	0.0037975055
128	0xbcfff5f4	-0.03124521
129	0x3d86a50b	0.06574448
130	0xbcd869d0	-0.026417643
131	0x3cc93ff2	0.024566624
132	0xbbdc2ac9	-0.0067189676
133	0xbe0edf1a	-0.13952294
134	0x3c9685ca	0.018374342
135	0xbcda6985	-0.026661644
136	0xbdb0abd7	-0.08626526
137	0xbdb203d8	-0.086921394
138	0xbbc61124	-0.006044524
139	0xbc2ecf2b	-0.01066951
140	0xbd0b87a2	-0.034064896
141	0x3d6b710f	0.057480868
142	0x3d892184	0.06695846
143	0xbc88436a	-0.016633708
144	0x3d1f9e5d	0.038969386
145	0x3ccaf674	0.024775721
146	0xbc731609	-0.014836797
147	0x3d717caf	0.0589568
148	0x3d4ea607	0.050451305
149	0x3cd6924f	0.026192812
150	0xbd427980	-0.047479153
151	0xbc41a366	-0.011818742
152	0x3c8649d6	0.01639263
153	0xbda74deb	-0.081691585
154	0x3d2cac31	0.042156402
155	0xbd8f8b1b	-0.07008954
156	0x3dbcf1f7	0.09225839
157	0xbcfb50f9	-0.03067826
158	0x3d864a88	0.065571845
159	0x3c40a319	0.0117576355
160	0xbd94c15f	-0.07263445
161	0x3dfb1325	0.12259511
162	0x3cba5eae	0.022750225
163	0x3cd9f1a0	0.026604474
164	0x3d95c3da	0.07312746
165	0x3d98bc33	0.07457771
166	0xbdab263d	-0.08356903
167	0xbc23ede9	-0.010005453
168	0xbdd173af	-0.10227143
169	0xbdd19984	-0.10234359
170	0xbc928780	-0.017886877
171	0xbb4c5a52	-0.0031181765
172	0xbbcc420e	-0.0062334603
173	0x3d643981	0.055718902
174	0xbd51a2b4	-0.051180556
175	0xbd0d8944	-0.034554735
176	0xbd86d639	-0.065838285
177	0x3d0966c2	0.033545263
178	0x3d9af33b	0.07565924
179	0x3d70a944	0.058755174
180	0xbd9b5f71	-0.075865634
181	0xbc5eab36	-0.013590625
182	0x3d45e721	0.048316125
183	0xbd87254e	-0.06598912
184	0x3d2c26a0	0.042029023
185	0xbde6958e	-0.11258994
186	0x3cfeb7d4	0.031093515
187	0xbd9e67f6	-0.07734673
188	0xbd019706	-0.031638168
189	0x3c011992	0.007879632
190	0xbdbe6479	-0.092965074
191	0xbd0722b4	-0.03299208
192	0x3d0c918a	0.034318484
193	0xbd51cdca	-0.051221646
194	0xbde4685b	-0.11152717
195	0xbd871c66	-0.065972134
196	0x3dfd3579	0.12363715
197	0xbe03fa38	-0.1288842
198	0xbdd5789d	-0.10423396
199	0xbd1cab29	-0.03824917
200	0x3d7fed16	0.062481962
201	0x3c920211	0.017823251
202	0xbdc12967	-0.09431725
203	0x3d66f89d	0.05638944
204	0x3ce9c5e7	0.02853675
205	0xbdbe9dc8	-0.09307438
206	0x3d63d5f8	0.05562398
207	0xbb6824ad	-0.003542225
208	0xbdb2ee19	-0.0873682
209	0xbde8d1ba	-0.11368127
210	0xbdcfd0af	-0.10147225
211	0x3da3d405	0.07999424
212	0x3de045aa	0.10950787
213	0x3d4a58e8	0.049401194
214	0xbde9a134	-0.114077
215	0x3dbbde13	0.09173217
216	0x38aa897e	8.1318416e-05
217	0x3e0e5b34	0.13901979
218	0xbd733321	-0.059374932
219	0xbc9699f2	-0.018383954
220	0x3d8e4ef9	0.069486566
221	0xbd66dd60	-0.056363463
222	0xbd709583	-0.058736335
223	0xbc96425d	-0.018342191
224	0xbd1e5997	-0.03865966
225	0xbd5b808c	-0.05358939
226	0xbd845556	-0.06461589
227	0x3d878630	0.06617391
228	0x3d5b8100	0.05358982
229	0x3d8a5d57	0.067560844
230	0x3deffaf5	0.11717788
231	0x3da79d12	0.08184256
232	0xbcb41190	-0.02198103
233	0xbd682647	-0.05667713
234	0xbcb95a54	-0.02262608
235	0xbd570043	-0.052490484
236	0xbdd28fa2	-0.10281302
237	0x3ba21d83	0.0049473657
238	0x3d2eb584	0.042653576
239	0xbadf8fde	-0.0017056426
240	0x3e00420d	0.12525196
241	0x3c69af5a	0.0142629985
242	0x3df45550	0.119303346
243	0x3d1458b1	0.036217395
244	0xbcf0f06e	-0.02941152
245	0x3c6485de	0.013947932
246	0x3de61bce	0.11235772
247	0x3d9500ec	0.072755665
248	0x3c2ec379	0.0106667215
249	0x3d8fd157	0.0702235
250	0x3da3a679	0.079907365
251	0x3c02cbab	0.007983129
252	0x3db56d98	0.08858794
253	0x3d0c0fa6	0.03419461
254	0x3c9f0a87	0.0194142
255	0xbc861f6d	-0.016372407

messages.W_out f4 [1, 128, 128]
0	0xbd04a287	-0.03238156
1	0x3db8923e	0.090122685
2	0x3d8c8919	0.06862087
3	0x3d5251be	0.051347487
4	0x3d14e8ec	0.036354944
5	0xbd3d2b9a	-0.04618416
6	0x3d28234f	0.041049298
7	0xbd2d92d2	-0.042376347
8	0xbd70d766	-0.05879917
9	0xbd959d19	-0.073053546
10	0x3d7118b3	0.058861446
11	0xbd28182a	-0.04103867
12	0x3ce974d1	0.028498085
13	0x3c2dfc20	0.010619193
14	0x3d20bd94	0.039243296
15	0xbdeb1715	-0.11479012
16	0xbd322772	-0.04349465
17	0xbb8b2421	-0.0042462503
18	0x3d6a45a9	0.05719534
19	0x3d89be26	0.06725721
20	0x3da4520e	0.08023463
21	0x3bb03b1f	0.0053781415
22	0x3d04d5a9	0.032430325
23	0x3b5615bf	0.003266677
24	0x3c4ffee4	0.012695048
25	0x3ba94102	0.0051652202
26	0xbd6ff774	-0.0585856
27	0xbd16c1ee	-0.03680604
28	0x3cdb3b6a	0.02676173
29	0x3d0c9c9f	0.034329053
30	0xbc8e0ca2	-0.017340008
31	0xbd88e7e2	-0.06684853
32	0x3d041efe	0.03225612
33	0x3bd5ab3c	0.006520657
34	0xbc17e3f1	-0.009270654
35	0xbcea4dbe	-0.028601523
36	0xbd2c58e9	-0.04207698
37	0xbb4cfa90	-0.0031277277
38	0x3c87cc79	0.016576992
39	0xbcbfb3a9	-0.023401098
40	0xbd17d852	-0.037071534
41	0x3c8c770a	0.017146606
42	0x3d96d45f	0.07364725
43	0x3d1070c9	0.03526381
44	0x3d6da6ef	0.05802053
45	0x3c81b34b	0.015832564
46	0xbb240951	-0.0025029967
47	0xbe093e60	-0.134027
48	0xbd1ab1dd	-0.03776728
49	0x3ce05ceb	0.027388057
50	0xbd5f6321	-0.054537896
51	0xbd37a5c4	-0.04483582
52	0x3db52cc7	0.08846431
53	0xbd8ca871	-0.06868065
54	0x3b73ec8b	0.0037219848
55	0xbcabb571	-0.020960541
56	0xbd9fa72b	-0.07795557
57	0x3c9a0e5b	0.018805673
58	0xbc0f5827	-0.0087490445
59	0xbdedf186	-0.116183326
60	0xbdcad017	-0.09902971
61	0x3d3817a0	0.044944406
62	0x3d457510	0.048207343
63	0x3ccecbd2	0.025243673
64	0xbd5528ec	-0.05204098
65	0xbd9e0f0e	-0.07717715
66	0xbd8200b4	-0.0634779
67	0xbdb7b9e0	-0.08971
68	0xbd523e29	-0.05132881
69	0x3d2609f3	0.040536832
70	0x3d1e5eda	0.038664676
71	0xbb93ec9b	-0.0045142896
72	0x3cb7d4f7	0.022440417
73	0x3c3689db	0.011141266
74	0xbe084599	-0.133078
75	0xbd8b951b	-0.06815549
76	0x3cb7de15	0.022444764
77	0x3daf5401	0.08560944
78	0x3c9b1748	0.018932
79	0x3d928744	0.07154706
80	0x3db7362a	0.08945878
81	0x3dbf6f4a	0.093473986
82	0xbcaa6048	-0.020797864
83	0x3d877e57	0.06615894
84	0x3d3e55b0	0.046468437
85	0x3dc1e15b	0.09466811
86	0x3d785c2d	0.06063478
87	0xbd8f3593	-0.0699264
88	0x3d35be9b	0.04437123
89	0x3e0a129e	0.13483664
90	0xbd8386c5	-0.064221896
91	0xbbbc551c	-0.0057474505
92	0xbd2db2e8	-0.042406946
93	0x3ccf0f18	0.025275752
94	0xbdbf628a	-0.09344967
95	0x3d9750c4	0.07388452
96	0xbc5dc9f7	-0.013536922
97	0x3ddd25e5	0.107982434
98	0x39ca9292	0.00038637646
99	0xbcb45a39	-0.022015678
100	0x3dc47e3e	0.09594391
101	0x3caa76bb	0.020808568
102	0xbccc2e9c	-0.024924569
103	0xbe1020c3	-0.14074998
104	0x3d24fa56	0.0402778
105	0x3dbd7344	0.09250501
106	0xbc39d1d1	-0.011341528
107	0x3c3ac11e	0.011398582
108	0xbdea4b7e	-0.1144018
109	0x3d9ba3b4	0.07599583
110	0xbc95982c	-0.018261038
111	0x3dccad66	0.099940106
112	0x3cad5174	0.021157004
113	0x3e0669a1	0.13126232
114	0x3dabe3d2	0.08393063
115	0x3c277607	0.010221011
116	0x3d13cd28	0.036084324
117	0xbd4a6de9	-0.049421225
118	0xbdbdb622	-0.09263255
119	0x3d8b77ec	0.06809983
120	0x3cdb0329	0.026734905
121	0xbdd06cc1	-0.10176993
122	0x3dafc88d	0.08583174
123	0xbcdf5be5	-0.027265498
124	0x3d3e3c3f	0.046444174
125	0xbddb7d08	-0.10717207
126	0xbc889dd7	-0.016676826
127	0xbd4ad919	-0.049523447
128	0xbe1f7c8a	-0.15574852
129	0xbdc658b6	-0.09684889
130	0xbd775d3d	-0.060391653
131	0xbd04e5b4	-0.032445624
132	0xbd86b40f	-0.06577312
133	0x3c5da90a	0.013529072
134	0x3dac71c1	0.08420134
135	0x3d97bdb2	0.074092284
136	0x3d080901	0.03321171
137	0x3cdf1c2d	0.027235115
138	0xba54cf0c	-0.00081180106
139	0x3d548ff6	0.051895104
140	0x3da3154c	0.079630464
141	0xbdb24ed8	-0.087064445
142	0x3d58a6fe	0.05289363
143	0xbcf2b36a	-0.029626567
144	0x3d8be0f9	0.068300195
145	0xbd5ff8a6	-0.05468049
146	0xbd386a3d	-0.04502319
147	0x3c2a3391	0.010388271
148	0x3db0201b	0.08599874
149	0x3bab30b6	0.0052243127
150	0x3e272ba6	0.16325244
151	0x3d2a5dc8	0.041593343
152	0xbd489458	-0.048969597
153	0xbdd779ed	-0.10521302
154	0x3cee7bd5	0.029111782
155	0x3da1e298	0.079045475
156	0x3c3c2f14	0.011485834
157	0xbd77042e	-0.06030672
158	0xbe188273	-0.14893512
159	0x3dbfca27	0.093647294
160	0x3d05c3ef	0.03265756
161	0xbc53f300	-0.012936354
162	0xbb9335d8	-0.0044925027
163	0xbdcfdf46	-0.10150008
164	0xbd4a653b	-0.049412947
165	0x3c924a11	0.017857583
166	0xbd982c9c	-0.074303836
167	0x3bc2ac22	0.00594093
168	0xbce4dad3	-0.027936375
169	0xbd678919	-0.05652723
170	0xbc75e5d1	-0.015008406
171	0x3c7ea9fa	0.015543455
172	0x3d7c14de	0.061543338
173	0xbcda3420	-0.026636183
174	0xbd460d14	-0.048352316
175	0x3d3f2c3b	0.04667304
176	0xbd469d96	-0.04849013
177	0xbd876e9f	-0.06612896
178	0xbd16ec32	-0.036846347
179	0x3d9303d8	0.071784675
180	0x3bcb460c	0.0062034186
181	0xbc58245a	-0.013192261
182	0xbd063219	-0.03276262
183	0x3cc10b38	0.02356492
184	0xbd907add	-0.07054684
185	0x3d2eec07	0.042705562
186	0xbde3b81f	-0.11119103
187	0x3cddc1b2	0.0270699
188	0xbd1e2ff1	-0.03861994
189	0x3c8df3e8	0.017328218
190	0xbd2b3ce8	-0.04180613
191	0xbda6c1cf	-0.08142435
192	0xbd588040	-0.052856684
193	0xbbb58b55	-0.0055402913
194	0x3d19135d	0.037371982
195	0x3d171f17	0.036894884
196	0x3d5d96e4	0.05409898
197	0x3ddf8f26	0.10915975
198	0x3cfbcf22	0.030738417
199	0x3db140ac	0.08654913
200	0xbdbf5695	-0.09342686
201	0xbe1812e0	-0.1485095
202	0x3cade16e	0.021225657
203	0xbd8a6c9f	-0.06758999
204	0xbe00f961	-0.1259513
205	0x3a83f383	0.0010067079
206	0x3dbbdde9	0.091731854
207	0x3daa0ac7	0.08302837
208	0xbc748115	-0.014923354
209	0xbc94c522	-0.018160407
210	0xbd56d3b9	-0.05244801
211	0x3dcace45	0.09902624
212	0x3d29f148	0.04148987
213	0x3d34c60b	0.04413418
214	0x3d0408fe	0.032235138
215	0xbd2bb86d	-0.04192393
216	0xbda49f92	-0.08038248
217	0x3ca242c4	0.019807227
218	0x3dd8e862	0.105911985
219	0xbd2fb125	-0.042893548
220	0x3dd25f5d	0.10272095
221	0xbd0a451e	-0.03375732
222	0x3d4f6632	0.05063457
223	0x3c0abe15	0.008468171
224	0xbda2a540	-0.07941675
225	0xbda71491	-0.081582196
226	0xbdf1fa57	-0.11815327
227	0x3dacdccf	0.084405534
228	0xbd5c2126	-0.05374255
229	0xbaf5e0e5	-0.001875904
230	0x3e001235	0.12506945
231	0xbdc0f391	-0.094214566
232	0xbd63df7d	-0.055633057
233	0x3d184302	0.03717328
234	0xbcae132e	-0.02124938
235	0xbb8ceae7	-0.0043004635
236	0x3dda9a21	0.10673929
237	0xbdb2c05c	-0.08728096
238	0xbdc608e4	-0.096696645
239	0x3c82274e	0.015887883
240	0x3d81ac55	0.06331698
241	0xbd92d037	-0.0716862
242	0xbde08da4	-0.10964516
243	0xbcbd2703	-0.023089891
244	0xbe03d164	-0.12872845
245	0xbdacdf77	-0.0844106
246	0xbde2e698	-0.110791385
247	0xbd64283b	-0.05570243
248	0xbd11346a	-0.035450377
249	0x3c3513b7	0.011052064
250	0x3d881bcb	0.06645926
251	0xbc253715	-0.010083933
252	0x3d42b1cb	0.047532838
253	0x3cd4da7a	0.025983084
254	0xbd8f6e6e	-0.07003485
255	0x3de4c73d	0.11170814

update.0.weight f4 [128, 256]
0	0xbdb94c76	-0.09047787
1	0x3cad75b7	0.021174295
2	0x3dbdb356	0.09262721
3	0xbd2910cf	-0.041275796
4	0xbd5fafd7	-0.054611053
5	0x3c8d92ed	0.017281974
6	0xbd0fa381	-0.03506804
7	0x3d37cb3b	0.04487155
8	0xbdf113a3	-0.117713235
9	0xbd8f9287	-0.0701037
10	0x3db1d962	0.086840406
11	0xbe9a6fd2	-0.30163437
12	0x3dd615a7	0.104533486
13	0x3c006f50	0.007839039
14	0x3c88e81e	0.016712245
15	0xbe168dd8	-0.14702547
16	0xbe0a2dc4	-0.1349402
17	0xbdb90f9b	-0.0903618
18	0xbe33b4be	-0.17549416
19	0x3dedfcf4	0.116205126
20	0x3c83e708	0.016101375
21	0x3e10b2e0	0.14130735
22	0x3cfcbd6d	0.030852044
23	0x3e0381ab	0.12842433
24	0x3bc9fc09	0.006164078
25	0xbe21d420	-0.15803576
26	0xbce6429e	-0.028107937
27	0xbde05371	-0.10953415
28	0xbde425f1	-0.11140049
29	0x3e00b8d1	0.12570502
30	0xba835c4a	-0.0010022011
31	0x3c8ff3c1	0.017572286
32	0xbdff65c8	-0.12470585
33	0xbb036ccc	-0.0020053862
34	0x3ddb7e3e	0.10717438
35	0xbc9152e0	-0.017739713
36	0xbd666693	-0.056250166
37	0xbddfce7b	-0.10928055
38	0x3bf97f47	0.0076140496
39	0x3dc877db	0.097884856
40	0xbde20f92	-0.11038126
41	0x3d4d9ce3	0.050198447
42	0x3b04371e	0.0020174454
43	0x3dac6425	0.084175386
44	0x3e0d15db	0.13777868
45	0x3c99ba7c	0.01876568
46	0xbc485c46	-0.012229031
47	0xbe2f7e92	-0.17138126
48	0xbdcc6006	-0.099792525
49	0x3c727f93	0.014800924
50	0x3dbd33ff	0.09238433
51	0x3c80b85f	0.015712915
52	0x3db44b5e	0.08803438
53	0xbc6959bc	-0.014242586
54	0x3d49e8f7	0.04929444
55	0x3b0768c3	0.0020661808
56	0xbde09679	-0.109662004
57	0x3d4dbd82	0.050229557
58	0x3d971f52	0.07379021
59	0xbdc92812	-0.09822096
60	0x3ca10978	0.019657835
61	0x3b8af366	0.004240441
62	0xbd5ad4d1	-0.053425614
63	0xbe906c94	-0.2820784
64	0x3ceb960d	0.028758073
65	0x3cb6afcf	0.022300629
66	0xbd32d999	-0.04366455
67	0xbd1adf8b	-0.037810843
68	0xbe162927	-0.14664136
69	0xbe37f86d	-0.1796586
70	0x3c6c2e6e	0.014415367
71	0x3cb718b6	0.02235065
72	0x3d7eba1b	0.062189203
73	0x3dbc0031	0.09179724
74	0xbe296e5e	-0.16546008
75	0x3d3b05b2	0.04565973
76	0xbdc0b7f7	-0.094100885
77	0xbe1cd704	-0.15316397
78	0xbe2f4249	-0.1711513
79	0x3d1aa7da	0.037757732
80	0x3df3146e	0.11869131
81	0x3d3e4a69	0.04645768
82	0xbdbb7b34	-0.091543585
83	0xbe7a86b8	-0.24465454
84	0xbd7e8532	-0.062138744
85	0x3e06f969	0.1318108
86	0xbdcf7538	-0.101297796
87	0x3d7b09db	0.061288696
88	0xbe890a2e	-0.2676558
89	0xbe4e8e24	-0.2017141
90	0x3db0add3	0.08626904
91	0x3b33f9c1	0.0027462097
92	0xbe810f2f	-0.25206897
93	0xbe270643	-0.16310982
94	0xbd9a45db	-0.07532855
95	0x3de0758e	0.10959922
96	0xbd59bc3e	-0.053158037
97	0xbd747375	-0.05968042
98	0xbd699922	-0.057030804
99	0xbd5917f3	-0.053001355
100	0xbd4a5687	-0.049398925
101	0xbc40bc3b	-0.011763628
102	0xbd464918	-0.04840955
103	0x3dd287b1	0.10279787
104	0xbd04b007	-0.032394435
105	0x3d24aa4d	0.040201474
106	0xbcc1f080	-0.02367425
107	0x3d22074e	0.039557748
108	0xbe5b711a	-0.21429864
109	0x3d9e47b2	0.077285185
110	0x3d900190	0.07031548
111	0x3d58ffbb	0.05297826
112	0x3d7236c0	0.059134245
113	0xbd801a9e	-0.06255077
114	0x3cacaaab	0.021077475
115	0xbd9311ea	-0.07181151
116	0xbc89ed45	-0.016836772
117	0xbd203d7f	-0.039121147
118	0x3bf3685e	0.007428213
119	0xbd89446f	-0.06702506
120	0x3deb53ad	0.11490569
121	0x3d9bbfe8	0.076049626
122	0x3e0a9a7a	0.1353549
123	0xbbc0c37d	-0.005882679
124	0x3dba81ee	0.09106813
125	0x3c31a1c2	0.010841789
126	0xbe41e13e	-0.1893358
127	0x3b1386a2	0.0022510667
128	0xbe026f95	-0.12737878
129	0xbcd87736	-0.026424032
130	0xbdca80c9	-0.09887845
131	0x3bc02b40	0.005864531
132	0x3d4b5f38	0.049651355
133	0x3d3ccc7e	0.046093456
134	0x3c3a0698	0.011354111
135	0x3cc78f29	0.024360256
136	0x3c3fab80	0.011698604
137	0xbdd95f6e	-0.10613905
138	0x3cf922a7	0.030412031
139	0x3e4123d7	0.18861328
140	0x3d02dbe0	0.03194797
141	0x3c9a9294	0.018868722
142	0x3da32ecb	0.079679094
143	0xbd2de535	-0.042454917
144	0x3dac133d	0.08402107
145	0xbbf94bf7	-0.0076079327
146	0xbd37543b	-0.044758063
147	0x3c8a0712	0.016849075
148	0x3de9f17a	0.11423011
149	0x3e0e8286	0.13916978
150	0xbdfef7da	-0.12449618
151	0xbdca208f	-0.09869491
152	0xbe0569c1	-0.13028623
153	0x3d30395d	0.043023456
154	0xbe038332	-0.12843016
155	0x3d73987d	0.059471596
156	0x3d0c8cd5	0.034313995
157	0xbde8ed06	-0.11373334
158	0xbde11a05	-0.10991291
159	0xbdc8c6a6	-0.09803514
160	0xbd4f3959	-0.0505918
161	0x3c549bb3	0.012976575
162	0xbccbed96	-0.024893563
163	0x3d622286	0.055208705
164	0xbca253b7	-0.019815309
165	0x3c94bde3	0.018156951
166	0x3dc97a50	0.098377824
167	0xbdc435c3	-0.09580567
168	0xbd8969a6	-0.06709604
169	0x3ce98a71	0.028508397
170	0x3dfaccc3	0.122460864
171	0x3c598ff9	0.013278955
172	0xbd96eb01	-0.07369042
173	0xbcf9deab	-0.030501684
174	0xbc6e0395	-0.014527221
175	0xba021620	-0.00049624033
176	0xbd2b8e66	-0.04188385
177	0xbca253a8	-0.019815281
178	0x3e506df3	0.20354442
179	0xbd5e3a06	-0.054254554
180	0x3cf6a80c	0.030109428
181	0xbd86b1fe	-0.06576918
182	0xbe2b2a6f	-0.16715406
183	0xbb2bb53a	-0.0026200549
184	0xbdb35be4	-0.08757761
185	0x3ca6e5c9	0.020373242
186	0x3bf34534	0.007424021
187	0x3e082ce0	0.13298368
188	0x3dce119e	0.10061954
189	0xbd0de90e	-0.034646086
190	0x3d61954f	0.055074032
191	0xbd9421b7	-0.07232993
192	0x3dae3afc	0.08507344
193	0x3ce3b5a1	0.027796568
194	0x3d55c743	0.052191984
195	0x3d8619cc	0.06547889
196	0xbd84c58b	-0.06482991
197	0x3baccdca	0.0052735554
198	0x3cfab6df	0.030604778
199	0x3d866fa6	0.06564264
200	0x3dc6d517	0.097086124
201	0x3c16e080	0.009208798
202	0xbd9d5c6b	-0.07683643
203	0xbd893209	-0.066989966
204	0xbc083ba3	-0.008315
205	0xbd979a4f	-0.07402479
206	0x3dcce43a	0.10004468
207	0xbbff5023	-0.0077915355
208	0xbdafaae6	-0.08577518
209	0xbd7c49b3	-0.061593723
210	0xbd81bd7b	-0.06334969
211	0x3dbc771d	0.092024066
212	0xbda432d6	-0.08017509
213	0xbce19150	-0.02753511
214	0xbd11076f	-0.03540748
215	0xbe5b1f2f	-0.21398614
216	0x3d59be0a	0.05315975
217	0xbd7e8cef	-0.062146123
218	0xbdff22ec	-0.12457833
219	0x3dd331f0	0.10312259
220	0xbd3d8d81	-0.046277527
221	0x3dd24d21	0.102686174
222	0x3dbd176e	0.092329845
223	0xbc37fabf	-0.011229216
224	0x3d8df415	0.069313206
225	0xbd4826b8	-0.04886505
226	0x3bdce5e6	0.006741273
227	0x3d5535f2	0.0520534
228	0x3bd77cc3	0.006576152
229	0x3e0ec44f	0.13942073
230	0x3d02c613	0.03192718
231	0x3d7c898d	0.061654616
232	0x3d955ce2	0.072931066
233	0xbbbfc570	-0.005852394
234	0x3dc8fc84	0.098137885
235	0xbcb917b3	-0.022594308
236	0x3d82d0de	0.063874945
237	0xbe44dd41	-0.19225027
238	0xbb64ae8e	-0.0034894082
239	0x3df46fe6	0.119354054
240	0x3deea85a	0.11653204
241	0xbe1899a6	-0.14902362
242	0xbd43d925	-0.047814507
243	0xbdacd26c	-0.08438572
244	0x3e01a0e8	0.12659037
245	0xbcd31589	-0.025767105
246	0x3cb16b96	0.021657746
247	0xbd3dfec0	-0.046385527
248	0x3e169838	0.14706504
249	0xbd806b81	-0.06270505
250	0xbe0015b4	-0.12508279
251	0x3c71faa1	0.014769227
252	0x3b4b8785	0.0031056118
253	0xbd72cbf6	-0.059276544
254	0xbdd0f4e8	-0.10202962
255	0x3e4f203d	0.20227142

update.0.bias f4 [128]
0	0x3d58dc58	0.05294451
1	0x3d85b055	0.06527773
2	0x3dbeed38	0.0932259
3	0xbc0e32f0	-0.008679137
4	0xbd28a27d	-0.041170586
5	0x3d6bddcf	0.05758458
6	0xbdb1ee88	-0.08688074
7	0x3c66b6be	0.014081655
8	0xbc12f899	-0.008970403
9	0xbc96c69f	-0.018405257
10	0xbc3b38fe	-0.011427162
11	0xbd174aa8	-0.036936432
12	0xbcb7c12c	-0.022430979
13	0x3c4c31c5	0.012463038
14	0x3c73ed46	0.014888113
15	0x3ca0e1e9	0.019638972
16	0x3c651c64	0.01398382
17	0x3d5740a8	0.052551895
18	0x3d6b2ba6	0.057414673
19	0xbc07b5ed	-0.008283121
20	0x3ac90808	0.0015337477
21	0x3c88a2f4	0.016679265
22	0x3d2afd08	0.041745216
23	0x3c1fd1de	0.009754626
24	0xbcbb857c	-0.022890799
25	0x3d5e411e	0.05426132
26	0x3d74ff85	0.059813995
27	0x3d01e233	0.03170986
28	0xbd15cd5d	-0.036572803
29	0xbd1ed4c6	-0.038777135
30	0x3d98ce84	0.07461265
31	0x3d2916e6	0.041281603
32	0x3d737a31	0.059442703
33	0xbc8d5ffa	-0.01725768
34	0xbc72b787	-0.014814264
35	0x3dd39f21	0.10333086
36	0x3d9f819d	0.07788394
37	0x3db6da5a	0.08928366
38	0x3d38287e	0.04496049
39	0xbc3d0adb	-0.011538233
40	0x3b7762ab	0.003774802
41	0x3d93c660	0.072155714
42	0x3da92317	0.08258646
43	0x3d82f78c	0.06394872
44	0x3ca8a574	0.020586707
45	0xbca2861c	-0.019839339
46	0x3c17e4ef	0.009270891
47	0xbd6f6b7b	-0.05845211
48	0x3da1741b	0.078834735
49	0x3cc62f8b	0.024192592
50	0x3d221108	0.039567024
51	0x3cd92f2d	0.026511753
52	0x3db8a4b1	0.090157874
53	0xbbd40009	-0.0064697308
54	0x3ce83505	0.028345594
55	0x3d4c0160	0.049806
56	0x3d27496a	0.040841497
57	0xbcad5e83	-0.02116323
58	0x3d9c842b	0.076423965
59	0x3d2a0181	0.04150534
60	0x3d215f2e	0.03939741
61	0xbd0d38b3	-0.0344779
62	0xbd192781	-0.03739119
63	0xbd155f68	-0.03646794
64	0x3d3f6dc9	0.04673556
65	0xbdd128f0	-0.10212886
66	0x3d1a5cc9	0.037686143
67	0xbd23d771	-0.040000383
68	0x3d303641	0.04302049
69	0x3d0ac4e4	0.033879176
70	0x3d1d7809	0.038444553
71	0x3dc378de	0.09544538
72	0x3d7f7f69	0.062377367
73	0x3d7177b6	0.058952056
74	0xbd4c5bee	-0.04989236
75	0xbd2c6a2a	-0.042093433
76	0xbcf63ab3	-0.030057287
77	0x3d80d03a	0.06289716
78	0x3dc1c11d	0.094606616
79	0x3cbe1d31	0.023207279
80	0x3d7de380	0.06198454
81	0x3cc60017	0.024169965
82	0x3d4bd469	0.049763117
83	0x3c21b0ac	0.009868782
84	0xbd0aeec3	-0.033919107
85	0x3d7639f6	0.06011387
86	0xbcdf11f4	-0.02723024
87	0x3d1f8cf8	0.038952798
88	0xbce2ba6d	-0.027676785
89	0xbc05bde3	-0.008162948
90	0x3c340de1	0.010989637
91	0x3d1e2f33	0.03861923
92	0x3d417c76	0.047237836
93	0x3cda01a4	0.02661211
94	0x3d81c192	0.06335749
95	0xbc8cf26c	-0.01720544
96	0x3d8fc5e3	0.07020166
97	0x3d6a17e5	0.057151694
98	0xbc70d20b	-0.014698516
99	0x3d777397	0.06041297
100	0x3d3ecbf1	0.046581212
101	0x3cc28232	0.023743723
102	0x3ccb7759	0.024837183
103	0xbcc3d82b	-0.023906788
104	0xbbfbdaf8	-0.007686015
105	0x3d0284c9	0.031864915
106	0x3c9baa90	0.019002229
107	0x3d5879be	0.052850477
108	0xbdfb4b1a	-0.12270184
109	0x3d3c5e4b	0.045988362
110	0xbd7e98d6	-0.062157474
111	0x3d3d4fc2	0.04621864
112	0x3d826c3b	0.063682996
113	0x3d4a6cfa	0.049420334
114	0xbd20f216	-0.03929337
115	0x3c9ba1d2	0.01899806
116	0x3da880b5	0.08227674
117	0xbc01efa4	-0.00793067
118	0x3c9c82ba	0.019105304
119	0xbdb49da9	-0.08819134
120	0x3d2b942f	0.041889366
121	0x3cd20bf6	0.025640469
122	0x3de40152	0.11133064
123	0xbc222be9	-0.009898164
124	0x3c799891	0.015234129
125	0x3e11136a	0.14167562
126	0x3c792a50	0.015207842
127	0xbd8caae4	-0.06868532
