models/ss/na3_uc.pt (torch_old, 938238 bytes, 69 tensors)

encoder.0.weight f4 [128, 4]
000000 47 cd 13 3c a6 1e b2 3d d3 2a b6 bd ad 0c a3 be
       0.00902111 0.08697252 -0.08894887 -0.31845608
000010 b6 23 d1 3a 63 f6 d9 3c 45 45 54 3e 9b c6 1b 3e
       0.0015956077 0.026606744 0.20729549 0.1521248
000020 cc 86 e2 bd 7a 69 27 3e 9b 45 93 3c 08 59 c6 bc
       -0.11060867 0.1634883 0.017977526 -0.024212375
000030 23 2f 9a 3d 32 e0 36 be 74 b9 8c be 9f cd 69 bc
       0.07528522 -0.17858961 -0.2748524 -0.014270215
000040 9c 58 69 be 43 95 0d be a8 c8 aa bd ae 4f a9 bc
       -0.22787708 -0.1382647 -0.083390534 -0.020667877
000050 99 88 1c be d6 cd 54 be f9 a0 b3 3c 94 fa cb bc
       -0.15286483 -0.20781645 0.021927344 -0.024899758
000060 6c 47 1e 3d 55 89 50 bd 01 52 68 be 03 9e 48 be
       0.038642332 -0.05091222 -0.22687532 -0.19591527
000070 0e 82 e0 bd 9c 3e bc bc bc 9b ef bd cc f9 b6 3d
       -0.10962306 -0.022979073 -0.11699626 0.08934364
000080 e3 6e 1d 3e 15 00 7a 3d af 10 1c 3e 7c cd 02 be
       0.15374331 0.061035234 0.1524074 -0.12773699
000090 30 3f a6 be 67 67 32 3e d4 4e a6 bd 99 65 8e bc
       -0.32470083 0.17422257 -0.08120504 -0.01738243
0000a0 88 3a 96 3d 62 34 4a 3d 4c de 21 be a3 80 82 bd
       0.07335383 0.049366362 -0.15807456 -0.06372192
0000b0 fc 4a 09 3e fc cf 6b be 8c 59 e5 3d a6 ec 62 be
       0.1340751 -0.23028558 0.1119872 -0.22160587
0000c0 32 2e 87 3d 41 13 4f bd d4 8e 91 bd 54 1e 98 3e
       0.06600608 -0.05055547 -0.071073204 0.2971064
0000d0 18 3b 17 be 80 2c 52 3d 02 ba 8f 3d d1 a3 46 3d
       -0.14768636 0.05131197 0.070179 0.04849607
0000e0 29 3a af bd a8 a7 54 bd e3 d5 fd 3c a4 53 02 3e
       -0.08556015 -0.051917702 0.030985778 0.12727219
0000f0 ac 82 23 3d 8a 65 1a 3e bd c7 4e bd c3 be c6 bc
       0.03991954 0.15077797 -0.050483454 -0.024260884
000100 d4 e9 44 be c5 31 15 be 29 b0 86 3d cf 89 0d 3d
       -0.19229823 -0.14569767 0.06576569 0.034555253
000110 14 29 cb bd d7 4b 10 39 a2 16 10 be f9 3c b6 3d
       -0.099199444 0.00013761163 -0.14071134 0.08898348
000120 79 eb 0a be 63 4d 15 be b3 06 9b 3d e2 60 77 3c
       -0.13566388 -0.14580302 0.07569637 0.015098782
000130 5e 5e ef bd 5a b6 da bd 2d c5 ff bd 66 1e 79 bd
       -0.11687921 -0.10679312 -0.1248878 -0.060820006
000140 b9 db f9 3c 6d 4f 1a 3d b6 02 34 3e ee 24 33 3d
       0.03050028 0.037673403 0.17579159 0.04373639
000150 9c 74 21 be bf d0 66 3d 14 fb 62 bd f3 19 a9 3b
       -0.15767139 0.05635142 -0.055415228 0.005160564
000160 c4 05 02 be 67 40 28 be 0c 93 85 bd 03 1a 76 3d
       -0.12697512 -0.16430818 -0.065221876 0.0600834
000170 74 ef 85 3d e4 9b fb bd d6 34 0d 3e bd f6 37 be
       0.06539813 -0.12285593 0.13789687 -0.17965217
000180 b3 9a 01 3c f8 85 9a bc 72 b2 08 be e7 96 a2 3d
       0.007910418 -0.01886271 -0.13349321 0.079389386
000190 b7 00 fc bd 5a 6f 77 bc 65 2a 48 3d 54 c6 22 bd
       -0.12304824 -0.015102232 0.048868556 -0.03973992
0001a0 5e b0 d6 bd d8 77 ec 3d 78 5e 3c bd 3e 8c 92 be
       -0.10482858 0.11546296 -0.04598853 -0.2862262
0001b0 8c f9 9f 3d 03 bf 08 3e 7f 2a 16 bd 2c 95 97 3a
       0.07811269 0.13354115 -0.03666162 0.0011564842
0001c0 94 40 bf 3d 54 41 96 3e 08 df 63 bd 97 a3 14 be
       0.09338489 0.29346716 -0.05563262 -0.1451553
0001d0 e5 63 0b bd 95 7f f1 bc 51 0f de 3b 0c b4 45 be
       -0.034030814 -0.029479781 0.006776728 -0.19306964
0001e0 dd 53 67 bc 9c fc 45 3e da 96 a1 3c 20 b0 61 3d
       -0.014119116 0.19334644 0.019725252 0.055099607
0001f0 e0 56 33 3e c7 b5 72 bd 97 a3 8d 3d 78 07 01 3e
       0.17513609 -0.059255388 0.06915968 0.12600505
000200 34 3b a9 bd 69 0a b5 bd 57 c6 3c 3e 53 b2 87 3d
       -0.08263245 -0.08839876 0.18435036 0.066258095
000210 03 22 8c 3c 9e 9f 7e bb ca e4 1f 3e 05 98 63 be
       0.017106062 -0.0038852463 0.1561462 -0.2222596
000220 e7 09 2c bb 62 ef 39 3d 62 6f c1 3d 63 54 07 3e
       -0.002625102 0.04539431 0.09445073 0.13215785
000230 4e 25 75 3e f2 19 67 3d c2 46 f6 3c b4 c7 aa 3c
       0.23940012 0.056421228 0.030063037 0.020847179
000240 5c 58 ef 3b 42 cb a9 bd e8 1d f8 bc 74 d3 96 bd
       0.0073042344 -0.082907215 -0.030287698 -0.0736455
000250 3e f7 2f bc 3c 80 10 3e ac dd cf 3d 4e 4f e0 bd
       -0.0107400995 0.14111418 0.101497024 -0.10952626
000260 1f c6 1d be ae aa 8e bc 9f eb b1 bd c9 c2 0a 3d
       -0.15407608 -0.01741537 -0.08687519 0.033877168
000270 cc cb 51 3d ab 75 8c be ce ca a6 bd 34 16 d1 3c
       0.051219746 -0.27433524 -0.08144151 0.025523283
000280 f2 ee 2c bd 37 99 d8 bc 4b 39 b0 3d e6 10 17 be
       -0.042220064 -0.026440246 0.08604678 -0.1475254
000290 c1 eb a2 bd 6e e4 2b 3e 2e 81 10 3e 99 dc 2e 3e
       -0.07955123 0.16786358 0.14111778 0.17076339
0002a0 08 44 29 bc 41 67 00 3d 48 d6 bb 3d 90 6a 05 3e
       -0.010331161 0.03134847 0.0917173 0.13028932
0002b0 49 3e b0 3c fb 9e 10 bd b2 50 b8 3d 9c dd 12 be
       0.021514075 -0.035307866 0.089997664 -0.1434235
0002c0 0d bb b9 bc 75 e6 fc 3d 6e c7 89 3e 4e 07 23 3e
       -0.0226722 0.12348644 0.26909965 0.15920755
0002d0 40 cc 92 3d d9 81 ca 3d 3e 0e 4a 3d 7e 0e 4c bd
       0.07167864 0.09888048 0.04932999 -0.04981851
0002e0 94 04 a4 ba e8 e0 d0 bc 19 1e 15 3e a4 d3 65 be
       -0.0012513571 -0.025497869 0.14562263 -0.22444016
0002f0 65 a0 c9 bd 92 6e 34 3e 5b d5 7c be 3c 35 05 3e
       -0.09845046 0.17620304 -0.24690764 0.13008589
000300 c6 d2 25 3b bb 82 4f 3c d4 66 08 3e 43 9a 2f be
       0.0025302633 0.012665446 0.13320476 -0.1714869
000310 a3 8f 84 bd 3e 23 8b 3d 52 8e 4a bd 98 be 0b 3e
       -0.06472709 0.06793831 -0.049452133 0.13646924
000320 94 0e a2 3c a7 f5 87 3d e7 c6 6e 3d 57 e0 70 bc
       0.019782342 0.06638651 0.058295157 -0.014701924
000330 71 fb 9e 3d aa 9e db 3a 79 cc 46 3e fc b0 be bc
       0.077628024 0.001675566 0.19413938 -0.023277752
000340 50 c9 02 be 71 cc 51 bd 5a 8d 03 bc d1 7c 32 bd
       -0.12772107 -0.05122036 -0.008029306 -0.043576065
000350 17 c2 3f be 0b f2 87 3d 06 92 56 bc b1 17 f4 3c
       -0.18726383 0.06637963 -0.013096338 0.029796453
000360 9a e1 ba 3d 2c 51 90 be 2b b1 3b 3d 67 77 40 3d
       0.09125061 -0.2818693 0.045823257 0.04698887
000370 d8 ee ed 3d 53 e0 a3 3c 21 cb 80 3e 8a 71 bc 3c
       0.116178215 0.020004427 0.25154975 0.023003358
000380 a3 4d 1d bd 3d f5 40 3d f5 f2 7a be 5b 5d 1e 3e
       -0.03840412 0.047108877 -0.24506743 0.154653
000390 7e 25 91 bd a9 ab 03 bd d1 33 64 be dc 69 77 bd
       -0.07087229 -0.03214613 -0.22285391 -0.06040369
0003a0 e8 22 cd 3c c6 96 71 bd 0f be c9 bd 01 8c 24 be
       0.025041059 -0.05898168 -0.09850704 -0.16069032
0003b0 3c d5 03 be ad 9c 2d 3d 85 26 21 be a1 f9 63 3d
       -0.12874311 0.042385746 -0.1573735 0.055657987
0003c0 5f 05 9f 3d e2 e4 34 bc 24 cb 09 be 4f 7f 99 bd
       0.07764696 -0.011040898 -0.13456398 -0.07494985
0003d0 24 68 24 bd 60 f6 f6 3c 39 2f 1b 3e 6f ad 48 3c
       -0.04013838 0.030146778 0.15154733 0.012248381
0003e0 b2 70 31 be 94 71 37 b9 a1 11 98 bc be fb 4c 3c
       -0.17328146 -0.00017494551 -0.018563094 0.012511192
0003f0 10 90 03 3c a7 e4 0e 3e 1f 02 f4 3c 88 87 b5 bd
       0.008029953 0.13954411 0.029786168 -0.08863741

encoder.0.bias f4 [128]
000000 fc 20 6c 3c 07 de ad 3d 99 3c 02 3e 44 2c 62 3d
       0.014412161 0.08489614 0.12718429 0.055217996
000010 c3 60 76 3d de 48 cb 3d bf 09 76 3d 0c ec 6c 3d
       0.060150873 0.09926008 0.06006789 0.0578423
000020 6b 52 1a 3d 95 99 a9 3d f1 e9 d5 3d 23 65 5d 3d
       0.037676256 0.082812466 0.104450114 0.05405153
000030 42 61 81 3d a3 c4 b0 3b 01 0a 13 3e 01 4d e5 3d
       0.063173786 0.0053945347 0.14359285 0.11196328
000040 1a f5 8f 3d a6 2b 58 3d ef 77 dd 3d cf 7c 8b bb
       0.07029171 0.052776 0.10813891 -0.0042568217
000050 bb 69 33 3d 93 8e a8 3d 30 17 d1 3d 26 db d6 3c
       0.043802004 0.08230319 0.10209501 0.026227545
000060 0c f7 0a 3e 51 c5 c2 3d e0 b3 af 3d 86 44 af 3d
       0.13570803 0.09510291 0.0857923 0.08557992
000070 f2 ba 13 3d 1e f1 c5 3d db d8 ca 3d f3 d9 8b 3d
       0.036066957 0.0966513 0.09904643 0.0682868
000080 6c 85 1a 3d dc b2 c1 3d 00 3f 24 3e 47 ce ab 3d
       0.037724897 0.09457943 0.16039658 0.08388954
000090 89 a0 e1 3d 8b bf dc 3d f1 91 7c 3d f2 f3 ae 3d
       0.11016948 0.107787214 0.061662618 0.085426226
0000a0 62 f3 ec 3d 24 50 ac 3d d4 cd e4 3d 4f 97 b8 3d
       0.11569859 0.08413723 0.11172071 0.09013235
0000b0 c4 3f 6b bb ce 6c 99 3d 21 2e 11 3e 0d b6 a8 3d
       -0.0035896162 0.07491456 0.14177753 0.082378484
0000c0 56 4c b0 3d d7 08 f2 3d f2 3c c7 3d e8 1c 09 3e
       0.0860831 0.11818092 0.09728421 0.13389933
0000d0 3a 77 c1 3d 0c d9 c3 3d e9 66 cf 3d 45 9a a0 3d
       0.09446569 0.09562883 0.101270504 0.078419246
0000e0 0c 88 07 3e d9 13 1c 3e 0f df e2 3d 1e f0 8f 3d
       0.13235492 0.15241946 0.11077701 0.070282206
0000f0 b4 43 0a 3e 96 7f 81 3c 90 22 d2 3d 3f 33 04 3e
       0.13502389 0.015807908 0.102604985 0.12910174
000100 99 39 8a 3c 20 8d bf 3d 53 81 3b 3d 04 1e 5f 3d
       0.016873168 0.09353089 0.04577763 0.054471985
000110 9c ea d8 3d 98 c7 0d 3e d9 38 9a 3d 51 04 c2 3d
       0.10591623 0.1384567 0.07530374 0.094734795
000120 6b 21 34 3d 7a 9c 2e 3c b9 f8 23 3d 06 c2 ad 3d
       0.043977182 0.010657424 0.040032122 0.08484273
000130 5f 77 d2 3d 78 92 7e bd 6b 2e 9c 3d 01 6f 33 3d
       0.102766745 -0.062151402 0.07626041 0.043807033
000140 ec e5 76 3d 0e 00 c4 3d 14 67 ca 3d 62 10 5a 3d
       0.060277864 0.09570323 0.09882942 0.05323828
000150 e4 15 42 3c 56 62 b7 3d 81 27 26 3d 74 74 a7 3c
       0.011846039 0.08954303 0.040565018 0.020441271
000160 0d d3 e5 3d 2f 0a 17 3e 73 26 dd bb 89 0e a3 3d
       0.11221895 0.14749978 -0.0067489683 0.07961757
000170 e7 fe bb 3d 71 3b cd 3c 13 a7 24 3e aa 91 92 3d
       0.09179478 0.025052758 0.16079359 0.071566895
000180 5b 45 fa 3d 7e dc 8a 3c 28 d2 f3 3d dc 91 9c 3d
       0.1222026 0.016950842 0.119053185 0.07645008
000190 28 1e e7 3d ce 0b 00 3d 46 4d b7 3d 94 0a 97 3d
       0.11285049 0.031261258 0.089502856 0.073750645
0001a0 a0 59 aa 3d 3b 45 29 3c 10 71 08 3e 84 82 11 3e
       0.08317876 0.010331447 0.1332438 0.14209944
0001b0 b1 1d eb bc 40 ce 88 3d c5 23 da 3d 72 d9 21 3e
       -0.028700681 0.06679964 0.10651354 0.15805605
0001c0 44 8e bd 3d 51 aa 5d 3d bc 82 f5 3d 4e 15 cd 3d
       0.09255651 0.054117505 0.11987826 0.10013829
0001d0 fb 6f 72 3b a1 df d5 3d 9e f2 b6 3d 09 dc 00 3e
       0.0036993015 0.104430445 0.08932994 0.12583937
0001e0 9e 14 73 3d b8 e4 e1 3d 7b 13 f3 3d da 9d a7 3d
       0.059345834 0.11029953 0.1186895 0.08184405
0001f0 9b 88 d9 3d c7 be 85 3d 9c ce d8 3d 7a b6 a1 3d
       0.106217586 0.065305285 0.105862826 0.07896133

messages.W_query f4 [1, 128, 128]
000000 c9 6b 01 bd 4b f6 a6 3c 76 70 e5 3c 8b 47 de 3c
       -0.031596933 0.020381114 0.028007727 0.027133724
000010 21 27 3a be 9a 46 63 3b cc 1f 2c 3e 2a 69 a5 bc
       -0.18178989 0.0034679533 0.16809005 -0.020191748
000020 9e b1 1b 3d fe a2 f4 bc 27 4b ab bd c0 0f 56 3e
       0.038011186 -0.029862877 -0.083639435 0.20904446
000030 66 dd c5 bd e5 99 12 be 64 80 87 3d f5 a3 1e 3e
       -0.09661369 -0.14316519 0.066162854 0.15492232
000040 55 ae 36 bc b7 e6 94 3d 8f 22 30 bd 95 4d 2b 3d
       -0.011149962 0.07270568 -0.043001708 0.041822035
000050 d1 61 3b bd e3 2f 10 be ff 72 18 3e e3 58 c9 3d
       -0.045747582 -0.14080767 0.14887618 0.09831407
000060 e6 1a 90 3d 95 22 11 be e5 f8 fc 3c 80 a2 6c 3d
       0.070363805 -0.14173348 0.0308804 0.05777216
000070 a0 d1 97 bc 45 a1 09 3c ac a6 ab bc eb 0d 7f 3d
       -0.018532574 0.008400266 -0.020953499 0.062269133
000080 12 b2 62 bd e2 fc 33 3d 14 83 cb 3d 99 47 41 3d
       -0.055345602 0.04394234 0.099371105 0.04718742
000090 51 f2 84 bd 82 4c aa bd b9 28 c7 bd 20 24 05 bd
       -0.06491531 -0.08315374 -0.09724564 -0.032505155
0000a0 32 8e 59 3d f2 77 82 3d c9 d5 00 3c 34 f3 84 3d
       0.053114124 0.06370534 0.00786347 0.064917
0000b0 71 25 02 bd 8a 04 a2 bd 79 36 74 3d 87 29 8f 3d
       -0.03177399 -0.07911022 0.05962226 0.069903426
0000c0 52 53 dc 3c 8f da cd bc c6 3a 2a bd 3a 04 3f be
       0.026895199 -0.02512863 -0.041559957 -0.18653956
0000d0 37 83 8f bd 7f 39 d8 3d ae 6f cb bc 0f a5 9a bc
       -0.07007449 0.105578415 -0.024833526 -0.018877534
0000e0 5d 52 2f bb 31 ff 95 3d 7d f5 7a bd 9e cf fc 3d
       -0.0026751973 0.073240645 -0.061269272 0.12344287
0000f0 85 79 09 bd 4e 5d 00 be dc 2e e5 3d 4e 1b 77 bd
       -0.033563156 -0.12535593 0.11190578 -0.060328774
000100 84 a6 e1 3c af 58 f1 3d c1 9b 9e 3c a4 4d b5 bd
       0.027545221 0.11784493 0.019361379 -0.088526994
000110 d8 d8 97 3d 8d 36 e2 3c 82 ad 54 3c ea 88 11 3e
       0.074144065 0.027613902 0.012980821 0.14212385
000120 d3 85 5f 3d bb 2e 53 3d 0e cf da 3d b3 38 eb 3d
       0.054570984 0.051558238 0.10684024 0.11485424
000130 07 36 79 bd f3 6b 50 bd 8b 8a 17 3e 0d 74 b1 bd
       -0.06084254 -0.0508842 0.14798944 -0.08664713
000140 4f ff e9 3c ea fa 45 be ab 7f 22 bd d4 17 da 3d
       0.028564123 -0.19333997 -0.039672535 0.10649076
000150 1f c8 81 bd 18 a9 19 3e b6 72 87 bc ce c7 f8 bd
       -0.06336998 0.1500591 -0.01653419 -0.12147485
000160 82 c7 cb bd ff 5f b8 3b bf 8b 82 bc 87 e0 43 3d
       -0.099501625 0.005626678 -0.015935777 0.047821548
000170 93 a0 23 3e 37 83 f6 3d ea 2b e1 3d 55 94 4c bd
       0.15979223 0.12036746 0.10994704 -0.049946148
000180 e8 5c 20 3c fc 8e f0 bd 82 70 1a bc e6 35 0d bc
       0.009787776 -0.11746022 -0.009426238 -0.008618807
000190 48 23 0d 3d da 80 4d b9 73 ce 54 3d 82 6a 99 3d
       0.034457475 -0.00019598324 0.051954698 0.07491018
0001a0 91 d3 e8 bb a0 6e 6d 3d 76 99 06 be 3d b9 b0 3d
       -0.007105299 0.05796683 -0.13144478 0.086290814
0001b0 56 94 99 3c 95 7d 09 3d bc 3b 18 bd 54 bf 91 3d
       0.01874749 0.03356703 -0.037166342 0.07116571
0001c0 3e 39 03 be a0 f0 24 3d c5 05 19 3d 0f 07 95 bd
       -0.12814805 0.04026854 0.037359018 -0.07276737
0001d0 3f 57 a0 3c 8e 05 96 3d ca a9 01 be dc 63 37 3c
       0.019572852 0.07325278 -0.12662426 0.011193242
0001e0 94 28 87 bd 90 b9 10 bd 77 dc e1 bd b8 43 a7 bd
       -0.065995365 -0.035333216 -0.110283785 -0.08167213
0001f0 41 ee 48 bb 3c 5a 1d 3d dd e0 d8 3d a7 2b 13 be
       -0.0030659589 0.038416132 0.10589764 -0.14372121
000200 8f 15 f1 3d 12 0d 75 3d 8e da 93 3d 07 11 31 bc
       0.1177169 0.059826918 0.072194204 -0.010807282
000210 84 31 b5 3d 26 3d d1 bb aa 5d 0f 3d 06 09 cd 3c
       0.08847335 -0.0063854633 0.035001434 0.025028717
000220 c6 a9 eb bd 2b 2a 9a 3d 7f ac 89 3d c5 2b fb bd
       -0.11506991 0.07527574 0.06722354 -0.12264208
000230 53 0c f7 3d c8 ea b0 3c 3b f2 ab bd b0 dd cc 3b
       0.120628975 0.021596327 -0.08395811 0.006252013
000240 50 3d 8a 3d 60 f4 13 be 40 0f 22 be 2e 86 87 3d
       0.06749976 -0.1444869 -0.1582613 0.066173896
000250 a8 31 10 bd d2 9d 4b bc 27 ff 66 3b 69 d3 00 bd
       -0.035203606 -0.012427764 0.0035247297 -0.031451616
000260 59 89 3c 3d 35 d7 da 3d 7f 60 be 3d 9a 34 a0 3c
       0.046029422 0.10685579 0.09295749 0.019556332
000270 37 64 3a bd 0b 58 8b bd 9e 8b 0b bd 84 b9 d5 bd
       -0.04550573 -0.06803902 -0.034068696 -0.10435775
000280 7a 1e 2c 3d e1 11 17 3d d9 9d f8 bc b2 e3 34 bd
       0.042021252 0.036882285 -0.030348705 -0.04416246
000290 95 9b 53 3c d6 c8 23 3d 56 88 3b bd a9 0d 04 3e
       0.012915512 0.039986454 -0.045784317 0.12895836
0002a0 1a 2c f8 3c 51 ec 13 bd c5 7b 03 bc 3c 55 da ba
       0.030294467 -0.03611404 -0.008025114 -0.0016657482
0002b0 5b c6 9f bc 79 56 77 3d 8d f0 8c bd 5b c6 cf bd
       -0.019503763 0.0603852 -0.06881819 -0.10145255
0002c0 9b 64 0c 3d 11 d9 c1 bd 20 ea c5 bc 06 8f 8a 3d
       0.034275632 -0.0946523 -0.024159491 0.06765561
0002d0 25 53 76 bd ed 50 76 3b 86 ad 83 bd 5e 7b 77 3d
       -0.060137887 0.0037584857 -0.06429581 0.060420386
0002e0 6e 04 a9 3d 58 ac df bd 0d 1a 85 bc 75 99 40 3c
       0.08252798 -0.10921544 -0.016247774 0.011755337
0002f0 6c 3c 1e 3d 28 39 ce 3d 69 eb f9 bc cd 41 fd 3c
       0.03863184 0.100694954 -0.03050776 0.030915165
000300 12 f3 47 3d 61 e5 e8 3b 2a a8 80 3c 9b c7 39 3d
       0.048815794 0.007107422 0.015705187 0.045356374
000310 82 10 66 3d 72 29 1f 3d bb a9 04 bd 8c 5a 25 bc
       0.056168087 0.038857885 -0.03238843 -0.010092389
000320 55 b6 22 bb 95 a1 0c 3c 28 5f 1f 3d a8 22 c8 bd
       -0.0024827917 0.008583446 0.038909107 -0.09772235
000330 3c c8 ad bc 41 e9 42 3d 85 f2 be bc 1e 16 1d 3b
       -0.021213643 0.04758573 -0.023309002 0.0023969482
000340 5e a6 59 3d 80 72 9b 3c b8 25 dd 3a 7a 6b fe bc
       0.053137176 0.018975496 0.0016872203 -0.031057108
000350 aa 49 2b 39 ef 3a 80 bd 0d d2 d2 3c 46 3b 16 bd
       0.00016335273 -0.06261241 0.025734926 -0.03667762
000360 c0 5e 01 3c 47 8a da bd 4c 13 a3 bc d6 e6 4c bd
       0.007896125 -0.106709056 -0.019906662 -0.05002483
000370 fa 32 03 bd 11 a7 0d 3c 6f c3 50 bc 36 b6 16 3c
       -0.032031037 0.008645789 -0.0127419075 0.009198716
000380 62 37 97 bd 96 89 e7 3c a6 72 2c 3c bc 05 35 bc
       -0.0738361 0.028263848 0.010525381 -0.01104873
000390 48 f9 69 bd 35 22 86 3d 6d a5 94 3d 94 0d 8e bc
       -0.0571225 0.06549493 0.07258115 -0.017340459
0003a0 d1 f5 8c bd 58 d8 92 3d f0 60 1c 3d 27 2c 0d 3b
       -0.06882823 0.071701705 0.038178384 0.002154121
0003b0 3a 74 98 3d 34 4e c7 3d 4f bd 52 3d 11 c9 19 bd
       0.074440435 0.09731713 0.05145007 -0.037545267
0003c0 06 bb fd bc a4 2c 94 3d c0 24 23 3a 07 e9 dc 3c
       -0.030972969 0.07235077 0.0006223433 0.026966585
0003d0 95 32 79 3d 58 4a b3 bd ff 6b 9d bd 33 aa af bd
       0.060839254 -0.08754414 -0.07686614 -0.08577385
0003e0 f4 3f 17 3c f2 eb 6d 3b 10 78 97 bd 85 7a a4 bd
       0.009231556 0.0036303964 -0.07395947 -0.08031181
0003f0 48 75 64 bc 5f 8b cc 3d 3e b5 24 3b 03 3d 12 bd
       -0.013943978 0.099875204 0.0025132443 -0.035702717

messages.W_key f4 [1, 128, 128]
000000 83 10 d0 3c fd 79 03 be 34 c8 3f bd 34 6e 12 3d
       0.025398498 -0.12839504 -0.046821788 0.03574963
000010 e5 93 a0 3d 7b 9b 77 bd 2d 00 2d 3d 38 f4 74 3d
       0.07840709 -0.060451012 0.042236496 0.059803218
000020 b3 d6 ab bc d6 55 a0 3d c6 90 c0 bd f9 ca 8e bd
       -0.0209764 0.07828872 -0.09402613 -0.06972308
000030 c2 85 b1 bc 3d 71 97 3d 58 b4 2a 3d 7f 0a 3c 3c
       -0.021670226 0.07394645 0.041675895 0.011477112
000040 4c 63 10 3d 0a c7 5f 3d 6b 37 dc bd 7b c8 bc 3c
       0.035250947 0.054633178 -0.10752758 0.023044815
000050 3d f0 7f bd d3 17 5c 3c d8 28 c8 bd b5 84 1b 3c
       -0.06248497 0.0134334145 -0.09773415 0.009492089
000060 54 9e 4b bd d8 7f 86 3d 58 b7 8d 3c 97 e0 3a bc
       -0.04971154 0.06567353 0.01729934 -0.011406085
000070 84 d2 3f bd 4a 57 a0 bd 33 1f a5 bb 35 18 89 3a
       -0.046831623 -0.07829149 -0.0050391196 0.0010459485
000080 3f 1b 9d 3d f3 34 2b 3d ea 6a 86 bd eb 9f 50 3d
       0.076712124 0.041798543 -0.06563361 0.05093376
000090 6c e4 fb bc 58 5f 0d bd fb 4d ab bd 99 16 52 bc
       -0.030748568 -0.034514755 -0.08364483 -0.0128227705
0000a0 54 dd e2 bd 3c 81 08 3e 8c 82 bf bd d1 b3 b0 bd
       -0.11077371 0.13330549 -0.09351072 -0.08628047
0000b0 ea 26 02 3e 5a cb bc 3d fc 06 c4 bd 33 b2 af bd
       0.12710157 0.09218474 -0.09571645 -0.08578911
0000c0 ae 21 b7 bd 57 f8 b4 3d 2f 22 57 bc 30 2f 8d 3d
       -0.08941971 0.088364296 -0.013130709 0.06893766
0000d0 2c 46 50 bd c7 61 39 3e 65 84 d4 3d c0 d8 62 3c
       -0.05084817 0.18103705 0.10376815 0.013845623
0000e0 34 7d 97 bd 8a 79 69 bd 33 4c d0 3d 52 2d 43 bd
       -0.073969275 -0.057000674 0.10170784 -0.047650643
0000f0 11 70 db 3b 4b 54 9c bd 0b 81 66 bd 9f 70 52 bd
       0.006696709 -0.07633265 -0.05627541 -0.051376935
000100 30 c8 33 be 5d b9 e7 3d 26 82 27 3c 66 6a d7 bd
       -0.17556834 0.11314652 0.010223901 -0.10518341
000110 b5 45 18 3e 61 01 c6 3c bf 0a f1 bc 21 ea df 3d
       0.14870341 0.02417058 -0.02942407 0.109333284
000120 08 da 95 bd 41 d4 d9 3c f6 fb 77 bd 3f 23 de 3c
       -0.07316977 0.026590468 -0.060543023 0.027116416
000130 31 1c f0 3d d1 4b 22 3d 2a cf d6 bd a1 d3 0d be
       0.11724127 0.039623085 -0.10488732 -0.13850261
000140 1c 24 58 bd ba 99 ca bd 4d 64 1f b9 6a 02 21 bc
       -0.05276881 -0.09892602 -0.00015200787 -0.009827236
000150 c8 97 a2 3d 99 78 77 3d e3 37 b5 bc 43 81 88 bd
       0.07939106 0.060417745 -0.022121375 -0.0666528
000160 31 91 3d bb 30 87 b2 3d 6c 0d 99 bc 3f b1 e5 bd
       -0.0028925652 0.08717191 -0.018683158 -0.11215448
000170 3b 0e da bd 50 56 73 bd 08 2a 6b 3d 7a 72 78 bd
       -0.106472455 -0.059408486 0.05741313 -0.06065605
000180 cd 7e 1e bd d4 01 5f bc e5 08 b6 bd b0 73 df 3d
       -0.038695145 -0.013611276 -0.08888415 0.109107375
000190 a5 08 02 be b9 06 0f bd 0d e5 c0 bc e8 17 d2 3a
       -0.1269861 -0.03491852 -0.02354672 0.0016028853
0001a0 43 58 ae bd 66 ee 01 3d 94 92 e5 bb f4 5b b8 bb
       -0.08512928 0.031721495 -0.007005999 -0.005626196
0001b0 e0 96 46 bd 97 98 cd 3c 36 06 b2 bd b3 bf 79 bd
       -0.04848373 0.025097175 -0.08692591 -0.060973834
0001c0 64 c4 3d 3d 34 75 99 bd 42 c2 d7 3c fc c7 c2 bd
       0.04632987 -0.07493058 0.026337747 -0.095108
0001d0 f5 4e 4b bc e6 d7 5a bd 7d 96 92 bc 0d 67 d6 bd
       -0.012408962 -0.053428553 -0.017894024 -0.10468874
0001e0 24 d2 36 3d a6 25 c3 bd c2 a3 f2 bd 7c 3b d1 bd
       0.044634 -0.09528665 -0.118476406 -0.10216424
0001f0 44 12 33 be b9 18 55 b9 39 95 22 3b dc fb 93 bd
       -0.17487437 -0.00020322473 0.0024808182 -0.07225773
000200 4e 66 c5 bd 49 d4 da bd 9c da 4e 3a ac 9b 7a 3d
       -0.09638654 -0.106850214 0.00078908517 0.061183617
000210 1b 49 b3 3d 8d 50 b8 3d 23 ef ba 3d fc 05 96 3c
       0.08754178 0.08999739 0.09127643 0.0183134
000220 19 aa a1 bb 8f 48 0d be 0a 52 8e bd 06 2f db 3d
       -0.0049336073 -0.1379721 -0.069492415 0.107023284
000230 5a f9 bd bd 81 58 3f 3d 38 21 61 3d c0 8e a2 3d
       -0.09276076 0.046715263 0.05496332 0.07937384
000240 6e da 17 3c df 97 b2 bd fc 00 01 3d ac df 33 3c
       0.009268386 -0.08720373 0.03149508 0.0109786205
000250 c6 ed 98 3c fc 83 be 3c 74 b6 b6 3d 20 3e 04 3d
       0.018668067 0.023256294 0.08921519 0.03228581
000260 75 98 5d 3c 12 87 be bc db f8 1a 3d 41 7f 25 3d
       0.013525118 -0.023257766 0.037834983 0.040404562
000270 63 38 3b 3d 0b 2b 40 3c 74 2c 97 bc 61 3b 65 3d
       0.04570807 0.011729012 -0.018453814 0.05596483
000280 3f d4 0c be 4f bf 30 3c d4 96 47 3d 35 86 96 3d
       -0.1375284 0.010787799 0.048727825 0.07349817
000290 1e af ea 3d 42 7b 92 3d ad 9d 57 3c 67 50 79 bb
       0.11459182 0.07152416 0.013160151 -0.0038042308
0002a0 a8 60 88 bd 28 60 83 bd 35 bf 08 bd f3 a5 a5 bd
       -0.06659061 -0.06414825 -0.033385474 -0.08088293
0002b0 90 c7 30 bd a2 5b 80 bd 42 cf cf bc 9c a0 86 3d
       -0.043159068 -0.062674776 -0.025367383 0.065736026
0002c0 9d 17 9f bd 01 b2 88 bb 2e 06 35 bd 58 b2 c2 bd
       -0.07768176 -0.0041716103 -0.044195347 -0.095066726
0002d0 98 23 58 bb 28 82 07 be ba 45 91 bc ef b0 1b 3d
       -0.00329802 -0.13233244 -0.017733444 0.038010534
0002e0 1d 37 b2 bc 38 60 33 bb 8e 80 00 bd 7f 3b 4b 3d
       -0.021754796 -0.0027370583 -0.0313726 0.049617287
0002f0 ea 31 9f bd 91 7e f6 bb 16 9d ca 3c b3 84 da bd
       -0.07773192 -0.007522412 0.024733108 -0.106698416
000300 08 2b 86 3d ab e0 5b bd 45 26 07 3a 1d 86 db bb
       0.06551176 -0.053681057 0.0005155544 -0.006699337
000310 35 1a 8d bb e3 7f 8e ba 15 68 c3 bd ea 26 68 3d
       -0.0043061026 -0.0010871853 -0.095413364 0.056677736
000320 71 56 37 3d fd 32 29 bc 0d 6b aa 3d 63 45 ba 3d
       0.04476017 -0.010327098 0.083211996 0.09095266
000330 d4 10 63 bc 31 36 07 be 35 73 fa bc 9b e4 3e bd
       -0.013858993 -0.13204266 -0.030572513 -0.046604734
000340 a5 72 1e bd 70 5d ee bd a9 68 3e 3d 17 f3 97 3d
       -0.038683552 -0.116389155 0.04648653 0.074194126
000350 31 08 37 3d a3 1b 3e bd 63 b3 91 bd f9 ad 8a bc
       0.044685546 -0.046413075 -0.071142934 -0.01692866
000360 84 9f a2 3c 89 c1 72 3d 3a 7a 0e 3c ce f4 ab 3c
       0.019851454 0.0592666 0.008696133 0.020990755
000370 1a 3c 24 3d 98 d8 3f 3d fa d4 cc 3c b1 4b 9a bd
       0.04009638 0.04683742 0.025003899 -0.07533968
000380 02 65 d8 39 55 6e 79 3c fb 86 ae bd c2 97 52 bd
       0.00041273987 0.015224059 -0.08521839 -0.05141426
000390 d4 9f 80 3d 0e 6c b3 bc 8d 21 96 bd fa 0b ee 3c
       0.06280485 -0.02190211 -0.07330618 0.029058445
0003a0 2e c3 1a bc 21 35 f9 bb 91 78 74 3c ff 48 5b bd
       -0.0094459485 -0.0076052104 0.014921323 -0.05353641
0003b0 17 a1 7b bc 66 52 1f bd af e3 f3 bc cb f5 b9 bd
       -0.015358231 -0.03889694 -0.029771654 -0.090800844
0003c0 da c4 94 bd c5 c2 10 3e 13 6a f4 bc 14 0d a9 bd
       -0.07264109 0.14136799 -0.029835736 -0.082544476
0003d0 56 a6 c8 ba 63 7d 5a bd 7e b2 e1 bd c2 b6 73 3d
       -0.0015308361 -0.053342234 -0.11020373 0.059500463
0003e0 4e 59 f4 bd 08 c3 22 3d 5e 2c 58 bc e9 91 26 bc
       -0.11931096 0.039736778 -0.013194172 -0.010166624
0003f0 ae 5b d9 3d ea 4c 7a bc 7c 1a a1 bd d1 ae bb bc
       0.1061319 -0.015277127 -0.078663796 -0.022910507

messages.W_val f4 [1, 128, 128]
000000 77 59 cf 3d 55 e3 b9 3d 69 dc 01 bd 1b c6 dd bd
       0.10124486 0.09076563 -0.03170434 -0.10828801
000010 4f d8 76 3c b3 8a 4c bd 55 b3 c0 3c 33 77 21 bb
       0.01506622 -0.04993696 0.023523012 -0.0024637699
000020 f2 b0 c3 3d 9d b2 be 3d b7 4d 3a 3b ff 0d f0 bc
       0.09555234 0.093114115 0.002842767 -0.029303549
000030 d6 9a 07 3d 42 ca 8d 3d cd 2a d9 3d 2c 6a c5 3d
       0.033106647 0.06923343 0.10603867 0.09639391
000040 d6 ab 5a bd f1 94 34 bc 44 25 3f bd b6 a6 97 bb
       -0.05338653 -0.0110218385 -0.0466664 -0.004628028
000050 84 28 80 3d 84 bc a8 3b 16 23 57 bd 04 14 f3 3d
       0.06257728 0.005149426 -0.052523695 0.11869052
000060 4a 66 2f bd 0a 6d 92 bd 91 16 27 3e 7a 87 50 3b
       -0.04282216 -0.07149704 0.16317202 0.0031819032
000070 b1 85 d7 3d 18 cf 80 3c 19 18 73 3c 1d 06 ae 3d
       0.105235465 0.01572375 0.014837288 0.0849726
000080 6b 9a b9 ba 4d 73 e4 3c 5a a8 15 bd d0 ed b9 bd
       -0.00141604 0.027887011 -0.036537506 -0.09078562
000090 76 37 56 bc 50 59 c4 3d 99 3a 98 bc cf 70 83 bd
       -0.013074746 0.095873475 -0.018582629 -0.06418001
0000a0 1a e5 95 bd ac d5 5f 3c 18 90 b0 bd 03 39 89 3d
       -0.07319088 0.013661783 -0.08621234 0.06700327
0000b0 c5 26 39 3d a8 36 90 bc 04 87 4d 3d bd 29 db 3c
       0.04520299 -0.017604187 0.05017759 0.0267533
0000c0 28 f1 88 3c f5 1e 41 3d 49 ec ba bd ad 20 73 bc
       0.016716555 0.047148664 -0.09127099 -0.0148393335
0000d0 4e 2f 9f bd 54 9b 98 3d bf e1 eb bc 17 24 df 3c
       -0.077726945 0.074515015 -0.028794168 0.027238889
0000e0 29 df 8b 3d 72 8b a4 bd 68 db 33 bd 4f 0b cc 3c
       0.06829674 -0.080344096 -0.043910414 0.024907736
0000f0 e6 c0 2d bd b2 49 fe bb e0 e1 60 3d 96 56 bf 3d
       -0.04242029 -0.00776025 0.05490291 0.09342687
000100 26 65 77 3c dd 0a ec bd 27 c3 5d 3d ad 2f f8 3d
       0.015099799 -0.115255095 0.05414119 0.121184684
000110 9b 06 17 bd 00 5d dd bc d8 e3 f8 bb db 49 4d 3d
       -0.036871534 -0.027021885 -0.0075955205 0.050119262
000120 a7 97 23 bd 7c 08 89 bc 9c 13 d8 3c d1 a9 6d bd
       -0.03993955 -0.016727678 0.026376538 -0.058023278
000130 81 d2 91 bc 61 51 a6 bd e3 f0 42 bd 6b 3e 06 bd
       -0.017800571 -0.081209905 -0.04759301 -0.03277437
000140 a0 74 01 be b3 e9 d6 bd 8e 65 d7 3c 18 ba 99 bd
       -0.12642145 -0.10493793 0.026293542 -0.07506198
000150 ca a6 ac 3d b3 82 84 3c ae 6f 06 bb a1 3f de bc
       0.0843025 0.016175603 -0.0020513344 -0.02712995
000160 be c5 0d bc 33 6f 75 bc 4f a2 84 bd 03 15 07 bc
       -0.008653102 -0.014980125 -0.064762704 -0.008244756
000170 2a a4 9f bd 1e bb 59 3d 3a fb 0e 3d 31 22 2a 3d
       -0.07794984 0.053156964 0.034907557 0.041536514
000180 b0 6b 3c bc d3 4d 90 bd 11 f4 36 3d 73 21 60 bb
       -0.011500284 -0.07046094 0.044666354 -0.0034199625
000190 2d 6b 3e 3d d2 ac 6f 3d d7 57 96 3d 6b 3a ce bd
       0.04648893 0.058514424 0.07340973 -0.10069736
0001a0 35 91 16 bb c3 99 0f 3e 74 f1 9f bd a1 72 ee 3b
       -0.0022974734 0.14023499 -0.078097254 0.0072768484
0001b0 88 55 38 bd 03 36 1e 3d 5f dc bf 3d db 32 d7 3c
       -0.045003444 0.03862573 0.09368204 0.026269367
0001c0 7d 72 a1 bd 41 4c 30 bd 2c 49 dc bb 67 c1 74 bc
       -0.07883165 -0.04304147 -0.00672259 -0.014938689
0001d0 a3 1f ab 3d b1 71 1b be 38 4e d6 3b 86 49 16 bc
       0.083556436 -0.15180089 0.006540086 -0.009172803
0001e0 87 3c 25 bd de 3b 47 bd 7c d9 de 3c 54 ce a7 3d
       -0.040340926 -0.04864108 0.027203314 0.08193651
0001f0 ea 39 21 bd d0 5a 8a 3c b4 03 a2 bd 51 19 da 3c
       -0.03936187 0.016889006 -0.079108626 0.0266234
000200 24 a0 4f bd 6e 53 36 3d 28 d7 1d ba f4 68 cb bc
       -0.05068983 0.04451316 -0.00060211355 -0.024830319
000210 94 17 11 bb 7f 74 f4 bd 92 a6 f8 3c 96 10 0b bd
       -0.0022139298 -0.11936282 0.030352864 -0.033951364
000220 e5 b7 87 bd 3b c2 85 bd a4 3c c8 3b 78 ba 51 bc
       -0.06626872 -0.06531187 0.0061107446 -0.012800805
000230 32 36 3a bd b3 3d 3d 3d 7e 6f 4b 3d 91 61 0c 3d
       -0.04546184 0.04620142 0.049666874 0.034272734
000240 0b 41 68 3d 47 f4 9f bc 9d 65 7a 3b b6 87 89 3d
       0.056702655 -0.01952566 0.003820754 0.06715338
000250 2d f2 b4 3d 3d ca 48 3d c8 9f c7 bd 9c 90 9c bc
       0.08835254 0.049020994 -0.09747273 -0.019111924
000260 96 2f 1e bb 7d 20 e1 bd 59 29 5b 3d d3 ab 8c bd
       -0.002413725 -0.10992525 0.05350623 -0.0686871
000270 8f ea ac 3d 39 9c fe bc 8f 64 40 3d 4d cd 0e 3d
       0.08443176 -0.031080352 0.0469709 0.03486376
000280 8a d3 2c bd e8 6b ed 3d db 98 c5 3c 7d 36 d4 3c
       -0.042193927 0.11592847 0.024120739 0.025904888
000290 dc a4 6b 3d dd 4e ad 3d 0a 37 55 bd 98 a2 99 bc
       0.05753027 0.084623076 -0.052054442 -0.018754289
0002a0 72 34 91 bd ae 9b c2 bd c4 1b fe 3b 1c ec fc 3c
       -0.07090081 -0.0950235 0.0077547748 0.030874304
0002b0 89 5e e0 bc 8c 2e 62 3c 04 5a 8a bd be fd 3a bd
       -0.027388828 0.013805043 -0.0675545 -0.045652144
0002c0 ee fd b1 bd a3 4e f6 3c 03 92 59 3d ec ae 15 3d
       -0.08691011 0.030066794 0.053117763 0.03654377
0002d0 7f 77 9d bd 98 ae d8 bb 8c 2d b4 3d eb 57 89 bd
       -0.07688808 -0.00661261 0.0879775 -0.06706222
0002e0 4f 6e 43 3c f4 73 a0 bd 05 e2 cd 3b 3c 6c 85 bd
       0.011928155 -0.07834616 0.006283047 -0.06514785
0002f0 4b 48 23 3d 81 95 84 3c f7 8f cd bd 9e de ff bc
       0.039863866 0.01618457 -0.10037225 -0.031234082
000300 c9 02 d6 3c 28 f5 5b bd ca 8b 9b bd ee 00 59 bd
       0.026124375 -0.053700596 -0.07595022 -0.052979402
000310 9d 6c dd 3d 4d 92 f7 bd 6e d5 6e bd a0 2b 70 bd
       0.10811732 -0.120884515 -0.05830901 -0.058635354
000320 67 d9 6f 3d 1b d8 1f 3d 8b 9c c5 bd aa 26 54 3d
       0.05855694 0.039024454 -0.09648999 0.051794685
000330 b7 d7 84 3c 09 2e ca bd c2 11 44 3d 26 8e 5f ba
       0.016216142 -0.09872062 0.047868498 -0.00085279567
000340 9a ff 5c bd 1e eb c1 bd 3f cb be bd 26 2a c8 3d
       -0.0539547 -0.09468673 -0.0931611 0.09773664
000350 0f ae c3 3d 0e 4a 9a 3d 30 0c b3 bd ac fd 8e 3d
       0.095546834 0.07533656 -0.08742559 0.06981978
000360 6c dd 4b 3c f8 ad 97 3d dc ab 51 bd 0a 8a 02 bd
       0.012442928 0.07406229 -0.05118929 -0.031869926
000370 2a 5f 5d 3d fe 5e 96 bd ae 5e 90 bd 54 db c6 bc
       0.054045834 -0.07342337 -0.07049309 -0.024274506
000380 7d ce 59 bc 80 25 3c bb 5f 80 07 bd 7f 10 31 3d
       -0.01329386 -0.0028708875 -0.03308141 0.043228623
000390 49 58 3d 3d cd 2d a0 3d ea ee a5 3d ce ee b3 3d
       0.046226773 0.07821236 0.0810221 0.08785783
0003a0 8d 79 23 bd 6c c4 89 bd a1 58 0d bd 53 bd 6d bd
       -0.03991084 -0.067269176 -0.03450835 -0.05804188
0003b0 e5 4c c5 bd b1 8b 5d 3a 0b 1e 8f 3d c9 99 5f bd
       -0.09633807 0.00084512966 0.06988152 -0.05459002
0003c0 e4 90 be 3d 1a 53 8e 3c 28 1e d6 3d 6b d2 34 3d
       0.093049794 0.01737361 0.104549706 0.044145983
0003d0 e8 17 83 bd 7c 2b a6 bb 07 eb 90 3d 68 5d e2 3d
       -0.06401044 -0.0050711017 0.07076078 0.11052972
0003e0 1c 37 49 3d 65 d3 69 3d 02 9f 43 3d 03 22 fc b8
       0.049124822 0.057086367 0.047759064 -0.000120226316
0003f0 e3 f2 b4 3d 92 ad 20 3d 9f 9e 1d bc 8f 89 49 bd
       0.088353895 0.03922803 -0.009620338 -0.04920345

messages.W_out f4 [1, 128, 128]
000000 7e fc f7 bc 31 1e c5 3d b2 19 d3 3d 2f 10 8d 3d
       -0.030271765 0.09624899 0.10307635 0.068878524
000010 2b 8c 00 ba 38 2a 79 3d 9c 7f a6 3c c5 f7 4d bd
       -0.0004903699 0.06083128 0.02032452 -0.05028512
000020 e7 77 76 bd ec 83 91 bd 84 67 bd 3d 0c 39 9a bc
       -0.06017294 -0.0710524 0.0924826 -0.01882603
000030 b9 4f 91 3d b5 cb 00 3d 77 d1 90 3b 5c a6 bb bd
       0.07095284 0.03144427 0.0044195014 -0.0916259
000040 61 51 90 bc 91 fe a9 3d 57 f4 88 3d e7 f8 da 3c
       -0.01761693 0.08300508 0.06687229 0.026730014
000050 1d 55 62 3d 92 7d 44 3d 3b 1b be 3c 3b b3 df 3c
       0.05525695 0.047971316 0.023206344 0.027307143
000060 f8 f7 17 3d 12 49 64 3d 41 c3 54 bd c7 4b ff bc
       0.037101716 0.055733748 -0.05194402 -0.031164063
000070 c4 be 9f bc f1 5a 4d 3c 29 06 79 bd 45 1b c1 bd
       -0.019500144 0.012533889 -0.06079689 -0.094290294
000080 6b 10 2f bc 74 cc 62 3c 0f f2 5f bd c1 01 50 bd
       -0.010685067 0.013842691 -0.054674204 -0.050782923
000090 03 74 dc bc 54 ce 4c 3c 85 91 76 bb 53 f3 0e bc
       -0.026910787 0.012500364 -0.0037623357 -0.008725005
0000a0 7e df a3 bd 20 d1 ee 3c 02 6b 87 3d ec 46 a2 3c
       -0.08001612 0.029152453 0.06612207 0.019809209
0000b0 0e 0a 9e 3c 21 63 3c 3c 5f 69 04 bd d3 8e 03 be
       0.019291904 0.011498244 -0.032327052 -0.12847452
0000c0 34 9a 68 bb b4 e1 42 3d 52 36 7b bd 6c 70 15 bd
       -0.0035492303 0.04757853 -0.0613311 -0.036484167
0000d0 50 4c 9b 3c 45 d1 92 bd b0 25 50 3c 7e 92 11 3d
       0.018957287 -0.07168821 0.012704298 0.035540096
0000e0 59 58 7c bd 21 00 5b bd 44 e3 66 bd 9c bc 83 bd
       -0.061607692 -0.05346692 -0.05636908 -0.06432459
0000f0 2b 69 a1 bd 71 5f 5d 3d 3e fc 4f 3d 45 cb 18 3d
       -0.07881387 0.0540461 0.050777666 0.037303228
000100 b6 db f0 bc f3 25 cd bd 7b 7d b9 bd 15 cf 58 bd
       -0.029401641 -0.10017004 -0.090571366 -0.052931864
000110 6f 2e 54 bd 6f f7 4b 3d 3b 36 87 3d af 8c a3 3b
       -0.051802095 0.049796518 0.066021405 0.004991136
000120 2d 8a 64 3c 8a 9c c6 3c ec b8 c7 bd 7f 93 67 bc
       0.013948959 0.024244566 -0.09752068 -0.014134287
000130 8e 1e d9 bc 62 45 e1 3d d0 14 30 3d 60 73 96 3d
       -0.026503827 0.10999562 0.0429886 0.07346225
000140 8e 61 89 3d 54 e2 8e 3d d6 93 38 bd 3a 6f 5c 3d
       0.0670806 0.069767624 -0.045062862 0.05381701
000150 ea ea a2 3c 27 c1 96 3d 9f 08 1f 3d c4 b5 b3 bd
       0.019887406 0.0736106 0.03882658 -0.087749034
000160 94 e0 c2 3b 62 8e de 3d 91 49 42 bd a9 36 f4 bc
       0.005947182 0.10867001 -0.04743344 -0.02981122
000170 25 65 5c bd e7 55 13 3d d9 3f 46 bd b1 8a 48 3d
       -0.053807396 0.035970595 -0.048400734 0.04896039
000180 54 05 b1 bc 99 16 5f 3d 74 90 f4 bc c7 b7 4f bd
       -0.021608986 0.05446491 -0.029854037 -0.050712373
000190 0a 12 8e 3d 52 8b 95 3b 0d 7b 2c bd 48 2b d0 bd
       0.069370344 0.0045637274 -0.042109538 -0.10164505
0001a0 88 65 05 3d e9 f6 a9 3d 68 1c 35 3c 03 f0 e1 bc
       0.03256753 0.082990475 0.011054136 -0.027580267
0001b0 b8 47 8f bd a6 86 a1 3d 0e b7 6e bc b5 5b ea 3d
       -0.06996101 0.0788701 -0.014570011 0.11443273
0001c0 d5 6e c0 3d fe 49 d1 3d f0 d3 a0 3c 2e 7b 66 bc
       0.093961395 0.10219191 0.01963231 -0.014067454
0001d0 1d 54 f1 3b 93 22 8e bd 16 d6 fc bd 59 a5 78 3d
       0.0073647634 -0.06940188 -0.12345521 0.060704563
0001e0 1f 18 db 3c d9 35 8e bd f3 98 20 3d 39 83 b4 bd
       0.0267449 -0.069438644 0.039208364 -0.08814091
0001f0 92 e4 97 3d 91 93 e1 bd 15 63 b8 3b 26 9c 2e bc
       0.07416643 -0.11014474 0.005627046 -0.010657346
000200 94 d7 06 be 75 7f b6 bd a2 c2 94 bd 77 61 76 bd
       -0.13168174 -0.08911029 -0.07263686 -0.060151543
000210 34 26 78 bd 58 33 c5 3c 32 39 9f 3d 11 ac 93 3c
       -0.06058331 0.024072334 0.07774581 0.018026384
000220 55 26 13 3d b5 65 c0 bb 82 25 29 bd 26 c1 86 3d
       0.03592523 -0.0058714994 -0.041295536 0.06579809
000230 45 33 a8 3d 84 88 d0 bc 22 7d 88 3d 80 76 ab bc
       0.08212904 -0.02545572 0.06664492 -0.020930529
000240 bd b0 4f 3b 8d 19 9e bd 03 38 2b bd 7f 4d d8 bc
       0.0031691038 -0.07719717 -0.041801464 -0.02640414
000250 c4 6b 78 3d 92 53 af 3d 1b da d7 3d 78 27 09 3d
       0.06064965 0.08560862 0.10539647 0.033484906
000260 98 a4 4b bd 8f f4 be bc 22 fd 8a 3a 15 85 19 3d
       -0.049717516 -0.023309974 0.0010604004 0.037480433
000270 29 55 34 3d f2 cf 5e bd 91 ec 11 be 01 d1 cc 3d
       0.044026528 -0.05439753 -0.14250399 0.10000802
000280 48 ba e3 3c 05 cb 5e bc bc 9b 12 bd e4 8d 8c bd
       0.027798787 -0.013598208 -0.03579305 -0.06863001
000290 9a 69 97 bd b2 09 00 bd 5a 40 95 bc ca 73 2b bc
       -0.07393189 -0.031259246 -0.018219162 -0.010464618
0002a0 1f ab 18 bd 50 f4 b3 bd 57 62 02 3d d9 ef d8 3b
       -0.03727257 -0.08786833 0.031832065 0.006620389
0002b0 6b af ac 3d 3f 44 95 bd ca 33 92 bd 9c 5e 94 3c
       0.08431896 -0.072884075 -0.07138784 0.01811152
0002c0 bf 86 a0 bd 0f b9 c0 bd 4d 3f 17 bd 0d 58 8d 3d
       -0.07838201 -0.09410297 -0.036925603 0.0690156
0002d0 40 74 58 bd 25 8a 96 3c 48 e9 0e bc df 2e fb 3c
       -0.05284524 0.01837642 -0.008722611 0.030661998
0002e0 a8 16 a4 bd 5f 42 4c 3d 42 00 59 bd e0 c7 c9 3c
       -0.08012134 0.049867984 -0.05297876 0.02463144
0002f0 28 11 b8 bc 9a 9d e2 bc ff ce b7 bd 16 4e a0 bd
       -0.022469118 -0.02766304 -0.08975028 -0.07827394
000300 8a d1 5b bd e6 a4 bf 3c 86 f9 bd 3d e9 1b 9c 3c
       -0.05366663 0.02339406 0.092761084 0.019056277
000310 26 3b 6a 3d 3f e9 2d 3d 7a 1f c3 bc 98 20 bf 3d
       0.057185315 0.04245877 -0.02381872 0.09332389
000320 9c 53 da bd 03 a2 e7 bd e6 4d a1 3c 83 a8 7b bd
       -0.106604785 -0.11310198 0.019690465 -0.061440002
000330 49 cf e5 bd 33 7b 39 bd 48 71 9a 3d 9c 34 a6 3d
       -0.11221177 -0.045283508 0.07541138 0.08115503
000340 d5 36 03 bd 6d f9 4d 3d 9d f4 18 bc b6 31 6c 3d
       -0.032034714 0.0502867 -0.009335664 0.057664596
000350 03 2a b8 3c 98 6c 48 3d 55 6b 9b 3b 54 de 0d 3c
       0.02248097 0.048931688 0.0047430196 0.008658964
000360 75 56 a9 bd 94 0c e2 3a 7d 37 a9 3d c1 be 9a bd
       -0.082684435 0.001724618 0.08262537 -0.07555915
000370 da f9 40 3d 26 45 a0 bc f2 0a 69 3d 5e 5c 76 ba
       0.047113277 -0.019564223 0.056895204 -0.0009397919
000380 20 63 c5 bd ad 73 ae bd 6c b4 b2 bd 42 6a 87 3d
       -0.09638047 -0.08518157 -0.08725819 0.06612064
000390 45 ce 70 bd 13 38 84 3c 5e 2e ff 3d 8b 03 c1 bd
       -0.058790464 0.01614002 0.12460016 -0.09424504
0003a0 80 01 68 bd 14 28 2e 3c bd c3 fc bc fa 36 cb bc
       -0.056642056 0.010629673 -0.030855054 -0.024806488
0003b0 72 f3 88 3d 9b 50 9f bd ff be ad bd cc eb 97 bb
       0.066870585 -0.07779046 -0.08483695 -0.0046362635
0003c0 71 5b 1f 3d 43 72 8c bd 57 9d c3 bd 7e f8 b7 3c
       0.038905565 -0.06857731 -0.095514946 0.022457357
0003d0 1b b3 e3 bd 20 f1 b2 bd 4d 9a ff bd cb 94 a8 bd
       -0.11118146 -0.08737397 -0.124806024 -0.08231505
0003e0 cd 8a 6b 3c e7 d4 e6 bb 9b c7 5b 3d 33 8b 47 3c
       0.014376354 -0.007044423 0.053657155 0.012179184
0003f0 62 e4 45 3d 3d a8 aa 3d f4 03 ab bd 38 d5 8d 3d
       0.048313506 0.0833287 -0.083503634 0.06925434

update.0.weight f4 [128, 256]
000000 c8 f2 e5 bb 6d c4 85 bc 23 13 e5 3d 65 e8 b2 bb
       -0.007017467 -0.016329015 0.11185291 -0.0054598325
000010 e5 a9 f8 bc 43 6e dd ba 98 7e 8c bd 6e 7b 3d 3c
       -0.03035445 -0.0016893822 -0.06860083 0.011565072
000020 b0 7c 5f bd 2f 4b a4 bd e3 25 ef 3c 40 61 fb bd
       -0.05456227 -0.08022153 0.02919287 -0.12274408
000030 13 c7 ec 3d 52 13 21 3d 9b 04 29 3d cc b8 3b bd
       0.11561408 0.039325066 0.041264158 -0.045830533
000040 8e 70 19 be bb 91 f6 bd 6a d9 c7 bd 0a 67 a5 3d
       -0.14984342 -0.12039515 -0.09758265 0.08076294
000050 1e d8 2b 3b 2c 6e f3 3d dd 7a 54 3d cf 07 09 3e
       0.0026221345 0.11886248 0.051874984 0.13381885
000060 d3 f3 e4 3c 63 56 30 be f6 bc 82 3d 38 e8 87 bd
       0.027948296 -0.17220454 0.06383698 -0.06636089
000070 f2 9c 9f bd fc bd 08 3d bc ae 00 3d 50 cf 52 3c
       -0.07793607 0.03338431 0.03141664 0.01286681
000080 d3 18 d7 bd 7d 4c 31 3c a1 83 af 3d ef 31 29 3c
       -0.10502782 0.010821459 0.08570028 0.0103268465
000090 e8 d0 a0 bd 82 9e 18 bd 18 53 ce bc 28 ae 9e 3d
       -0.07852346 -0.03726054 -0.025186107 0.077480614
0000a0 34 b7 b9 bd 6c 05 72 3d 64 aa 15 3c b7 b1 98 3d
       -0.09068146 0.059087202 0.009134863 0.074557714
0000b0 c8 90 d1 3d ca d0 13 bc ec d4 d0 3c 4e a9 c8 bd
       0.10232693 -0.009021947 0.025492154 -0.09797917
0000c0 73 04 15 bd 58 f7 67 3c 26 ed e2 3d ba 81 71 3d
       -0.036381196 0.014158092 0.11080389 0.058961608
0000d0 95 a1 8c 3c ea fb b1 3c 41 c8 dd 3d 82 c8 16 3c
       0.017166892 0.021726567 0.10829211 0.009203078
0000e0 d6 7f 96 bd 53 53 31 3d 6b 30 54 3d 88 93 19 be
       -0.073486015 0.043292355 0.051803987 -0.14997685
0000f0 1b 9c 6c bc ab 3f d4 3c df 35 c4 3c bc dd 2e be
       -0.014441515 0.025909266 0.023951469 -0.17076772
000100 62 1c 89 3d b4 1e 48 bd 3d 9a 8d bd 5d 27 f3 bc
       0.06694867 -0.048857406 -0.06914184 -0.029681856
000110 0b 41 84 bd b3 5c 50 be 50 e3 9b 3d 38 1e 76 3d
       -0.064577185 -0.20347862 0.07611716 0.060087413
000120 eb 66 cd 3b 25 8e f1 3d 05 d3 1c be 74 72 bb bc
       0.0062683723 0.1179469 -0.15314873 -0.022881724
000130 27 06 86 bd 29 0b 28 bd 72 84 0c be 7b c2 4b bd
       -0.06544142 -0.04102627 -0.13722399 -0.049746018
000140 3a c0 b0 3d fb 5d 78 3d b3 0e 9c bd f0 6d dc bd
       0.08630414 0.0606365 -0.07619991 -0.107631564
000150 1e 7e 75 bd 0f 22 fd 3d 85 e4 88 bc d4 fc 43 3d
       -0.059934728 0.12360012 -0.01671053 0.047848538
000160 f4 fa 4c be 3e b4 7e be 4d 48 46 3d a5 92 e1 bc
       -0.20017606 -0.24873444 0.048408795 -0.027535746
000170 6d c8 20 be 7a f9 b1 bd de 3b 11 bd 05 d2 6e 3d
       -0.15701456 -0.08690162 -0.035457484 0.05830576
000180 a6 39 af bd ab 35 e0 bd 03 b1 a8 bd 56 a8 83 3d
       -0.085559174 -0.10947736 -0.08236887 0.06428592
000190 04 e5 16 bd 32 a0 9d bc 57 5d 2b bd ea 56 88 3d
       -0.0368395 -0.019241426 -0.041837063 0.066572025
0001a0 ce b1 52 bd 84 40 dc 3d 53 c0 49 bd d7 e0 a5 3d
       -0.0514391 0.10754493 -0.04925568 0.080995254
0001b0 b8 62 22 be 3c c4 8e 3d 67 f6 03 3e a6 11 80 3c
       -0.1585797 0.069710225 0.12886964 0.015633415
0001c0 0b 4d 71 3d 53 d1 9e 3c ed e3 43 3d 38 55 aa 3b
       0.058911365 0.019386923 0.04782479 0.005198147
0001d0 5a 3c f0 bc 44 c8 7b bd bb 50 de 3c 0e b4 e8 bd
       -0.029325653 -0.061470285 0.027138105 -0.11362468
0001e0 f2 36 ad 3d 48 28 19 bd 8b 5b ba 3d 00 c7 8e 3c
       0.084577456 -0.03739193 0.09099492 0.017428875
0001f0 7f f7 8a 3d e6 ba be bb 66 08 8f bd ad 22 06 bc
       0.067854874 -0.00582062 -0.06984024 -0.008186978
000200 cf a5 a4 bd ba 27 8c bc d8 a9 02 be 02 bc 45 bd
       -0.08039438 -0.017108787 -0.12760103 -0.048275
000210 ac ca 8b 3c 8b 8a 1a 3a f3 43 1f 3d 23 34 07 3c
       0.017064415 0.00058952783 0.03888316 0.008252176
000220 68 15 ff 3c d9 d3 96 bd 94 4d 3d 3d a2 78 38 3e
       0.031138137 -0.073646255 0.046216562 0.18014768
000230 f1 8c 0c 3d 76 d1 ed 3b ea a3 5e 3d 87 8a 36 bd
       0.0343141 0.0072576357 0.05435554 -0.044565704
000240 0d fc 84 3d 5a 77 22 3d 93 b4 d9 bc aa 55 24 bd
       0.06493387 0.039664604 -0.026575362 -0.040120758
000250 1f 14 dc 3d 37 35 78 3d db e7 f5 bd d6 02 da bd
       0.10746025 0.060597625 -0.120071135 -0.10645072
000260 a3 05 12 be db 96 e7 3c ed 24 04 be b2 a2 a4 3d
       -0.14259963 0.028270176 -0.12904711 0.08038844
000270 71 01 98 3c 6e b6 d4 bd 4a 54 f7 bd 7f 7b c2 bd
       0.018555375 -0.10386358 -0.12076624 -0.09496211
000280 24 40 17 bc e8 e1 ea 3b ec f7 c9 bc ad 60 3e 3d
       -0.009231601 0.0071680434 -0.024654351 0.046478916
000290 6b f6 99 3b 34 cf 72 bc aa 16 12 3d f1 d0 ad bd
       0.0046985648 -0.014819909 0.035666145 -0.08487118
0002a0 32 f5 20 bd e1 b3 89 3d e9 2a 24 3e a6 19 33 3c
       -0.039296336 0.06723762 0.16031994 0.010931408
0002b0 17 09 90 bd 3f 4e b7 bc 95 60 1a bb 8c 5f 5a 3d
       -0.07032984 -0.022376178 -0.0023556103 0.053313777
0002c0 65 f7 48 bd 13 09 4c 3c a7 92 38 3e fc 62 8c bd
       -0.04906406 0.012453335 0.18024693 -0.06854817
0002d0 fc b8 c2 3c c8 ef b2 bc 73 80 f9 bd ca f6 19 bc
       0.023769848 -0.021842852 -0.12182703 -0.009397218
0002e0 12 61 a3 bd a3 e0 aa 3c 44 6c 57 3d 1d 29 84 3d
       -0.07977499 0.020859068 0.052593485 0.06453154
0002f0 71 6c bb 3d 47 4b 9f bc d1 1e bb 3d 0e 5a 61 bd
       0.09151543 -0.019445075 0.09136737 -0.055017523
000300 b4 35 a7 3d 52 e1 d5 3c 94 1a 5f 3b 05 77 99 3d
       0.0816454 0.026108418 0.0034042941 0.07493404
000310 14 1f be bc 4f 85 b9 bc 94 b0 22 3d 3f e8 60 3d
       -0.023208179 -0.022646574 0.03971918 0.054908987
000320 79 4c a1 3d 26 1e 1c 3d f7 55 5b bd 9e ab 1f bd
       0.07875914 0.03811469 -0.05354878 -0.038982026
000330 c9 73 3d 3d 37 69 cb bc 18 9e 4d 3d ae 11 3d bd
       0.046253 -0.024830444 0.050199598 -0.04615944
000340 a9 3d 51 bd e0 69 f7 3b 34 cb 27 bd 62 75 9b 3d
       -0.051084194 0.007550463 -0.040965274 0.07590748
000350 4a 82 f2 bc 68 aa 5f bd 2d cb 86 bd 1d 83 2f be
       -0.029603142 -0.05460587 -0.065817215 -0.1713986
000360 6c 46 f4 3c 63 32 a5 bd 33 54 a3 bd 64 01 14 3e
       0.029818736 -0.08066251 -0.07975044 0.14453655
000370 f8 7e 61 bc 9f 07 b3 3d 2f 0a 88 3d e8 af ac bc
       -0.013763182 0.08741688 0.06642567 -0.021079972
000380 68 de 9a 3d 24 1e 59 bd fb d5 1f 3d f2 60 53 3a
       0.07561952 -0.05300726 0.039022427 0.0008063457
000390 02 e0 96 bd 9d d0 af 3d 64 9e c6 3c f6 d4 a6 3d
       -0.07366945 0.08584712 0.024245448 0.08146088
0003a0 5f 47 ce bb 0f e8 48 3c c1 7a 17 3e c4 86 c8 bc
       -0.006295129 0.012262358 0.1479292 -0.024478324
0003b0 34 ae 1f 3d 01 1a 03 be 4e 21 21 bd 8d a7 50 3d
       0.038984492 -0.12802888 -0.039338402 0.05094104
0003c0 a4 d2 af 3d 4f 5d c2 bd 86 6d c6 3b 0d 9a 24 bd
       0.085850984 -0.094904535 0.0060555367 -0.040185977
0003d0 f7 0a e5 3d 32 8b 42 bd 22 c2 19 3c 33 16 07 3b
       0.11183732 -0.04749603 0.009384664 0.0020612597
0003e0 8c b4 10 3e 1a ab 60 bd ce 88 85 bd 4c ad 10 bd
       0.14131373 -0.054850675 -0.06520234 -0.03532152
0003f0 59 2c 4a bc 0e 14 55 bd 2d cf a4 bd 1d c2 14 3e
       -0.012339675 -0.05202108 -0.08047328 0.14527173

update.0.bias f4 [128]
000000 0d da 26 3d 02 67 2c 3d 9e 7a 82 3d 9c 5f f8 bc
       0.040735293 0.042090423 0.063710436 -0.030319028
000010 ff a7 73 bc 23 44 39 3d a8 2a 58 bd 2d 80 db bb
       -0.014871596 0.045230996 -0.052775055 -0.0066986294
000020 89 d5 79 bc 65 cb 2f 3a ac ba 95 3b 02 b1 35 bb
       -0.015248665 0.00067060284 0.004569372 -0.0027723913
000030 40 4a 7a bc b3 88 ea 3c ea 34 12 bc 3b c9 36 3c
       -0.015276492 0.028629636 -0.0089237485 0.0111563755
000040 36 16 ad ba 08 de 74 3d 28 d9 14 3d e7 ed aa bb
       -0.0013205472 0.059782058 0.03633991 -0.0052163485
000050 1f 43 15 bc 5c 25 f0 3c 4b ff 06 3d 96 0d 2d 3d
       -0.009110241 0.02931469 0.03295831 0.042249285
000060 93 a7 96 ba 43 de 50 3d c6 95 19 3d 1f f5 9c bc
       -0.0011494033 0.050993215 0.03749635 -0.019159852
000070 83 f3 d4 ba 30 66 a1 bc 22 82 3f 3d 50 d7 6b 3d
       -0.0016246889 -0.019702047 0.046754964 0.057578385
000080 b1 c6 39 3d 0f 2d 3e bc af 3b bb b9 5f 88 b5 3d
       0.045355503 -0.0116074225 -0.00035711887 0.08863901
000090 bb 5a 7b 3d 9c 23 9b 3d 0f ef c9 3c 9c 12 59 bb
       0.061365824 0.07575151 0.024650125 -0.0033122664
0000a0 a1 af 24 3b 3f 27 ba 3d 7b 5b 38 3d f6 ad 1d 3d
       0.0025129097 0.09089517 0.045009118 0.03849598
0000b0 76 d7 69 3c 7d 21 cf bc fb 72 df ba c7 c1 b2 bc
       0.014272561 -0.025284523 -0.0017047817 -0.021820916
0000c0 3d 28 8f 3d f1 d0 f1 3c 7a ce 1d 3d df c7 04 3d
       0.06990097 0.029518576 0.03852699 0.032417174
0000d0 92 dd 42 3d a3 22 b4 3c ff 56 38 bc 8e bc ba 3c
       0.047574587 0.021989172 -0.01125121 0.022794988
0000e0 65 a5 77 3d 40 d0 e7 bb 91 8c 3f 3d c6 26 28 3d
       0.060460467 -0.007074386 0.046764914 0.041052602
0000f0 f9 87 ec 3c 00 c6 8e bb c5 82 00 bb 13 d3 1d bd
       0.02887343 -0.0043570995 -0.0019609195 -0.038531374
000100 3a 52 ec 3c 15 4d 91 bd f6 b4 26 3d 65 f9 37 3b
       0.028847802 -0.0709478 0.04069992 0.0028072235
000110 08 90 33 3d c6 86 46 3d 7f a9 6c 3d 61 72 e9 3c
       0.04383853 0.048468374 0.05777883 0.028496923
000120 e1 52 b2 3c ae 96 0f 3d 5c 56 95 bc be fd 47 3c
       0.021768035 0.03505581 -0.018229656 0.012206493
000130 d6 c4 f1 bb 8e f7 72 3d 61 9b 01 3d 1d c7 e7 3b
       -0.007378201 0.059318118 0.03164232 0.0070732967
000140 3c 1d 04 3d 9a d3 a6 3c b1 91 35 3d f9 d8 6a 3c
       0.032254443 0.020364571 0.044328395 0.014333957
000150 c0 03 a0 bc 50 2b 5e 3d 05 5a 7c bc e5 63 0c 3d
       -0.019533038 0.054240525 -0.015402322 0.034274954
000160 4d e8 73 bb 14 e3 de bb 30 09 fc 3b 58 37 37 3d
       -0.003721732 -0.006801972 0.007691525 0.044730514
000170 47 b2 05 3d 6d 38 a6 3b ce d7 d1 3c b7 6d cf bc
       0.03264072 0.0050726444 0.025615599 -0.02532087
000180 fc 9e 35 3d 3e d6 d3 3c 55 3a f8 3c cf 65 19 3d
       0.044341072 0.025858995 0.030301252 0.037450608
000190 bf cc 6f 3d b3 0b 9b bb 75 80 a1 3c 41 cd d9 3b
       0.05854487 -0.0047316193 0.019714573 0.0066467826
0001a0 8c ce d6 3b 9c 1d 47 3d f8 fe 1d 3c e5 e3 82 3d
       0.006555384 0.048612222 0.009643309 0.06391124
0001b0 c7 76 02 be bb f2 80 3c 8f 48 2a bd 75 2f d8 3b
       -0.12740622 0.015740743 -0.041573104 0.006597454
0001c0 4d e8 26 3d 44 ad a2 3c 50 f4 e5 bc d8 72 0c 3d
       0.040748883 0.01985801 -0.028070599 0.03428921
0001d0 c3 44 8c 3d 5f 0d 8a bc f6 55 8e 3a 43 4a af bd
       0.06849053 -0.016852079 0.0010859359 -0.08559086
0001e0 3c 17 07 3d b3 02 e9 3c c5 00 85 3d f5 5e 1b bc
       0.032981142 0.02844367 0.064942874 -0.009483089
0001f0 02 93 1a 3c fe 70 92 3d 5f 60 c1 3c 60 e6 89 bd
       0.009434463 0.07150458 0.023605524 -0.06733394
