models/ss/na5_uc.pt (torch_old, 945940 bytes, 115 tensors)

encoder.0.weight f4 [128, 4]
000000 10 f9 f3 b9 79 12 63 3d c5 22 e8 bd c0 65 b5 be
       -0.00046534138 0.05543754 -0.11334757 -0.35429192
000010 d0 3d 52 bc a0 e4 0d 3d dd 43 67 3e 7c e9 07 3e
       -0.01283212 0.034641862 0.22584482 0.13272661
000020 79 71 d1 bd 6a c6 10 3e dd bf d5 3a 4d 3e b4 bc
       -0.10226721 0.14138189 0.001630779 -0.022002364
000030 61 6b a4 3d 9b 28 34 be b2 98 96 be 15 f0 bd 3b
       0.080282934 -0.17593615 -0.29413372 0.0057964423
000040 9b ac 5a be 71 56 ce bd 84 33 be bd 2c 76 51 bb
       -0.21354906 -0.10075081 -0.092871696 -0.0031961305
000050 1a 9a 1e be 89 05 3a be 03 b6 95 ba a0 da b7 bc
       -0.15488473 -0.18166174 -0.0011422042 -0.022443116
000060 f1 88 40 3d 88 6b 47 bd b5 54 5c be 8b b6 68 be
       0.047005598 -0.048686534 -0.21516688 -0.22725885
000070 50 57 da bd 6f 04 09 bd 57 1b ff bd 8f 5e fa 3d
       -0.10661185 -0.033451494 -0.124563865 0.12225067
000080 41 59 dc 3d cd 64 6b 3d aa 5c 36 3e ea f5 03 be
       0.10759211 0.057469178 0.17808786 -0.12886778
000090 e4 9a a0 be 3f cc 36 3e 52 51 ae bd f5 31 99 bc
       -0.31368172 0.17851351 -0.08511604 -0.01870058
0000a0 4b 1d 6f 3d ab a9 71 3d 9b 54 19 be 38 3b 37 bd
       0.058377545 0.0589997 -0.1497368 -0.04473421
0000b0 a1 a8 03 3e 33 05 6a be f7 32 bf 3d b4 67 64 be
       0.12857296 -0.22853546 0.09335893 -0.22305185
0000c0 9a e3 0f 3d 32 8f 5b bd 87 85 77 bd 69 08 a7 3e
       0.035129167 -0.05360336 -0.060430076 0.32623604
0000d0 77 8c 23 be bd 6e 5b 3d 5a ea 8a 3d df e6 c7 3c
       -0.15971552 0.053572405 0.0678298 0.02440208
0000e0 0e 1a bd bd 22 ce 95 bd 34 eb 47 3c e2 e9 13 3e
       -0.09233485 -0.07314707 0.012202073 0.14444688
0000f0 9a fc e0 3c 75 46 f2 3d df 31 51 bd 62 73 ca bc
       0.0274642 0.11829845 -0.05107295 -0.024713222
000100 cc 49 25 be 91 46 fb bd 85 bc 4b 3d 5a f6 fd 3c
       -0.16141433 -0.12269319 0.049740333 0.031001259
000110 9f cf a4 bd aa d9 6b bb 9f b9 35 be 99 3e b6 3d
       -0.08047413 -0.0035987892 -0.1774659 0.08898658
000120 e7 21 dd bd 1f 87 07 be b4 91 80 3d 16 9b 15 3c
       -0.10797482 -0.13235138 0.06277791 0.009131214
000130 ac 4f e9 bd 62 aa 83 bd 9b 51 1a be df cb b1 bd
       -0.11392149 -0.06428982 -0.15070193 -0.086814635
000140 ac 90 b5 3c 65 9a 44 3c 7d 09 57 3e 84 8c 2b 3d
       0.022163711 0.011999701 0.20999713 0.041882053
000150 71 40 05 be 57 48 63 3d a2 8b a1 bd 78 11 11 3c
       -0.13012864 0.05548891 -0.07887961 0.0088542625
000160 f7 e7 df bd 7a b3 f8 bd 7e b0 ad bd 85 df 53 3d
       -0.10932916 -0.121436074 -0.08480929 0.051726837
000170 3f e9 00 3d b4 be e4 bd 75 20 05 3e ca 9e 6e be
       0.03147244 -0.11169186 0.13000663 -0.2330276
000180 fb b6 1f 3c 1e 55 73 bc 5d b3 17 be ba 16 8f 3d
       0.009748216 -0.0148518365 -0.14814515 0.069867566
000190 ce 26 02 be 3e f5 54 bc 5e 61 55 3d 21 2d 14 bd
       -0.12710115 -0.012997923 0.05209481 -0.03617585
0001a0 c9 a5 a7 bd 4e 7f d5 3d 4f 35 5e bd 03 33 91 be
       -0.08185918 0.10424672 -0.054250058 -0.2835923
0001b0 55 f1 25 3d 58 1f 09 3e 45 f1 18 bd e9 f4 9d ba
       0.040513355 0.13390863 -0.037339468 -0.0012051138
0001c0 09 f7 c8 3d cb 2e 8f 3e cd e3 a0 bd e3 38 24 be
       0.09812743 0.27965388 -0.078559496 -0.16037326
0001d0 71 ee d0 bc 3b 22 77 bc 37 4a 44 ba 9b 10 41 be
       -0.025504323 -0.015083845 -0.00074878655 -0.1885399
0001e0 d5 11 e9 bc dd fd 3e 3e 35 61 06 3d cf a3 67 3d
       -0.028450886 0.18651529 0.032807548 0.056552704
0001f0 e7 7d 3c 3e 9c da 7b bd b6 2a 8f 3d b0 4d e1 3d
       0.18407403 -0.06148778 0.06990568 0.11001146
000200 51 66 8b bd 7d df b8 bd 85 21 4a 3e fb 60 94 3d
       -0.06806625 -0.09027002 0.19739349 0.0724506
000210 c8 04 86 bb b5 b7 02 bc 66 f1 26 3e 06 8f 7c be
       -0.0040899254 -0.0079783695 0.16303024 -0.24663934
000220 c4 d4 25 bc 8a 89 ee 3c d3 e1 ab 3d df 13 11 3e
       -0.010121528 0.029118318 0.08392682 0.14167736
000230 ee 74 64 3e 09 b6 25 3d c4 8a 53 3d a9 5d 94 3c
       0.2231023 0.040456805 0.05164601 0.018111067
000240 3d 6e 8d 3c 85 82 8a bd e4 d2 09 bd 0e 20 ab bd
       0.01726448 -0.06763176 -0.033648387 -0.08355723
000250 a4 15 4e bc f3 32 fe 3d 2a b2 d4 3d f1 d6 da bd
       -0.012578402 0.124120615 0.103855446 -0.10685528
000260 da e8 0b be 85 60 9d ba e7 e2 e0 bd ed 1b 52 3d
       -0.13663045 -0.0012006914 -0.10980778 0.051296163
000270 30 f7 5a 3d 71 da 87 be 76 45 c7 bd d3 72 76 3c
       0.053458393 -0.26533845 -0.097300455 0.015042025
000280 7c 58 e6 bc 66 63 cb bc fe 2f 82 3d ac ce 0f be
       -0.028118365 -0.02482767 0.0635681 -0.14043683
000290 4e 46 bf bd 0e 4c 19 3e 20 8c 17 3e b3 d8 38 3e
       -0.093395814 0.14970419 0.14799547 0.18051414
0002a0 93 c4 65 bc 6c bd 6f 3c 97 13 c3 3d 43 17 07 3e
       -0.014023918 0.014632564 0.09525221 0.13192467
0002b0 2c 1d 9f 3c d1 9e e3 bc fd 90 b8 3d 12 75 14 be
       0.01942309 -0.02778569 0.09012029 -0.14497784
0002c0 af 6f ac bb f6 af f8 3d 02 1a aa 3e b1 bb 1a 3e
       -0.005262337 0.12142937 0.33222967 0.15110661
0002d0 4c 20 68 3d 61 05 c7 3d ba 7a 71 3d 3d 4b 18 bd
       0.056671426 0.09717823 0.05895493 -0.037181128
0002e0 20 f0 ce 3b fd 31 21 bd ae 7c 05 3e c7 ff 58 be
       0.006315246 -0.039354313 0.13035843 -0.21191321
0002f0 32 dc 0a be 5c af 32 3e 1b 8a 8a be ae 52 f6 3d
       -0.1356056 0.17449707 -0.2705849 0.12027489
000300 06 db be bb 33 5e 3b 3c 26 d2 1d 3e 17 56 1f be
       -0.0058244495 0.011436033 0.15412197 -0.15560184
000310 72 42 89 bd 22 7b 19 3d 44 e1 50 bd 06 5d 18 3e
       -0.067021266 0.037470944 -0.05099608 0.14879236
000320 54 53 88 3b 9b a2 87 3d f8 df b9 3d ff 4f ba bc
       0.004160324 0.066228114 0.09075922 -0.022743223
000330 0a ab 82 3d 0c 74 24 3c d3 68 54 3e 4a 06 b6 bc
       0.06380279 0.010037433 0.20743112 -0.022219796
000340 56 6c 06 be 86 7a 15 bd d0 fb d5 bc cf ca 4a bd
       -0.13127264 -0.0364938 -0.02612105 -0.04950982
000350 ce 3b 41 be dd 77 80 3d 01 c4 20 bd f4 fe c9 3c
       -0.1887047 0.06272862 -0.039249424 0.024657704
000360 be cf b7 3d 06 9e 82 be a5 e6 35 3d 60 98 80 3d
       0.089751706 -0.25511187 0.044409413 0.06279063
000370 f4 f6 b5 3d e1 e1 1b 3d 41 55 97 3e 9c 16 23 3c
       0.08884993 0.03805721 0.2955723 0.009954121
000380 97 a7 22 bd ff 6c e0 3c 1b dc 88 be 1f 25 22 3e
       -0.039710607 0.027395723 -0.26730427 0.15834473
000390 03 9d 5b bd 3c 4b cc bc ff 59 51 be 5c 4f fe bc
       -0.053616535 -0.024938218 -0.20444487 -0.0310437
0003a0 6e 2b 43 3d 8e f5 17 bd 58 12 b9 bd eb 06 1a be
       0.04764884 -0.037099414 -0.09036702 -0.15041701
0003b0 f7 15 11 be 3b ea fa 3c 7a 8e 18 be 38 51 81 3d
       -0.14168535 0.030629268 -0.148981 0.06314319
0003c0 64 ce 89 3d 77 52 b4 bb 9f 0e 17 be a6 19 73 bd
       0.06728819 -0.0055029946 -0.14751671 -0.059350632
0003d0 03 e4 65 bd e7 0e 1e 3d 83 61 26 3e af 06 6a 3c
       -0.056125652 0.03858843 0.16248135 0.01428382
0003e0 c0 c9 13 be a5 0a 4d bc 0b 33 0d bd 87 f9 46 3c
       -0.1443243 -0.012514745 -0.034472506 0.012144453
0003f0 c8 bc 19 3c b4 69 08 3e 69 9b 23 3d 58 d5 b9 bd
       0.009383388 0.13321573 0.039943133 -0.09073895

encoder.0.bias f4 [128]
000000 a7 38 73 3c c4 63 d4 3d 88 c5 24 3e 3f 4e 7f 3d
       0.01484505 0.10370591 0.16090977 0.06233048
000010 7c 1d ab 3d a0 b1 f9 3d a1 4e 2a 3d 09 37 6c 3d
       0.08355233 0.121920824 0.041578893 0.057669673
000020 36 13 3d 3d 09 80 cc 3d 91 29 19 3e 61 04 95 3d
       0.0461609 0.09985358 0.14957263 0.07276226
000030 92 67 86 3d 96 28 69 3c ed 9e 32 3e 91 8f 02 3e
       0.06562723 0.014230868 0.17443438 0.12750079
000040 37 d8 d4 3d 54 24 87 3d ca b3 0c 3e a9 c8 1d 39
       0.10392802 0.06598726 0.13740459 0.00015047439
000050 8c 17 5e 3d f7 9d d5 3d 3a 2d 01 3e 6e 0b 13 3d
       0.054221675 0.1043052 0.12614909 0.035899572
000060 b5 8b 21 3e c7 72 ea 3d c2 02 ff 3d 36 5f cb 3d
       0.1577595 0.11447673 0.12451698 0.099302694
000070 b8 8c ff 3c ba ce 08 3e f4 43 d4 3d 84 96 bd 3d
       0.03119503 0.1336011 0.103645235 0.09257224
000080 21 8d 75 3d 95 ff b7 3d e5 e9 3e 3e 60 a1 dc 3d
       0.059949044 0.08984295 0.18643911 0.10772967
000090 6d cc 0a 3e ce 64 15 3e e4 d9 8e 3d 73 13 cc 3d
       0.13554545 0.14589235 0.06975153 0.09964647
0000a0 b9 5d 20 3e ac f5 cb 3d 67 77 00 3e 7d b8 ee 3d
       0.15660752 0.099589676 0.12545548 0.11656282
0000b0 c9 45 cc bc 09 6f d2 3d ad 2d 2e 3e 16 f9 97 3d
       -0.02493562 0.102750845 0.17009611 0.07420556
0000c0 38 f9 c9 3d 29 35 0b 3e 97 34 fd 3d 82 16 26 3e
       0.09861988 0.13594498 0.12363546 0.16219524
0000d0 db a5 f0 3d 79 a7 f9 3d a9 89 0a 3e c6 85 c6 3d
       0.117503844 0.12190146 0.13529076 0.09693484
0000e0 8d 8a 0e 3e c7 7a 57 3e a6 2d 0b 3e 9a a6 8f 3d
       0.1392004 0.2104293 0.13591632 0.070141986
0000f0 32 0d 30 3e 21 74 85 3c 35 de 04 3e ac db 20 3e
       0.17192534 0.016290726 0.1297539 0.15708798
000100 38 10 aa 3c 51 47 e7 3d ad f4 da 3c e3 52 bc 3d
       0.020759687 0.112928994 0.026727999 0.09195497
000110 0a d1 10 3e 88 79 21 3e 1e 2a b5 3d 78 f5 f9 3d
       0.14142242 0.15769017 0.08845924 0.122050226
000120 84 48 fb 3c ff ba 89 3c 73 0e 14 3d 70 7e ca 3d
       0.030674227 0.0168128 0.036146592 0.09887397
000130 60 78 df 3d dc 2c 4d bd c0 03 bb 3d 6b 2b 22 3d
       0.109116316 -0.05009161 0.09131575 0.039592188
000140 0a a5 af 3d b1 e1 0e 3e d7 7d 08 3e 7a 32 83 3d
       0.085764006 0.13953282 0.13329254 0.06406112
000150 b7 4f 56 3b 11 9d 6c 3d df 0c 67 3d f4 d8 07 3d
       0.0032701322 0.057766978 0.05640876 0.033165887
000160 fe cf 16 3e b7 13 44 3e 48 4d 40 bc 02 d4 9d 3d
       0.1472778 0.19148146 -0.011737175 0.07706453
000170 b7 16 fd 3d 37 fc ed 3b 81 23 36 3e 86 7a cb 3d
       0.12357848 0.0072627324 0.17786981 0.09935479
000180 9d 1d 16 3e de 60 02 3c e2 d0 12 3e 18 aa 72 3d
       0.14659734 0.007957665 0.14337495 0.059244245
000190 a9 dd 15 3e 77 6d 45 3d 8b ff e5 3d 04 20 c6 3d
       0.14635338 0.048200097 0.112303816 0.09674075
0001a0 44 b1 b7 3d 5b 9b 96 bb e1 80 22 3e 65 3d 26 3e
       0.089693576 -0.0045961565 0.15869476 0.16234358
0001b0 0b 81 0c bd 88 62 b0 3d 58 ec ec 3d b2 ef 48 3e
       -0.034302752 0.08612543 0.115685165 0.19622687
0001c0 48 eb da 3d 15 d7 8e 3d d9 f8 23 3e 8e d1 06 3e
       0.106894076 0.069746174 0.16012897 0.13165876
0001d0 f5 63 62 3c cc 2c 02 3e 75 1c cf 3d 47 5c 36 3e
       0.013817777 0.12712401 0.101128496 0.17808639
0001e0 06 7f 77 3d 4d 4a 04 3e f1 ad 20 3e 6f 66 c8 3d
       0.060423873 0.12918968 0.15691353 0.09785163
0001f0 47 21 0c 3e 7f a9 92 3d 8d bf 02 3e 13 f2 a1 3d
       0.1368457 0.07161235 0.12768383 0.079075

messages.W_query f4 [1, 128, 128]
000000 c8 e7 eb 3b 41 48 1e 3d 05 6f 9c 3c 27 c7 bd 3c
       0.0071992613 0.038643125 0.019095907 0.023166252
000010 c2 1c 1d be bf d9 04 3d 30 8d 30 3e 67 ba 9e bb
       -0.15343001 0.03243422 0.17241359 -0.0048439982
000020 3e 5d b3 3b 44 96 8a bc 40 e4 89 bd 88 33 47 3e
       0.005473762 -0.016917355 -0.06732988 0.19453251
000030 43 6b 78 bd da 3f 0d be e8 6a 9e 3c 48 2a 11 3e
       -0.060649168 -0.13793889 0.019338086 0.14176285
000040 ce 74 0d 3c 2e f5 8e 3d 1a 27 93 bd 55 52 54 3d
       0.008633805 0.06980358 -0.071851924 0.05183633
000050 c4 bf 44 bd 81 91 70 bd 8e 4d 26 3e 79 5d bc 3d
       -0.048034444 -0.058732513 0.16240522 0.09197516
000060 bf a0 5f 3d 6c 68 16 be b1 b8 24 3d a2 da 6c 3d
       0.05459666 -0.14688271 0.040215198 0.057825692
000070 af 3f 76 bd 10 b9 d1 3b ff fc 89 bd 65 cb 52 3d
       -0.060119327 0.006400235 -0.06737708 0.051463503
000080 c0 7b 51 bd c1 bc 76 3d 12 55 ba 3d 4b 09 36 3d
       -0.051143408 0.060238604 0.09098257 0.044442456
000090 85 68 92 bd 2b 33 90 bd 38 79 91 bd dc 38 2d bd
       -0.07148842 -0.070410095 -0.07103199 -0.042290553
0000a0 12 a6 62 3d f1 e3 b5 3d 22 3a 26 bc cd bd 5e 3d
       0.05533416 0.08881367 -0.010145696 0.054380227
0000b0 24 42 a0 bd 4b 06 81 bd 16 af 20 3d 3d 53 94 3d
       -0.07825115 -0.063000284 0.039229475 0.07242439
0000c0 f4 71 a4 3c 86 00 3a bc d1 a7 1b bd 6d 7d 1d be
       0.020073868 -0.011352664 -0.03800184 -0.15379877
0000d0 08 14 7f bd fc 9b c8 3d 81 0b d5 3c e5 52 25 bd
       -0.062274963 0.09795377 0.026006462 -0.040362258
0000e0 49 5a 0d bd 3e d2 a3 3d 46 2e 83 bd b8 ee e2 3d
       -0.03450993 0.07999085 -0.0640531 0.11080688
0000f0 fc 36 96 bd 12 08 d8 bd 62 5b 1c 3e ae 73 58 bd
       -0.07334706 -0.10548414 0.15269235 -0.052844696
000100 c1 66 0d 3d 51 55 52 3d 48 da 86 3c ab 80 b4 bd
       0.034521822 0.051350895 0.016461506 -0.08813604
000110 8c 64 3b 3d 8d 50 dd 3d cb d4 1d 3d 29 e0 00 3e
       0.045750186 0.108063795 0.038533013 0.1258551
000120 39 76 1e 3d 66 b6 85 3d aa 9b df 3d d6 a7 ac 3d
       0.038686965 0.0652893 0.109183624 0.0843045
000130 2b 12 9f bd 64 04 8d bc 2d 96 10 3e 5b 5c 30 bd
       -0.07767137 -0.017214008 0.14119788 -0.043056827
000140 dc 74 2c 3d 42 c6 32 be cb 8a 14 bc da d5 e5 3d
       0.042103633 -0.17458442 -0.009066294 0.112224296
000150 df 63 63 bd 91 58 1d 3e 1c 3a 92 bb dc 3a 04 be
       -0.055515166 0.15365817 -0.0044624936 -0.12913078
000160 f8 b1 d5 bd 08 2e b5 3a 96 58 24 bc f9 8e 8e 3d
       -0.104343355 0.0013822922 -0.010030886 0.069608636
000170 f1 a7 1e 3e 84 6b fb 3d f1 ef ec 3d 93 59 85 bd
       0.15493752 0.12276366 0.11569203 -0.065112256
000180 cf 65 79 bb 89 20 f2 bd e2 3d a6 bb 48 45 97 3b
       -0.0038055067 -0.11822612 -0.005073295 0.0046164133
000190 0d 55 dd 3c b0 c9 16 bc 8d 00 9a 3c 99 6b 96 3d
       0.027018094 -0.0092033595 0.01879909 0.073447414
0001a0 69 31 1d 3c fa 26 a9 3d 7d 34 f0 bd 0c f6 95 3d
       0.0095943 0.08259387 -0.11728761 0.0732232
0001b0 1f 0c e1 3c 73 7e 8b 3c 89 59 ce bc 24 0f b1 3d
       0.0274716 0.01702807 -0.025189178 0.08645466
0001c0 d1 b0 2a be f9 db 46 3b bc 6d e0 3c 4d 86 b6 bd
       -0.16669013 0.0030343516 0.027396075 -0.089123346
0001d0 74 ce 34 3d be 12 a4 3d a6 cc 1e be d7 e5 15 3d
       0.0441422 0.08011387 -0.15507755 0.036596145
0001e0 38 61 6a bd 6f 60 de bc 43 b7 c2 bd 1a be c5 bd
       -0.05722162 -0.027145592 -0.09507611 -0.096553996
0001f0 a2 97 9d 3c b3 04 d7 3c 70 04 9b 3d a7 43 07 be
       0.019237343 0.026247358 0.07569206 -0.13209401
000200 0c d0 06 3e a5 d9 a4 3d 5c 5b ba 3d 7e 0e c3 bc
       0.13165301 0.08049325 0.09099457 -0.023810621
000210 4e ac 88 3d 42 4f a7 3c 62 39 8f 3b 16 5a 01 3d
       0.066734895 0.020423535 0.0043708542 0.031580053
000220 c1 06 04 be f3 73 b1 3d c4 00 c1 3d 9a 31 1b be
       -0.12893201 0.08664694 0.09423974 -0.1515564
000230 5f ad e4 3d 01 99 b9 3c 0d a0 09 be 69 d7 84 3b
       0.111658804 0.022655966 -0.13439961 0.004053999
000240 34 64 8f 3d e1 d0 16 be df dc 32 be 15 13 6d 3d
       0.07001534 -0.14728118 -0.17467068 0.057879526
000250 61 5e 43 bd d6 fe b5 3c 00 d2 ee 3c 6a f6 8a 39
       -0.04769743 0.022216242 0.02915287 0.00026505004
000260 e8 68 0f 3d 84 e2 df 3d c5 42 f4 3d 84 9a 4e 3c
       0.035012156 0.10931876 0.11926798 0.012610082
000270 d5 8c 5a bd 2a 8f 7b bd 5c d4 43 bd dd ab 11 be
       -0.053356964 -0.06141583 -0.047809944 -0.14225717
000280 4f 53 e8 3c 16 cd 83 3d ae 8e 14 bd 90 69 74 bc
       0.028360037 0.064356014 -0.036268882 -0.014917746
000290 91 29 02 3d 38 52 a1 3d 88 c1 05 bd 3d c7 03 3e
       0.031777922 0.0787701 -0.03265527 0.12868972
0002a0 8f 10 98 3c a3 81 1a bd d3 84 0c 3c fa ea f6 3c
       0.018562583 -0.037721287 0.00857659 0.030141342
0002b0 00 a4 18 bd fe 77 0f 3d c2 42 65 bd 96 e9 bc bd
       -0.037265778 0.035026543 -0.05597187 -0.092242405
0002c0 27 82 ca 3c 03 4e 0e be 32 ba 20 bc 2a 7b b4 3d
       0.024720265 -0.13896947 -0.009810017 0.08812554
0002d0 49 cd 36 bd 0d b9 de bc 0e 46 9f bd 8a ee 85 3d
       -0.04462937 -0.027187848 -0.07777034 0.06539638
0002e0 39 dd 84 3d 19 62 e0 bd 52 1d 85 bc d0 47 3a 3d
       0.064875074 -0.10956211 -0.016249333 0.045478642
0002f0 50 88 f5 3c f1 f9 f5 3d 2a 19 f9 bc ea 7a 2c 3d
       0.029972225 0.12010563 -0.030407507 0.042109407
000300 2f f9 9e 3d 18 7f 04 bc 75 70 9f 37 62 bf 8b 3d
       0.07762372 -0.008086942 1.9006644e-05 0.06823613
000310 07 55 d6 3c 56 a9 3f 3d bf 50 11 bc 00 47 a1 bc
       0.026163591 0.04679235 -0.008869349 -0.019687176
000320 0b dc 9d 3c 55 85 20 bc d6 89 93 3d 11 01 d4 bd
       0.019269964 -0.009797414 0.072040245 -0.10351766
000330 e2 b1 5e bd 6b b1 8b 3d 11 c1 aa bc 7c 28 e0 3c
       -0.05436886 0.06820949 -0.020844014 0.027363054
000340 78 48 aa 3d 9c d6 36 3d 7c 74 9b bc 7a 62 09 bc
       0.083146036 0.04463826 -0.018976443 -0.008385295
000350 17 a5 a5 3c b6 ac 85 bd cf 8e 51 3d f0 0d f1 bc
       0.020220323 -0.065270826 0.051161584 -0.029425591
000360 95 8b 03 3d ec 48 e3 bd fc d6 04 bc e8 d8 3a bd
       0.032115538 -0.11097893 -0.008107897 -0.045617014
000370 a5 02 2f bc e2 e7 07 bc 65 f8 f5 bb a6 38 d8 3b
       -0.010681783 -0.008295031 -0.0075064176 0.00659855
000380 1e 3c 60 bd c7 71 7c 3d 28 1c 26 3c 22 10 20 bd
       -0.054744832 0.061631944 0.010138549 -0.039077885
000390 ed 40 62 bd c1 9a cd 3c dd 64 68 3d df 12 c8 bc
       -0.0552377 0.025098206 0.056736816 -0.024423061
0003a0 01 20 0a bd 50 2d 98 3d 74 4f 02 3d 74 b4 7e bc
       -0.033721928 0.07430518 0.031814054 -0.015545953
0003b0 6a cc a6 3d ec 57 f0 3d 2e 7b 63 3d 27 9d e5 bc
       0.08144458 0.1173552 0.055537395 -0.028029038
0003c0 35 52 fa bc d7 87 52 3d 53 7c e6 bc 28 38 20 3d
       -0.030556777 0.05139908 -0.028135454 0.039116055
0003d0 13 3b cb 3d c3 3e 9b bd d8 b0 df bd cc 4a 73 bd
       0.09923377 -0.0758033 -0.10922402 -0.059397504
0003e0 05 95 92 3b 43 ba 09 3d a4 88 90 bd 76 71 3d bd
       0.004473331 0.0336249 -0.07057312 -0.046250783
0003f0 a6 7e 94 3c 14 cb b5 3d 12 49 5c bc 14 e5 01 bd
       0.018126797 0.08876625 -0.013445156 -0.031712607

messages.W_key f4 [1, 128, 128]
000000 eb 55 db 3c 7c 0d cd bd 53 3d 98 bd 61 1a 9f 3c
       0.026774367 -0.100123376 -0.07433572 0.019421758
000010 49 22 a3 3d c6 de a1 bb 69 3d 50 3d 6c 5a c5 3d
       0.07965524 -0.0049398867 0.050839815 0.09636387
000020 a7 d0 89 bd e3 b4 22 3d e3 38 c8 bd 9b 34 35 bd
       -0.067292504 0.03972329 -0.09776475 -0.04423962
000030 54 74 c8 bc d6 89 79 3d 17 39 79 bb bb 6c 30 3c
       -0.024469532 0.060922466 -0.0038028413 0.010768111
000040 9f be 81 bc 70 54 a7 3d 08 ca f2 bd 18 c2 22 3d
       -0.015837966 0.08170402 -0.11854941 0.039735883
000050 fc 86 98 bd f2 39 9a 3b 9b 18 6a bd 66 47 c6 3a
       -0.07447621 0.0047066147 -0.05715237 0.001512748
000060 04 68 76 bd 50 a4 87 3d 4f 47 70 3c 9a 18 d2 bc
       -0.06015779 0.06623137 0.014665439 -0.025646497
000070 59 bc c0 bd b4 07 e4 bd f7 55 83 bd 1a 5d 0a 3d
       -0.094109245 -0.11134282 -0.06412881 0.033780195
000080 ea 02 e3 3d 57 87 26 3d 78 ba 56 bd 3c d1 20 3d
       0.1108454 0.040656414 -0.052423924 0.03926204
000090 22 fd 73 3c 0e b1 84 bc df 03 9c bd 93 a0 8b bd
       0.0148918945 -0.016197708 -0.07617926 -0.068177365
0000a0 e7 d3 78 bd 37 0c 25 3e 19 20 cd bd 18 ee 4d bd
       -0.06074896 0.16117941 -0.10015888 -0.050275892
0000b0 f9 33 95 3d 22 3a d2 3d e2 78 d2 bd 8f 93 80 bd
       0.072853036 0.10264994 -0.10276963 -0.062781446
0000c0 83 03 88 bd 8d 74 c6 3d 3f 3d 66 bb 85 a5 92 3d
       -0.06641295 0.09690199 -0.003513172 0.071604766
0000d0 ad dc 8d bd 05 13 0d 3e f0 f5 f4 3d 0d ce 1a 3d
       -0.06926856 0.13776787 0.11960971 0.03779416
0000e0 95 fb ce bd ce 85 3a bd 48 0d a7 3d 3d 8f 8d bd
       -0.10106579 -0.045537762 0.0815683 -0.06912086
0000f0 74 43 9d ba b3 72 83 bd 6a c1 0a bd fa 22 ce bd
       -0.0011998252 -0.064183615 -0.03387586 -0.10065265
000100 7a db 27 be cd ff d1 3d 3e 0d 3a bd 0d 60 c2 bd
       -0.16392317 0.10253868 -0.045422785 -0.094909765
000110 86 72 df 3d f5 4b 13 3d 6c 65 f2 bc a5 c8 83 3d
       0.109105155 0.03596111 -0.029589377 0.06434754
000120 50 1e 85 bd 74 77 4e 3d 86 c8 83 bd f9 d5 26 3d
       -0.06499922 0.050406888 -0.06434731 0.040731404
000130 4a a3 bb 3d e8 c5 d7 3c 1f bd bf bd 64 42 19 be
       0.09162004 0.026339486 -0.09362244 -0.14966732
000140 25 de ae bc a1 a0 da bd 46 35 32 3c da 9e a7 bb
       -0.021346161 -0.10675169 0.010876959 -0.005115372
000150 7a d3 bd 3d 73 7a 23 3d d4 57 07 3d 4a 16 b0 bd
       0.092688516 0.0399117 0.033042744 -0.08598001
000160 f8 ac 6d bc 10 a8 87 3d 44 74 1f bd d0 f0 a0 bd
       -0.014506571 0.06623852 -0.03892924 -0.07858431
000170 22 ae e8 bd c4 e0 b5 bd 24 ad 85 3d f8 41 f3 bd
       -0.11361338 -0.08880761 0.065271646 -0.11877817
000180 8b cd ae 3c 43 d2 82 bc 1b 9b 81 bd b7 28 b0 3d
       0.021338245 -0.015969401 -0.06328412 0.08601516
000190 a3 0f aa bd a7 a9 40 bd bb 0a 0a bd 12 c4 67 3c
       -0.08303764 -0.047036793 -0.03370164 0.014145868
0001a0 3d b5 b1 bd 3a eb 6e 3d c3 ac 8d 3b 12 22 85 3c
       -0.086771466 0.0583298 0.0043235733 0.016251598
0001b0 05 a5 79 bd ef 9e f6 3b 15 45 f3 bd 56 d8 63 bd
       -0.06094839 0.0075262706 -0.11878411 -0.055626236
0001c0 39 52 94 bb c7 d5 31 bd 28 ae dd bc de 98 b0 bd
       -0.0045264033 -0.043416765 -0.027060583 -0.08622907
0001d0 8b 37 11 bd 02 63 92 bd 24 c3 81 bd 6e ce ab bd
       -0.03545336 -0.071477905 -0.06336048 -0.08388983
0001e0 6e 9f 2e 3d 2e be 03 be 4d 8b 6b bd 9a e1 f4 bd
       0.042632513 -0.12865517 -0.057505894 -0.119570926
0001f0 fb 90 0a be d7 30 be bc dd 96 e7 bc f8 50 e1 bd
       -0.13531868 -0.023216648 -0.02827018 -0.11001772
000200 a3 34 82 bd 47 29 c8 bd 50 90 b2 bc 55 15 91 3d
       -0.06357696 -0.09773498 -0.02179733 0.07084147
000210 b8 29 cf 3d f4 47 dc 3d 6a c7 ad 3d 12 70 a5 3a
       0.10115379 0.107559115 0.08485301 0.00126219
000220 94 ff f6 bb 7e 46 4b be 17 74 93 bd 4f 9f d0 3d
       -0.0075377915 -0.1985111 -0.07199877 0.10186636
000230 88 87 b2 bd 4c 00 77 3d 27 d6 97 3c 0f 53 99 3d
       -0.08717257 0.060303017 0.018534733 0.07486545
000240 86 cf cc 3c 20 32 fb bd 15 ea 39 3d 1f d1 07 3d
       0.025001299 -0.1226542 0.045389254 0.033158418
000250 74 8c f7 3c a5 12 7f 3c f0 e5 e4 3d 3b d3 80 3b
       0.03021834 0.01556841 0.111766696 0.0039314306
000260 15 80 81 bb a5 69 71 b9 46 5f 82 3d 9a bf 40 3d
       -0.003952036 -0.00023022907 0.06365828 0.047057725
000270 e5 3b 80 3d fe 61 38 bc 3d 04 28 bd 9c cf 41 3d
       0.06261424 -0.011253832 -0.041019667 0.047317132
000280 5b b3 ef bd 5d 98 fb ba 66 bb da 3c c4 db 89 3d
       -0.11704131 -0.0019195188 0.026700687 0.0673137
000290 86 d7 0d 3e 1a aa b6 3d 51 df 65 3c 53 fc 84 bc
       0.13851747 0.08919163 0.014030294 -0.016233599
0002a0 69 ae a2 bd 3d 51 81 bd b7 e5 22 bd 99 bf 9f bd
       -0.07943422 -0.06314323 -0.039769854 -0.07800216
0002b0 e3 7c 42 bd 32 f3 31 bd bb 72 a0 bc 2b 46 51 3d
       -0.047482383 -0.04344482 -0.019585958 0.051092308
0002c0 b9 9d 9e bd db e7 03 3b e1 08 d6 bc dc fa b1 bd
       -0.07744927 0.002012721 -0.02612728 -0.08690426
0002d0 1a bd f1 3c 5b 7e 20 be 4b eb 31 b9 bf 61 05 3d
       0.029509116 -0.15673201 -0.00016967689 0.03256392
0002e0 3d 8d fa bc 03 36 e4 bc 7a 5f 75 bc 6a 91 bb 3c
       -0.030584926 -0.027857786 -0.014976377 0.022896487
0002f0 9a 1e ee bd 84 c5 65 3c 7b c1 cf 3c 54 e7 cd bd
       -0.116269305 0.014024142 0.025360813 -0.10053888
000300 35 28 86 3d af 44 a7 bd 0f ee bf bc 75 cb ad bb
       0.06550638 -0.08167397 -0.023428945 -0.005303795
000310 67 72 01 bc b5 84 e6 3b f3 2d e8 bd 98 ca 2e 3d
       -0.007900811 0.007034863 -0.11336889 0.042673677
000320 fc 8d 54 3d 54 91 4e bc 9d bb 93 3d f6 a7 b3 3d
       0.05189322 -0.012607891 0.07213519 0.087722704
000330 2a 7d 42 bc d0 b8 e4 bd b8 f0 ad bc fc 1f 3a bd
       -0.011870662 -0.11168063 -0.021232948 -0.04544066
000340 4f 0b 07 bd b6 e3 cb bd 86 9e 75 3d 89 29 88 3d
       -0.03296977 -0.09955542 0.059965633 0.06648547
000350 dd 8c 49 3d 0e 95 9c bd 3f e5 3e bd fc 81 9d bc
       0.049206603 -0.076456174 -0.046605345 -0.01922702
000360 67 d9 c3 3c 54 50 f1 3c 50 81 5d 3c 2c d6 99 bc
       0.023907376 0.029457249 0.0135196 -0.018778883
000370 a1 8d ce 3c 34 08 2e 3d 10 d7 c7 3c b8 24 e8 bd
       0.025214018 0.04248829 0.024394542 -0.113351285
000380 f8 7a ae bb f7 25 9e 3c 8c 26 c9 bd 56 7b 33 bd
       -0.0053247176 0.019305212 -0.09821805 -0.043818794
000390 87 03 99 3d cc fb e4 bc 97 37 dc bd 87 06 10 3d
       0.07471376 -0.027952097 -0.107527904 0.035162475
0003a0 95 2f 64 bc 8d ae 75 3a ce 6a dd 3c 86 13 a6 bd
       -0.01392736 0.00093720184 0.027028468 -0.081091926
0003b0 d0 1d 22 bb 73 ee 22 3d 8e ca 50 bd e6 38 ea bd
       -0.0024737008 0.039778184 -0.05097442 -0.11436634
0003c0 04 91 da bd 43 f7 11 3e c6 76 ea bc 05 de c2 bd
       -0.10672191 0.14254479 -0.028621089 -0.09515003
0003d0 9f 2e 90 3c 7a b2 e0 bd a3 e6 f8 bd 95 d9 2c 3d
       0.017600356 -0.10971542 -0.121533655 0.04219969
0003e0 36 4c cf bd 8a 5a 60 3d 63 4b f3 3c 05 5d 79 bb
       -0.10121958 0.054773845 0.029699033 -0.0038049829
0003f0 d5 83 fc 3d 62 c3 28 bd 6e c6 d3 bd 79 8d 4f bd
       0.123298325 -0.041201957 -0.10340582 -0.05067203

messages.W_val f4 [1, 128, 128]
000000 c4 7e dc 3d b6 90 c8 3d 71 6d 39 bc 24 c1 bf bd
       0.10766366 0.097932264 -0.011317597 -0.093630105
000010 00 a1 e1 3c 3a af 40 bd 07 ed c2 3c ca 45 f1 bb
       0.027542591 -0.04704211 0.023794664 -0.007363056
000020 e2 ea ca 3d 29 5b c6 3d 65 d2 16 bc 7d d9 ef bc
       0.099080816 0.09685356 -0.009205435 -0.029278511
000030 ff 5c 13 3d 5b 02 b6 3d d5 ce cb 3d a3 a3 ac 3d
       0.03597736 0.08887168 0.099515595 0.08429649
000040 a6 a5 29 bd 12 e8 c5 bc 2e 1b 49 bd a3 57 06 bc
       -0.04141774 -0.024158511 -0.049098186 -0.008199605
000050 ee 02 81 3d 44 6f 38 bc 30 6a 13 bd 4e 56 eb 3d
       0.06299387 -0.011256997 -0.03598994 0.11491071
000060 fb 9b 48 bd d8 a8 ab bd 61 ed 1f 3e 7e 7c 21 3c
       -0.04897688 -0.08381814 0.15617897 0.009856341
000070 d1 51 d4 3d 13 62 91 3c 73 37 d8 3b da 6f be 3d
       0.10367168 0.01774696 0.006598407 0.09298678
000080 76 cf 0b 3c ff 47 3f 3d fd d2 87 bd 00 5a ad bd
       0.008533349 0.04669952 -0.0663204 -0.08464432
000090 ad 93 ba bc f0 24 d9 3d fb 94 a6 bc 01 af 89 bd
       -0.022775495 0.106027484 -0.020334711 -0.067228325
0000a0 88 67 83 bd 5a 7a c9 3b 1e a1 a4 bd 07 b9 86 3d
       -0.064162314 0.0061486186 -0.08038543 0.0657826
0000b0 3c 0b 27 3d 79 8c e8 bc 00 43 8a 3d 39 4d c5 3c
       0.0407822 -0.028387295 0.067510605 0.024084674
0000c0 9e 92 07 3d 62 5b 21 3d 7b 45 b7 bd 32 69 81 bc
       0.03309881 0.03939379 -0.08948799 -0.015797231
0000d0 16 26 96 bd aa 5a 8e 3d 3d ad 42 bd ec 01 9b 3c
       -0.07331483 0.069508865 -0.047528494 0.018921815
0000e0 0e 0e b1 3d 57 4c b1 bd 87 36 43 bd 3f 35 22 3d
       0.08645259 -0.08657139 -0.047659423 0.03960156
0000f0 95 d2 68 bd 47 26 20 bc 81 fa 5b 3d 16 c5 b5 3d
       -0.05684145 -0.009774751 0.053705696 0.08875482
000100 1a b3 db 3b 87 d1 fc bd bf d6 45 3d 4e 9c fd 3d
       0.0067047 -0.12344652 0.0483005 0.123833284
000110 b2 ba 13 bd fe 2b 8c bc a7 52 f1 bc e7 ce 1a 3d
       -0.03606672 -0.01711082 -0.029458357 0.037794974
000120 80 92 1d bd 17 d0 b4 bc 2c 09 2c 3c 6e b5 8d bd
       -0.03846979 -0.022071881 0.010500234 -0.069193706
000130 63 a1 49 bc 6c d1 a1 bd ee ee 3d bd ab 13 41 bd
       -0.012306544 -0.07901272 -0.04637044 -0.047137897
000140 e9 8e 0a be 70 ad db bd 1b 75 05 3d e8 ca 8f bd
       -0.13531078 -0.1072644 0.032582384 -0.07021123
000150 12 86 a8 3d 54 f1 d3 3c 43 00 a0 3c 97 8b 78 bc
       0.08228697 0.02587191 0.019531375 -0.01517
000160 67 27 fc bb 3e ce 01 bc f5 07 90 bd 29 f3 cf bc
       -0.007695127 -0.007922707 -0.07032768 -0.025384502
000170 ca 27 88 bd cd ce 7b 3d e3 9f b7 3c c2 88 72 3d
       -0.06648214 0.061476517 0.022415107 0.059212454
000180 11 2d 7c bc 86 84 93 bd 3c ac 44 3d 1c ac 1e bc
       -0.015391604 -0.07203011 0.048015818 -0.009684589
000190 50 13 35 3d 6b 50 62 3d 6b 34 a4 3d 4a a9 e6 bd
       0.04420787 0.055252474 0.080178104 -0.11262758
0001a0 d3 c9 3f bc be 32 21 3e 17 d5 94 bd 0b a4 43 bb
       -0.0117058335 0.15742013 -0.07267206 -0.0029852416
0001b0 d6 04 3c bd 86 b2 13 3d c3 20 a3 3d ce 4c 07 3d
       -0.04590305 0.036058925 0.07965233 0.03303223
0001c0 e7 33 ac bd c6 8f 57 bd 23 9e bc 3b 8c 45 ee bb
       -0.08408337 -0.052627347 0.005756156 -0.007271474
0001d0 88 60 b3 3d bd 79 2b be 9f c1 18 3c 7f 7d d0 bc
       0.08758646 -0.16745658 0.009323507 -0.025450466
0001e0 bb 0d 51 bd 63 29 3d bd e0 9e 95 3c d5 be 9f 3d
       -0.051038485 -0.046182048 0.018264234 0.0780007
0001f0 aa 91 34 bd 35 ad a9 3c 84 42 ae bd 5c e6 4a 3c
       -0.04408423 0.020712474 -0.085087806 0.0123840235
000200 19 46 57 bd 00 8d 19 3d 4d f7 8d bb 06 0d 83 ba
       -0.052557085 0.037487984 -0.004332459 -0.0009998388
000210 70 cf 8e 3a f7 e4 df bd 84 bf 87 3c 25 28 3f bd
       0.0010895561 -0.109323435 0.016570814 -0.046669144
000220 20 b2 98 bd 5f c1 a0 bd 7a af df 3b a3 fe d4 bb
       -0.0745585 -0.078493826 0.0068263384 -0.0065000816
000230 d8 cd c7 bc a0 9c 62 3d b3 a9 3d 3d b5 10 c5 3c
       -0.024390146 0.05532515 0.046304416 0.024055818
000240 26 0a 5c 3d 69 4b 32 bc 03 8f d3 3b 71 79 74 3d
       0.053720616 -0.010882237 0.0064562573 0.059686128
000250 b3 5c 9e 3d 20 b2 3a 3d 3e 18 b8 bd ee fe 82 bc
       0.07732525 0.04558003 -0.08988999 -0.0159907
000260 33 62 0d bc 57 36 e8 bd 00 e7 2a 3d a0 e8 95 bd
       -0.00862937 -0.113384895 0.041724205 -0.0731976
000270 e7 6e aa 3d cd 40 bd bc 56 0e 4a 3d 9c 0d 04 3d
       0.08321934 -0.023102188 0.049330078 0.03223954
000280 d6 26 30 bd cd db df 3d 4d ee b3 3c fc e6 c9 3c
       -0.043005787 0.109305955 0.021964217 0.024646275
000290 31 13 56 3d f5 96 a4 3d 99 75 4e bd a3 23 96 bc
       0.052264396 0.08036605 -0.05040512 -0.01832754
0002a0 8e 4c aa bd 7f be e9 bd 0e 57 31 bb 91 2f f2 3c
       -0.08315383 -0.11413287 -0.0027059945 0.029563697
0002b0 2a 9d b4 bc e8 27 d2 3c 36 d4 87 bd 79 8f 58 bd
       -0.022047598 0.025653794 -0.06632273 -0.0528712
0002c0 1e 61 ab bd a3 a7 02 3d ad 39 63 3d d2 12 22 3d
       -0.08368133 0.031898152 0.055474926 0.03956873
0002d0 04 60 86 bd e5 2c a8 bc 0d 08 c3 3d a3 7a 97 bd
       -0.06561282 -0.02052922 0.0952302 -0.07396438
0002e0 6b a0 02 3d b2 74 ac bd 9c 31 be 3c 6b 0b 9e bd
       0.031891268 -0.08420695 0.023217015 -0.077170216
0002f0 aa 7f 2a 3c 47 b7 be 3c 3a 68 d4 bd ff e3 0d bd
       0.010406414 0.023280753 -0.10371442 -0.034641262
000300 e5 ac f8 3c 33 b3 6c bd 16 55 a5 bd 7d 58 61 bd
       0.03035588 -0.057788085 -0.080728695 -0.05501603
000310 b5 60 de 3d b5 af fc bd e2 93 97 bd 9c 94 69 bd
       0.10858289 -0.12338201 -0.07401253 -0.05702649
000320 27 76 7d 3d df 44 2a 3d 26 c6 c3 bd 56 50 6c 3d
       0.061880257 0.041569587 -0.09559278 0.0576938
000330 4b 20 fd 3c 0f 85 cd bd e4 a3 59 3d ba 42 21 3b
       0.030899188 -0.100351445 0.053134814 0.0024606423
000340 98 a6 87 bd c3 eb c3 bd 1d cf dc bd 43 6f c3 3d
       -0.06623572 -0.09566452 -0.10781691 0.09542706
000350 33 b3 c2 3d 08 8f 92 3d fa 04 c8 bd 3c 41 99 3d
       0.09506836 0.07156187 -0.09766574 0.074831456
000360 7a c2 84 3c 05 f7 98 3d 31 93 6b bd 3f 1b c6 bc
       0.016206015 0.0746899 -0.05751342 -0.024182914
000370 9c 6e 6b 3d fc cd 9d bd 05 69 a5 bd 85 07 85 bc
       0.057478532 -0.07705304 -0.080766715 -0.016238937
000380 97 f7 9d bc 1f 9c 97 bc a1 6c 0d bd 78 2b 56 3d
       -0.0192831 -0.018507062 -0.034527425 0.05228755
000390 b1 a4 29 3d 2d d3 96 3d c3 5d a9 3d 77 8d b2 3d
       0.041416828 0.07364497 0.08269837 0.087183885
0003a0 b2 75 34 bd 3c 9c 96 bd 34 ae b2 bc ee c9 57 bd
       -0.044057555 -0.07354018 -0.021811582 -0.05268281
0003b0 b3 de c4 bd 9f cb 90 bb 25 a7 6f 3d 6d cb 66 bd
       -0.09612789 -0.004418805 0.05850901 -0.056346346
0003c0 05 f6 eb 3d dd 0f a8 3c d1 be ef 3d 5d 2f 23 3d
       0.11521534 0.020515377 0.11706317 0.03984009
0003d0 2b b3 89 bd 77 a5 10 bc 2a be 73 3d 40 55 e3 3d
       -0.06723627 -0.008828512 0.059507526 0.111002445
0003e0 52 72 54 3d e6 a0 29 3d e5 47 41 3d f3 8e ac bb
       0.051866837 0.04141321 0.047187705 -0.0052660643
0003f0 2b 38 a2 3d 33 9c 1b 3d c3 f4 d6 bb 42 57 3a bd
       0.079208694 0.03799076 -0.0065599396 -0.04549337

messages.W_out f4 [1, 128, 128]
000000 03 9f 62 bc c3 48 a5 3d b7 ef d9 3d 99 44 82 3d
       -0.013831857 0.08070519 0.10641425 0.0636074
000010 0f 25 7a 3c 83 c7 fb 3c 49 5c e1 3c 8d c5 21 bd
       0.0152676245 0.030734783 0.027509825 -0.03949504
000020 2e d6 97 bd f5 c7 ac bd d2 0d c8 3d 41 7d 22 bd
       -0.074138984 -0.08436576 0.09768261 -0.039670233
000030 9c 92 3d 3d 93 26 b2 3c ae 83 87 3c be 0d a4 bd
       0.046282396 0.02174691 0.016542282 -0.080104336
000040 55 17 eb bc bd 42 a5 3d df 61 8d 3d a4 ef 18 3d
       -0.028697649 0.0806937 0.06903433 0.037337914
000050 5a 3b 6d 3d 51 2e 3e 3d e6 52 f8 3c 6f 06 3d 3c
       0.05791793 0.04643089 0.030312967 0.011537178
000060 75 f2 e3 3c cc bb 07 3d 8e 8a 46 bd 4e 71 f3 bc
       0.027825573 0.03313808 -0.04847198 -0.029717114
000070 ac 5e 86 bc 26 ab da 3c c7 90 98 bd c8 9e a2 bd
       -0.016402565 0.026692938 -0.07449489 -0.07940441
000080 51 9f 66 3c 09 6b dc 3c 4a 71 2f bd 39 28 92 bd
       0.01407607 0.026906507 -0.04283265 -0.07136578
000090 f9 a2 07 bd d1 25 ad 3c 44 1c 81 3b 9f f0 e4 bc
       -0.033114407 0.021136196 0.003940137 -0.027946768
0000a0 ec c4 92 bd 2b ef a1 3c 4d bc 69 3d 9e df 01 3d
       -0.07166466 0.019767364 0.057064343 0.0317074
0000b0 b0 94 50 3c a7 77 9a 3a b0 9c 09 bd c0 a8 17 be
       0.012730762 0.0011784927 -0.033596694 -0.14810467
0000c0 1c 96 b9 bc 56 23 87 3d 61 c6 9e bd 2b fe b0 bc
       -0.022654586 0.06598537 -0.077526815 -0.021605572
0000d0 63 23 1c 3d aa 8c 8f bd 13 50 a4 bb 0e 40 f5 3c
       0.038119685 -0.070092514 -0.0050144284 0.02993777
0000e0 31 0f 71 bd 58 2a 2b bd b7 2c 9c bd 9b 7b 86 bd
       -0.05885238 -0.04178843 -0.07625716 -0.065665446
0000f0 c8 22 a6 bd ce 92 81 3d 56 1b 70 3d 2a ee e5 3c
       -0.08112103 0.06326829 0.05861982 0.028067667
000100 b7 8f ec bc 2e 3c a6 bd 2e 52 b5 bd e7 13 70 bd
       -0.028877122 -0.08116947 -0.08853565 -0.05861273
000110 c2 ed 00 bd a4 56 c4 3c 8d 90 42 3d 8e 23 a1 3c
       -0.031476744 0.023967095 0.047501136 0.019670274
000120 18 67 1d 3c cf 96 e4 3c ae 8c d1 bd 4e e5 3a bc
       0.009607099 0.027903942 -0.10231911 -0.01140721
000130 d2 5a e8 bc 67 7f e7 3d 2b ee 4e 3d c9 a7 97 3d
       -0.028363619 0.11303597 0.050520103 0.07405049
000140 b3 82 86 3d 5e 4a a4 3d 08 2a 93 bd b4 d2 64 3d
       0.06567898 0.08021997 -0.07185751 0.055865005
000150 5f 43 f1 3c df 4c ae 3d 12 06 42 3d 9a c4 8d bd
       0.02945107 0.08510756 0.04736907 -0.069222644
000160 45 f0 7e 3c 4d da f9 3d 0e 0f 06 bd c9 16 5e bc
       0.015560214 0.12199841 -0.0327292 -0.013555237
000170 f8 c3 3e bd dc 5e 18 3d e4 90 8b bd 6d 20 29 3d
       -0.04657361 0.03719984 -0.06814745 0.04129069
000180 79 6a db bc db 41 3e 3d b6 5a 95 bc 51 4d 48 bd
       -0.026784169 0.046449523 -0.01823173 -0.04890186
000190 52 30 99 3d 94 68 15 3c 50 ad 35 bd d2 ab f0 bd
       0.074799195 0.009119172 -0.044354737 -0.11751522
0001a0 88 fd 37 3d 60 fe 96 3d 04 a1 f5 3c 0a 0d ea bc
       0.04491952 0.07372737 0.029984005 -0.02857067
0001b0 58 c0 a8 bd a1 c8 a8 3d 4e 53 d6 bc e7 e8 fb 3d
       -0.08239812 0.08241392 -0.02616277 0.12300282
0001c0 13 ad 58 3d 08 7b db 3d 5c 73 09 3d 0d 89 81 bc
       0.05289943 0.10716826 0.03355728 -0.015812421
0001d0 50 b6 c2 3c 7b 06 69 bd e4 ca f4 bd f8 4e 6f 3d
       0.023768574 -0.056890946 -0.11952761 0.05842492
0001e0 c9 4d 3b 3d 5d ac 9e bd 78 bd 0d 3d 99 65 cc bd
       0.04572848 -0.077477194 0.03460452 -0.09980316
0001f0 77 c0 c4 3d e1 25 e7 bd e1 dc 72 3b 71 15 09 bd
       0.09607022 -0.11286522 0.0037057924 -0.033467714
000200 57 cd 0c be 09 4a bb bd 51 1f a0 bd 53 e1 42 bd
       -0.13750206 -0.091449805 -0.07818473 -0.047578167
000210 4b be b0 bd b9 65 00 3d f5 01 96 3d 59 6e 0e 3d
       -0.086300455 0.03134701 0.07324592 0.034773204
000220 82 e9 44 3d f2 9b aa bb 74 39 49 bd ed 34 62 3d
       0.048074253 -0.0052065784 -0.049127057 0.055226255
000230 18 f5 9d 3d 54 af 09 bd b5 e1 71 3d 97 a0 a8 bc
       0.077127635 -0.03361447 0.05905314 -0.020584388
000240 e7 6c 11 3d 99 e6 a1 bd 9c b3 13 bc 86 4e b5 bc
       0.035504248 -0.07905311 -0.00901499 -0.02213217
000250 3a 5e 7a 3d 75 96 97 3d fd 9d 09 3e b6 9a 08 3d
       0.061125018 0.07401744 0.13439174 0.03335067
000260 13 c7 87 bd b5 7d 51 bd 1f fa d8 3b 06 df 67 3d
       -0.06629767 -0.051145274 0.0066216136 0.056609176
000270 32 b2 2e 3d 33 1e 91 bd 6d c9 1d be f7 be b6 3d
       0.04265041 -0.07085838 -0.15408869 0.089231424
000280 30 e0 b2 3c d0 e8 8f bc 3a bb b3 bc 56 f9 88 bd
       0.021835417 -0.017567068 -0.021939863 -0.06688182
000290 d0 0a 98 bd 1f 62 3d bc 30 e8 91 bc 90 ee 35 bc
       -0.07423937 -0.011559038 -0.017810911 -0.011104241
0002a0 be 81 32 bd a5 c2 b9 bd fc 74 ac 3c b9 44 9f 3b
       -0.043580763 -0.090703286 0.021051876 0.0048604873
0002b0 75 68 b8 3d 35 68 92 bd 9a 6a 7e bd 98 47 06 3d
       0.090042986 -0.07148782 -0.062113382 0.03278312
0002c0 09 49 97 bd bf cc aa bd 79 3c db bc cd ad 83 3d
       -0.07386977 -0.083398335 -0.026762234 0.06429634
0002d0 3d 70 2a bd fa b1 9e bb 66 2e 21 3c 83 68 f8 3c
       -0.041610945 -0.004842994 0.009837722 0.030323273
0002e0 57 bb a1 bd 3b 4c 5a 3d 05 49 a7 bd 47 65 d1 3c
       -0.0789706 0.053295355 -0.08168224 0.025560988
0002f0 ac 68 94 bc 70 d0 9d bc 70 27 8c bd 08 17 a4 bd
       -0.018116318 -0.01926443 -0.068434596 -0.08012205
000300 e8 18 8e bd 94 5c 0f 3c 47 e3 9b 3d fa f7 61 3c
       -0.06938344 0.0087501 0.07611709 0.013792032
000310 64 e3 40 3d be 23 a1 3d 97 2f c5 bc 71 af b0 3d
       0.047091857 0.078681454 -0.024070544 0.08627213
000320 55 a8 e3 bd b0 c9 05 be 7d 30 de 3c 08 67 3d bd
       -0.11116091 -0.13065219 0.02712273 -0.046240836
000330 db 0a f7 bd 23 41 22 bd 4a 07 a1 3d df 47 be 3d
       -0.120626174 -0.0396129 0.078627184 0.09291052
000340 a3 6b 07 bd d4 77 00 3d 18 d0 0a bb 9b 6a 7f 3d
       -0.033061635 0.031364277 -0.0021181162 0.062357526
000350 87 11 73 3c 68 7d 93 3a 1e e0 b5 3c f6 13 3f bc
       0.014835722 0.0011252584 0.022201594 -0.011662474
000360 5c b4 7c bd d5 17 cc 3c 31 e4 a1 3d bc 57 90 bd
       -0.06169544 0.024913708 0.07904852 -0.07047984
000370 47 aa 84 3d 88 58 22 bd 83 4a b3 3d 18 4c 7c 3c
       0.0647779 -0.03963521 0.08754446 0.015399002
000380 9c 7d bc bd 3f 55 dc bd d8 72 e3 bd 2a 8f a6 3d
       -0.092036456 -0.10758447 -0.11105889 0.08132775
000390 47 43 8d bd a5 e9 ea 3c 8b 10 fb 3d f2 28 a4 bd
       -0.06897598 0.028675864 0.12259015 -0.08015622
0003a0 a7 ed 6e bd 3e 2d 9a 3c fd fa cd bc ee ef c6 bc
       -0.05833211 0.018820401 -0.025144095 -0.02428433
0003b0 01 6a 96 3d 27 76 c6 bd ce c7 c8 bd 2d 0d 10 bc
       0.073444374 -0.096905045 -0.09803735 -0.008792204
0003c0 78 16 56 3d f1 55 9c bd 7e 68 04 be 9d fd fb 3c
       0.05226752 -0.076335795 -0.12930486 0.03076058
0003d0 8f 5f 03 be 32 2c c1 bd a5 ff d7 bd cc c4 9b bd
       -0.12829421 -0.09432258 -0.10546807 -0.076058954
0003e0 a1 6a 87 3b bb 94 0d 3b e1 ae 47 3d 95 2b ca 3b
       0.004132584 0.0021603543 0.048750762 0.006169746
0003f0 1b 43 80 3d f4 bd 6e 3d 4f 5b 97 bd 79 4d 8b 3d
       0.06262799 0.058286622 -0.073904626 0.06801886

update.0.weight f4 [128, 256]
000000 9d 23 de bc d0 61 90 3b b6 05 92 3d 3d 8e 83 3c
       -0.027116591 0.0044061914 0.071299955 0.016059035
000010 eb ab 9c bc 64 59 c0 3b 7b 4e 7d bd f4 96 0d 3d
       -0.019124946 0.005870031 -0.061842423 0.03456779
000020 86 e3 2b bd 68 13 52 bd 0f ed 09 3d fe b0 12 be
       -0.04196503 -0.05128804 0.033673342 -0.1432533
000030 31 82 dd 3d c9 8d 0c 3d a6 b6 5f 3d 58 0e 4f bd
       0.10815848 0.034314904 0.054617546 -0.05055079
000040 36 d9 1e be 48 5b 02 be 70 e2 08 be 4a 36 c0 3d
       -0.15512547 -0.12730134 -0.13367629 0.09385355
000050 5f 17 62 bb 42 0c 0e 3e b5 77 7f 3d bc 14 f6 3d
       -0.0034498794 0.13871863 0.06237002 0.120156735
000060 cd 47 a8 3b bf 60 4e be 6f a7 f7 3c ee 8c ad bd
       0.0051355124 -0.20154093 0.030231206 -0.08474146
000070 9e 0a 96 bd 0b b2 6b 3d 1d 69 c7 3c 57 f8 95 3c
       -0.07326244 0.057542842 0.024342114 0.018306894
000080 f6 e1 f5 bd 94 c7 dc 3a d5 cc 9f 3d e8 67 87 3b
       -0.12005989 0.0016844147 0.078027405 0.0041322596
000090 f4 80 98 bd 69 3d 9c bd a4 9f 5d bc 1d 2f 9a 3d
       -0.07446471 -0.076289006 -0.013526831 0.075285174
0000a0 20 43 c9 bd 4a a7 77 3d 21 01 19 3c 5b b8 a0 3d
       -0.09827256 0.060462274 0.009338648 0.07847663
0000b0 e6 b0 b6 3d d6 c4 b2 bc 0e ad 49 3b b5 66 02 be
       0.089204594 -0.021822374 0.0030773315 -0.12734492
0000c0 b5 20 d3 bc 0a 0f a7 3c 37 57 d5 3d 92 6a 31 3d
       -0.025772432 0.020392913 0.104170255 0.043314524
0000d0 c8 38 1a 3d 9a d9 e1 3b e2 73 00 3e 03 f9 93 3c
       0.037651807 0.006892395 0.12544206 0.018063074
0000e0 ce c8 87 bd e7 d4 41 3d f9 a0 79 3d 38 c8 0e be
       -0.06630097 0.04732218 0.06094453 -0.13943565
0000f0 21 c6 ee 3c bd 95 97 3b 5f 15 7c bc 13 97 26 be
       0.02914721 0.0046260045 -0.015385955 -0.16268568
000100 6b 80 91 3d 9b d0 1c bc 5c 08 d9 bd 48 bb 16 bd
       0.07104572 -0.00957122 -0.105972975 -0.0367997
000110 45 3e ac bd c9 e9 4b be e0 c7 8f 3d 0d 5f 5c 3d
       -0.084103145 -0.199134 0.07020545 0.053801585
000120 1e 4f 05 3c a4 28 fa 3d 4a 62 bb bd 9c d6 03 3c
       0.008136539 0.12214783 -0.091496065 0.008046772
000130 2e 38 81 bd ec 06 bd bd fc 39 1a be eb 47 07 bd
       -0.063095436 -0.09229836 -0.15061182 -0.03302757
000140 9f 0f c7 3d ab e9 76 3d ce 24 9f bd 16 bc 00 be
       0.09719776 0.060281437 -0.07770692 -0.12571749
000150 d7 29 41 bd 7a dd 01 3e d7 3b ee bc be 25 81 3d
       -0.047159042 0.12682143 -0.029081268 0.06306027
000160 34 cb 4c be 51 29 82 be 26 16 18 3d 6e 6f b7 bc
       -0.19999391 -0.25422147 0.037130497 -0.022392001
000170 50 4d 28 be 35 c9 08 be 9d 2b 90 bc ef f5 c2 3d
       -0.16435742 -0.13358004 -0.017598921 0.09519564
000180 ad 19 6f bd 9d 01 d7 bd e9 12 a6 bd 7d 1d e8 3c
       -0.058374096 -0.104983546 -0.081090756 0.028334374
000190 ba f4 18 bd 93 cc 8e 3c 68 bb 37 bd 6c 0c a9 3d
       -0.037342764 0.017431533 -0.04485646 0.082543224
0001a0 d2 e4 e4 bc 8c c0 b6 3d 00 25 06 bd 47 b4 7f 3d
       -0.027941141 0.08923444 -0.03275013 0.062427785
0001b0 78 ef 36 be 15 8a 83 3d 08 c2 ef 3d 83 18 a6 3c
       -0.17864788 0.064228214 0.117069304 0.02027536
0001c0 98 e4 62 3d 0a 0e 2e 39 02 56 0f 3d 8d 8e a5 bc
       0.055393785 0.00016599163 0.034994133 -0.020209575
0001d0 62 a2 1a bd c1 4e 4a bd 34 6d 18 3d 6c 8b c6 bd
       -0.037752517 -0.04939151 0.03721352 -0.09694561
0001e0 23 ee 99 3d a2 53 8c bc ad 8a ac 3d 52 81 84 3c
       0.07516124 -0.017129723 0.08424888 0.016174946
0001f0 41 53 c2 3d 90 53 6e 3c f2 38 a9 bd 84 6f 83 bc
       0.09488536 0.01454629 -0.082628146 -0.016044386
000200 c7 3d b1 bd 6b c1 b2 bc 38 df ec bd 22 41 5e bd
       -0.08654361 -0.021820744 -0.11566013 -0.054261334
000210 fe d3 1e 3d a5 d0 90 3c e1 cc 3a 3d ac 15 11 3c
       0.03877639 0.017677614 0.045605544 0.008855265
000220 f6 86 b3 3c c7 76 9a bd fd ff 52 3d 13 54 3f 3e
       0.02191494 -0.07542186 0.05151366 0.18684416
000230 7d 98 93 3c 21 86 8e 3b 6b 42 4a 3d 74 d7 28 bd
       0.018017048 0.0043494855 0.049379747 -0.041221097
000240 d9 24 a8 3d ef 58 2b 3d 0f 37 fa bc 68 56 15 bd
       0.08210153 0.04183286 -0.030543832 -0.036459357
000250 0a d5 c7 3d 55 d4 b1 3d f9 b6 f8 bd 4d 5f f9 bd
       0.09757431 0.08683077 -0.12144274 -0.1217638
000260 91 1b 0b be e4 22 db 3c 53 d6 00 be 05 1c ab 3d
       -0.13584734 0.026750036 -0.12581758 0.08354954
000270 04 a0 a5 3c 0e 86 b1 bd e8 02 fc bd 94 78 c9 bd
       0.020217903 -0.08668147 -0.12305242 -0.098374516
000280 f8 c2 3c bb 6f a4 6f 3c 9b 56 fc bc 5b 6c 46 3d
       -0.0028802734 0.014626606 -0.030803015 0.04844318
000290 bd 25 1f 3a 6c bf d4 3a 79 c9 6d 3d 6d 15 95 bd
       0.0006070992 0.0016231365 0.058053467 -0.07279477
0002a0 7c 7c 6c bd 2f 34 32 3d 05 52 16 3e cc 26 b1 bb
       -0.057735905 0.043506797 0.14679725 -0.0054062363
0002b0 bd a1 b0 bd 38 28 0b bd 8a e9 19 3c f6 3d fe 3c
       -0.08624599 -0.033973902 0.009394059 0.031035405
0002c0 55 08 21 bd 62 a2 93 3c b8 c0 2f 3e 9f fb 6d bd
       -0.039314587 0.018021766 0.1716336 -0.058101293
0002d0 00 43 22 3c 5a 8e b6 bc 85 b1 02 be 71 6b 59 3c
       0.009903669 -0.022284675 -0.12763031 0.013270245
0002e0 25 61 94 bd 18 77 8d 3c 5b c4 1d 3d ca 8d b2 3d
       -0.07245091 0.017268702 0.038517337 0.0871845
0002f0 e9 7b dd 3d 75 80 15 bd 7b 87 e3 3d b2 78 84 bd
       0.108146496 -0.03649946 0.11109825 -0.06468333
000300 df 6d be 3d 9d 2b b5 3c ed b3 bb ba 16 1e b1 3d
       0.092983 0.022115523 -0.001432059 0.086483166
000310 ea d5 13 bd 2f 63 13 bc 00 6e d7 3c ab 8c 43 3d
       -0.036092676 -0.008995815 0.02629757 0.047741573
000320 58 66 a8 3d 94 36 17 3d 7a 85 ad bd 8e 94 3f bd
       0.082226455 0.036917284 -0.08472724 -0.046772532
000330 e9 d7 3d 3d 14 a5 f3 bc bd b0 91 3d 40 f2 48 bc
       0.046348486 -0.029741801 0.07113788 -0.012264788
000340 de d2 7b bd 7e 58 41 bc a9 de ff bc 2c 36 9c 3d
       -0.061480395 -0.011800883 -0.031234102 0.0762752
000350 c3 8c 3f bd b4 9b 60 bd a7 fb 90 bd da 9a 32 be
       -0.0467651 -0.05483599 -0.07079249 -0.17441884
000360 96 2e 1f 3d 2b 85 b1 bd e0 1c d8 bd 5c a5 1e 3e
       0.038862787 -0.08667978 -0.105523825 0.15492767
000370 f3 89 a9 bc e7 ef b2 3d 6f 63 a3 3d b0 fd 27 bd
       -0.020695662 0.08737164 0.0797795 -0.04101342
000380 47 bd 85 3d 9d b3 85 bd 69 5b 0b 3d 8f 6e bf bb
       0.065302424 -0.06528399 0.034022722 -0.005842037
000390 f1 38 a0 bd b9 2a d8 3d c0 b8 e1 3c bf 00 d8 3d
       -0.07823361 0.10555024 0.027553916 0.10547017
0003a0 18 e1 12 3b 50 77 1b 3b 71 cb 27 3e b6 b3 59 bc
       0.0022411998 0.002372224 0.163862 -0.013287475
0003b0 5b 05 29 3d 29 39 18 be 75 2f 3a bd b2 ef be 3d
       0.041264873 -0.14865555 -0.045455415 0.09323062
0003c0 4f 8f cd 3d 3e 01 e7 bd 77 f8 28 bc cf 5b 39 bd
       0.100370996 -0.11279534 -0.010313145 -0.04525357
0003d0 50 b7 fb 3d e6 a2 31 bd e2 56 a2 3b 31 71 81 bb
       0.122908235 -0.043368243 0.004954205 -0.003950261
0003e0 70 57 10 3e 53 a1 58 bd 01 f8 8e bd 2a 49 09 bd
       0.14095855 -0.052888226 -0.06980897 -0.03351704
0003f0 06 9b 81 bc a5 3b 43 bd 4a cf 9c bd 8c 49 29 3e
       -0.015820991 -0.047664303 -0.07656725 0.16531962

update.0.bias f4 [128]
000000 f5 be 2e 3d ff dd 5f 3d 66 fe 9f 3d 8c 5e bc bc
       0.04266258 0.05465507 0.078121945 -0.022994302
000010 1d 11 84 bc 80 dc 5d 3d 12 d8 83 bd c6 d7 41 bc
       -0.016121441 0.054165363 -0.064376965 -0.01183123
000020 4a b9 de bb 5d b8 4f 3b a9 42 c2 b9 9f 80 cb bb
       -0.0067969905 0.0031695582 -0.0003705223 -0.006210401
000030 3d c5 d8 bc f9 b1 bb 3c 09 b9 3d 3c cc b2 59 3c
       -0.026461238 0.022912012 0.01157976 0.013287257
000040 40 b3 1e 3b 00 9d 62 3d 8d a9 49 3d bd 86 98 bb
       0.0024215728 0.055325508 0.04923396 -0.004654734
000050 9e 52 7c bc c3 1f dc 3c ca 99 05 3d 0a 97 58 3d
       -0.015400557 0.026870614 0.032617368 0.052878417
000060 cf d9 be bb f0 6d 7c 3d 61 18 44 3d 3a ef e2 bb
       -0.0058243047 0.061628282 0.047874812 -0.0069254907
000070 7b 40 6b 3a 6b 83 a0 bc 8b 17 6f 3d 5b 69 62 3d
       0.0008974147 -0.019593915 0.05837206 0.055276256
000080 2e eb 74 3d 6a f9 df bb 97 11 32 3c 3c c5 b5 3d
       0.059794597 -0.0068351524 0.010868452 0.0887551
000090 c9 7e 8e 3d fd 02 a8 3d 00 17 d1 3c ae 52 05 bc
       0.06957776 0.08203695 0.025523663 -0.008137388
0000a0 78 4b 87 bb 16 1b b1 3d fe b8 5a 3d 8b 7d 4f 3d
       -0.0041288696 0.08647744 0.05339908 0.050656836
0000b0 6b 96 8f 3c 69 ee de bc 40 ff a2 b9 7e cd eb bc
       0.01752778 -0.027213292 -0.00031089224 -0.02878451
0000c0 19 93 90 3d 43 bf dc 3c 8c 75 4e 3d 73 3c d7 3c
       0.07059307 0.02694667 0.05040507 0.026273942
0000d0 07 df 49 3d 98 12 ef 3c 67 98 2a 3b 88 55 01 3d
       0.04928496 0.02918367 0.002603078 0.03157571
0000e0 52 03 6d 3d 6d a6 e1 bb 9a 71 75 3d 49 28 24 3d
       0.057864495 -0.0068862946 0.059922792 0.04007748
0000f0 f9 48 03 3d e0 4f c3 bb f2 92 e8 bb 7a 7f d2 bc
       0.032052014 -0.0059604496 -0.0070975954 -0.025695551
000100 82 9d ac 3c e5 ce a3 bd c7 e0 28 3d 89 47 6f 3a
       0.0210712 -0.079984464 0.04122999 0.0009127786
000110 34 3f 3f 3d 18 35 30 3d d1 f8 51 3d 72 b4 5e 3d
       0.046691135 0.043019384 0.05126268 0.054371305
000120 c1 9c ca 3c ac d4 0c 3d bc 29 8f bc 64 19 97 bc
       0.02473295 0.034382507 -0.017475955 -0.018444724
000130 93 7e ac bb 9b 89 7d 3d d6 00 3e 3d a1 5d 9e 3c
       -0.0052641123 0.06189881 0.046387516 0.019331755
000140 7b 4a 9b 3c cd 17 39 3c b7 db 3d 3d 61 a5 cc 3b
       0.018956413 0.011297178 0.046352115 0.0062453006
000150 0d 95 af bc 64 41 59 3d 6c 0a a0 bc 2f 9a 28 3d
       -0.021433378 0.053040877 -0.01953622 0.041162666
000160 cd 1d 3b bb 88 d5 a0 bc fd 5f 2b bc df ff 26 3d
       -0.0028551698 -0.01963307 -0.010459897 0.04077136
000170 f3 2b f2 3c 2f c3 72 3c 80 73 3d 3d 99 aa ae bc
       0.029561972 0.014817043 0.046252728 -0.021321582
000180 18 87 6b 3d 96 34 24 3d f0 2d c1 3c 05 10 86 3d
       0.057501882 0.040089212 0.023581475 0.06546024
000190 55 e1 6a 3d ae 61 4f 3b 69 2f 06 3d 2c 1c 37 bc
       0.0573438 0.0031643915 0.032760058 -0.01117615
0001a0 05 ca 1b bc 73 70 72 3d 08 ba e3 3b 32 76 86 3d
       -0.009508614 0.05918927 0.006949667 0.06565513
0001b0 bd 1f 0e be 24 60 f7 3c 6a 2e 58 bd e7 b3 b0 3c
       -0.13879295 0.03019721 -0.05277864 0.02157016
0001c0 70 f8 2d 3d 7c 46 c2 3c 09 11 07 bd 57 21 11 3d
       0.042473257 0.02371525 -0.03297523 0.035432186
0001d0 f9 74 98 3d e5 16 51 bc e9 49 4c 3c ae 95 cc bd
       0.07444186 -0.012761806 0.012468793 -0.09989487
0001e0 cd 12 02 3d 52 3e ef 3c 33 50 8c 3d ff 15 e3 3a
       0.03175621 0.029204521 0.06851234 0.0017325281
0001f0 91 57 f8 3b b9 f9 ac 3d 20 08 c2 3c f3 f2 88 bd
       0.007578798 0.08446068 0.023685515 -0.06686964
