models/ss/na7_uc.pt (torch_old, 953894 bytes, 161 tensors)

encoder.0.weight f4 [128, 4]
0	0x3c7a16c0	0.015264213
1	0x3bccf6ec	0.0062550213
2	0xbd877e73	-0.06615915
3	0xbeceacc1	-0.40366176
4	0x3d487679	0.04894111
5	0xbcc3e95d	-0.023914987
6	0x3e5abde5	0.21361502
7	0x3e139da0	0.14415598
8	0xbddb7d08	-0.10717207
9	0x3dd502df	0.10400938
10	0x3c5b050f	0.013367905
11	0x3b38844d	0.002815503
12	0x3d39287f	0.045204636
13	0xbdc6843b	-0.0969319
14	0xbe9b15c8	-0.30290055
15	0xbc11282f	-0.008859678
16	0xbe3b0908	-0.18265164
17	0xbdf60afd	-0.120138146
18	0xbdb225bd	-0.08698604
19	0x3c8c8d14	0.017157115
20	0xbddacacb	-0.10683211
21	0xbe157baf	-0.14597963
22	0x3ce90ea5	0.028449366
23	0xbcdf3b75	-0.027250031
24	0x3d421789	0.047385726
25	0xbbc34c11	-0.0059599956
26	0xbe66ac3c	-0.2252664
27	0xbe844d79	-0.25840357
28	0xbd8cfb58	-0.068838775
29	0xbce65489	-0.028116481
30	0xbe301525	-0.17195566
31	0x3e21c82f	0.1579902
32	0x3d840e84	0.06448081
33	0x3d5ac5a2	0.053411134
34	0x3e2d1a71	0.16904618
35	0xbe2a0e2e	-0.16606972
36	0xbea4d001	-0.32189944
37	0x3e3c5fc4	0.18395907
38	0xbd60c36b	-0.054873865
39	0x3c94ec9a	0.018179227
40	0x3c44d051	0.012012557
41	0x3d0511a6	0.032487534
42	0xbe0712b5	-0.1319073
43	0xbcd0d286	-0.02549101
44	0x3dd0e5c7	0.102000766
45	0xbe468f73	-0.19390659
46	0x3d8b85bb	0.068126164
47	0xbe75caf4	-0.24003202
48	0x3c0b75a4	0.008511934
49	0x3be1e2eb	0.006893506
50	0xbdb1b883	-0.08677771
51	0x3ec9b9fb	0.39399704
52	0xbe565b38	-0.20933235
53	0x3dd0cd84	0.10195449
54	0x3ddf1804	0.108932525
55	0xbc157775	-0.009122719
56	0xbd9e2447	-0.07721763
57	0xbd705237	-0.058672156
58	0xbc7038ff	-0.014662026
59	0x3e190659	0.14943828
60	0xbb783378	-0.0037872475
61	0x3da73dc3	0.08166077
62	0xbd45ef97	-0.048324194
63	0xbc3b4967	-0.011431075
64	0xbe05b789	-0.13058294
65	0xbd763ebd	-0.060118426
66	0x3d5700d3	0.05249102
67	0x3d07ffbb	0.033202868
68	0xbd4410b8	-0.047867507
69	0xbcb7d902	-0.022442345
70	0xbe35ec65	-0.17765959
71	0x3e14e26f	0.14539503
72	0xbde4c295	-0.11169926
73	0xbda99146	-0.08279662
74	0x3d7f7b01	0.062373165
75	0x3c8b1354	0.01697699
76	0xbe17d886	-0.14828691
77	0xbd86c7ca	-0.065810755
78	0xbe691b14	-0.22764236
79	0xbdc271f2	-0.094943896
80	0x3d0518ef	0.03249448
81	0x3ca6e676	0.020373564
82	0x3e542d1f	0.20720337
83	0x3d77f045	0.060531873
84	0xbd668f25	-0.056288857
85	0x3cdb7a97	0.026791854
86	0xbd04c1c0	-0.032411337
87	0xbc6efef4	-0.014587153
88	0xbd5e8bd7	-0.05433258
89	0xbd98668c	-0.07441434
90	0xbd690696	-0.056891046
91	0x3d44c509	0.04803947
92	0x3c69cfcd	0.014270735
93	0xbdb3c556	-0.08777873
94	0x3e0a60b1	0.13513447
95	0xbe92d67d	-0.28679267
96	0xbc38e757	-0.0112856245
97	0x3a25cbe4	0.00063246326
98	0xbe025802	-0.12728885
99	0x3d2cdbfa	0.042201973
100	0xbdeecdca	-0.11660345
101	0x39c28e73	0.00037108696
102	0x3d7a0bad	0.06104629
103	0xbccc4fb3	-0.024940347
104	0xbd7bf90e	-0.061516814
105	0x3d7fb6e4	0.062430277
106	0xbcbb5b20	-0.0228706
107	0xbe567cb3	-0.20946006
108	0x3be388ae	0.0069437837
109	0x3da6dac5	0.08147196
110	0xbce92bb1	-0.028463216
111	0xbc86a021	-0.016433777
112	0x3dd4005d	0.10351632
113	0x3e9f2f0f	0.3109059
114	0xbd758f62	-0.059951194
115	0xbdf86e68	-0.12130433
116	0x3c037af4	0.00802492
117	0xbd17aaf9	-0.037028287
118	0x3c6b116a	0.014347414
119	0xbe437c37	-0.19090353
120	0xbd16114d	-0.036637593
121	0x3df1dd2a	0.11809762
122	0xbc9a675f	-0.01884812
123	0x3d70338b	0.058642905
124	0x3dc379a7	0.09544688
125	0xbd0481bf	-0.032350298
126	0x3cdac5e9	0.026705699
127	0x3ddb122f	0.106968276
128	0xbd648186	-0.055787586
129	0xbd9ef94a	-0.07762392
130	0x3e6d03a6	0.23145923
131	0x3df39dd6	0.11895339
132	0xbb7dc15f	-0.0038719994
133	0x3aa9f6e0	0.0012967251
134	0x3e3f5e03	0.18688206
135	0xbe7f7d41	-0.24950124
136	0xbd0cd2c8	-0.034380704
137	0x3ccf8211	0.025330575
138	0x3da376af	0.079816215
139	0x3e1b05b7	0.15138899
140	0x3e1e2c4d	0.15446587
141	0x3d7f3ad5	0.062311966
142	0x3cdf6ee9	0.027274566
143	0xbc8293ae	-0.01593956
144	0x3c463e56	0.012099823
145	0xbcca0c26	-0.024663996
146	0xbc6b107d	-0.014347193
147	0xbdf0ecff	-0.117639534
148	0xbd061822	-0.03273786
149	0x3da6312c	0.081148475
150	0x3d87fb63	0.06639745
151	0xbdc708b0	-0.09718454
152	0xbdf6c985	-0.120501556
153	0xbc92aa38	-0.017903432
154	0xbd632360	-0.055453658
155	0x3cbf3edf	0.023345409
156	0x3d3c7676	0.04601141
157	0xbe1dabca	-0.15397564
158	0xbddf5132	-0.10904159
159	0xbba0c3c9	-0.004906152
160	0xbc673183	-0.014110926
161	0xbc66e62c	-0.014092963
162	0x3d4d5f0e	0.05013948
163	0xbe189e7b	-0.14904206
164	0xbdb8ed05	-0.09029583
165	0x3dedb3c1	0.11606551
166	0x3db1b6cb	0.08677443
167	0x3e475c12	0.19468716
168	0xbbe89023	-0.0070972606
169	0x3cc57fb2	0.024108741
170	0x3d59e68d	0.053198386
171	0x3dfa050f	0.12207996
172	0x3c917c41	0.017759444
173	0xbd0b0517	-0.0339404
174	0x3dac493d	0.084124066
175	0xbe1259e7	-0.14292108
176	0x3d93a7de	0.072097525
177	0x3d8a7271	0.06760109
178	0x3ec7e2c3	0.39040193
179	0x3e467cd7	0.1938356
180	0x3d660e57	0.05616602
181	0x3d5ed10f	0.054398593
182	0x3d172250	0.036897957
183	0xbd16af50	-0.036788285
184	0x3c1b51c3	0.009479943
185	0xbd2d6ee1	-0.04234207
186	0x3e067e3d	0.13134094
187	0xbe47ebab	-0.19523494
188	0xbddbbedb	-0.10729762
189	0x3e27da9b	0.16391985
190	0xbead7aaa	-0.33882648
191	0x3e080a23	0.13285117
192	0xbac8e048	-0.001532563
193	0x3c7146a9	0.014726319
194	0x3e175b87	0.14781009
195	0xbe19cce7	-0.1501957
196	0xbd3f1fcf	-0.046661194
197	0x3cd4b998	0.025967404
198	0xbc58ec0b	-0.013239871
199	0x3e156a18	0.14591253
200	0xbc12a7dd	-0.008951155
201	0x3d13bbcd	0.036067773
202	0x3dcebd32	0.1009468
203	0xbbbb4df6	-0.005716081
204	0x3d4456f2	0.04793448
205	0x3cac65e2	0.021044675
206	0x3e533fd7	0.20629822
207	0xbbb08262	-0.0053866366
208	0xbd7d415a	-0.061829902
209	0xbcb209d3	-0.0217332
210	0xbc04a098	-0.008094929
211	0xbd2c8042	-0.042114504
212	0xbe139276	-0.14411339
213	0x3d8181ab	0.0632356
214	0xbcfd6059	-0.030929731
215	0x3c857a79	0.016293751
216	0x3dd29976	0.102831766
217	0xbe40541d	-0.18782087
218	0x3d7a3dd2	0.061094113
219	0x3d9785fa	0.07398601
220	0x3d343640	0.04399705
221	0x3d06bae9	0.032893095
222	0x3e9121e4	0.2834617
223	0x3d617406	0.05504229
224	0xbba06e39	-0.004895952
225	0x3b457358	0.0030128565
226	0xbe831901	-0.25605014
227	0x3e405102	0.18780902
228	0xbd220919	-0.039559457
229	0xbcb652ea	-0.022256333
230	0xbe42c713	-0.19021253
231	0xbbd66e9a	-0.0065439465
232	0x3d0b7196	0.03404387
233	0xbce59cd2	-0.02802888
234	0xbd6c262c	-0.05765359
235	0xbe01c3cb	-0.12672345
236	0xbdbb53cb	-0.091468416
237	0x3c97c2c7	0.018525494
238	0xbdffa04a	-0.124817446
239	0xbc0a9e91	-0.008460657
240	0x3d25a602	0.04044152
241	0xbc561c38	-0.013068251
242	0xbdf0a7b0	-0.11750734
243	0xbd363449	-0.044483457
244	0xbd83f920	-0.06444001
245	0x3d4ac28b	0.049501937
246	0x3e684646	0.22683057
247	0x3cb2d76e	0.02183124
248	0xbdd005bd	-0.101573445
249	0xbd183bbf	-0.037166353
250	0xbd1231b9	-0.03569195
251	0x3d1431c9	0.03618029
252	0x3c0f2287	0.008736259
253	0x3df886a6	0.12135057
254	0x3d0e77ea	0.034782328
255	0xbdc6ce0c	-0.09707269

encoder.0.bias f4 [128]
0	0xbc1cf986	-0.009580975
1	0x3dd563a2	0.10419394
2	0x3e19248d	0.1495535
3	0x3da26aa4	0.07930496
4	0x3d4b5b20	0.04964745
5	0x3e07fb73	0.13279514
6	0x3cc8cbca	0.024511237
7	0x3b56b0a1	0.0032759088
8	0x3d9527ee	0.072830066
9	0x3d8ada0b	0.0677987
10	0x3e2693e7	0.16267358
11	0x3dd7ecdf	0.105432265
12	0xbd66771c	-0.056265935
13	0xbcd9b456	-0.026575249
14	0x3e3a7671	0.18209244
15	0x3de04ed3	0.109525345
16	0x3db63e5f	0.08898615
17	0x3d567142	0.052354105
18	0x3df40020	0.11914086
19	0xbd275281	-0.040850166
20	0x3d33fab1	0.04394025
21	0x3de737ab	0.11289915
22	0x3df1339b	0.11777421
23	0x3c9c6fde	0.019096311
24	0x3e23016c	0.15918511
25	0x3dd28c9c	0.10280725
26	0x3e390180	0.18066978
27	0x3d8f6d22	0.07003237
28	0xbc122d69	-0.008921959
29	0x3e141990	0.14462876
30	0x3e0845b2	0.13307837
31	0x3e040245	0.12891491
32	0x3bba88a4	0.0056925584
33	0x3ddf9bd1	0.109183915
34	0x3e49257d	0.19643207
35	0x3dd6ca04	0.1048775
36	0x3dfba203	0.12286761
37	0x3e2dcfe5	0.16973837
38	0x3d915b3d	0.070974804
39	0x3d9279a5	0.07152108
40	0x3e253f44	0.16137415
41	0x3dec3408	0.11533362
42	0x3e17cf70	0.14825225
43	0x3e07e203	0.1326981
44	0xbde6513d	-0.11245964
45	0x3db67539	0.08909077
46	0x3e58bcbf	0.21165751
47	0x3cd62556	0.02614085
48	0x3dc3908f	0.09549057
49	0x3e2e2251	0.17005278
50	0x3e00e666	0.1258789
51	0x3e3a6293	0.18201666
52	0x3de69903	0.112596534
53	0x3e01ce04	0.12676245
54	0x3de9bc17	0.114128284
55	0x3e0a0317	0.13477741
56	0x3e1cd62f	0.1531608
57	0x3e5643ab	0.20924251
58	0x3e19f898	0.15036237
59	0x3d9995c3	0.07499268
60	0x3e224169	0.15845264
61	0xbc8e6404	-0.017381676
62	0x3e075ebf	0.13219737
63	0x3e0426d5	0.12905438
64	0xbcca69d1	-0.02470866
65	0x3dc32c9f	0.09529995
66	0xbbaae493	-0.0052152365
67	0x3df6d8e5	0.12053088
68	0x3e11c60e	0.14235708
69	0x3e329b44	0.17442042
70	0x3e07d185	0.13263519
71	0x3e0a24de	0.13490626
72	0xbcdef720	-0.027217448
73	0xbce108aa	-0.027469952
74	0xbca9eb70	-0.020742148
75	0x3e047398	0.1293472
76	0x3dd8a205	0.10577778
77	0xbd39e003	-0.04537965
78	0x3dce5cc6	0.10076289
79	0x3cc9ea73	0.024647927
80	0x3d9e2ca9	0.07723362
81	0x3e04a9ac	0.1295535
82	0x3e2c95cf	0.16854022
83	0x3c4d3816	0.012525579
84	0xbd90588e	-0.070481405
85	0xbccee0c8	-0.025253668
86	0x3c91342c	0.017725073
87	0xbc87b700	-0.016566753
88	0x3e0d26fb	0.13784401
89	0x3e4b0520	0.19826174
90	0xbd65e44c	-0.056125924
91	0x3da8ec87	0.08248239
92	0x3df4958d	0.11942587
93	0xbcdb79bf	-0.026791451
94	0x3e52d95a	0.20590726
95	0x3d8afa99	0.06786079
96	0x3e18216a	0.14856496
97	0xbd22475a	-0.039618827
98	0x3e0f75df	0.14009808
99	0x3c324afc	0.0108821355
100	0x3e234164	0.15942913
101	0x3ce0e154	0.027451195
102	0x3e0774fa	0.13228217
103	0x3dd65e6c	0.10467228
104	0x3dc26170	0.09491241
105	0xbd1e6607	-0.03867152
106	0x3e531fb3	0.20617561
107	0x3e1f105a	0.15533581
108	0xbdc21eee	-0.094785556
109	0x3d768a7d	0.060190666
110	0x3e1eb109	0.15497221
111	0x3e730943	0.23734002
112	0x3db9660b	0.09052666
113	0x3ce8471a	0.028354216
114	0x3e248843	0.16067605
115	0x3e03a6b7	0.12856565
116	0x3cc5c481	0.024141552
117	0x3e08f0a4	0.13373047
118	0x3defb030	0.11703527
119	0x3e56a7e2	0.2096248
120	0x3d27b434	0.04094334
121	0x3e249997	0.16074215
122	0x3e189cef	0.14903615
123	0x3dbc899a	0.09205933
124	0x3e19bf02	0.1501427
125	0x3d6141d2	0.05499441
126	0x3df6ee33	0.12057152
127	0x3dcf7a1e	0.10130714

messages.W_query f4 [1, 128, 128]
0	0x3e1c827d	0.15284152
1	0x3d415b7a	0.04720638
2	0x3d172ca3	0.036907803
3	0x3c86d62c	0.016459547
4	0xbd817146	-0.06320433
5	0xbc70c7fe	-0.014696119
6	0x3e2479f0	0.1606214
7	0x3ca2e9ca	0.01988687
8	0x3a991d14	0.001168164
9	0x3cd6de98	0.026229188
10	0xbd0b5f0e	-0.034026198
11	0x3e2a0bd8	0.1660608
12	0x3c259a0e	0.01010753
13	0xbde0ae80	-0.10970783
14	0xbcce37d4	-0.025173105
15	0x3dd75e28	0.10516006
16	0x3dbf2081	0.093323715
17	0x3d14c45b	0.03632007
18	0xbd9d58b3	-0.07682934
19	0x3d649e5e	0.055815093
20	0xbba75da9	-0.0051076007
21	0x3dc3e6dd	0.09565518
22	0x3e4a341a	0.19746438
23	0x3d9d9c0d	0.0769578
24	0x3d3c1bae	0.045924835
25	0xbd9365f4	-0.071971804
26	0xbcb79df3	-0.022414183
27	0x3da8cf83	0.08242705
28	0xbe016c4f	-0.12638973
29	0x3d65d134	0.056107715
30	0xbda600eb	-0.08105644
31	0x3bf87ddf	0.0075833644
32	0xbb6db331	-0.0036270136
33	0x3dc3d069	0.095612355
34	0x3c83caf9	0.016087996
35	0xbcc8c50c	-0.024508022
36	0xbd93cd8c	-0.07216939
37	0xbdc44529	-0.09583504
38	0xbc296928	-0.010340013
39	0xbc232829	-0.009958305
40	0x3daca4a5	0.08429841
41	0x3e2b3c96	0.1672233
42	0xbd054ffd	-0.032546986
43	0x3a84c9b0	0.0010130908
44	0xbe3368c6	-0.17520437
45	0x3d5062b2	0.050875373
46	0x3d753b16	0.059870802
47	0x3c41cd06	0.011828667
48	0x3d0bfdf6	0.034177743
49	0xbd556294	-0.052095965
50	0xbdaeade5	-0.085292615
51	0xbd4a351e	-0.049367063
52	0x3be385c1	0.006943435
53	0x3c910a1c	0.017705016
54	0x3da7d503	0.08194926
55	0xbe11b999	-0.14230956
56	0xbd3a457e	-0.04547643
57	0x3e022c74	0.1271227
58	0x3b6cc20b	0.00361264
59	0x3e0a04cc	0.13478392
60	0xbda0df18	-0.07855052
61	0xbd27a92d	-0.040932823
62	0x3e3e9e17	0.18614994
63	0x3c6c4a99	0.014422082
64	0x3a94295e	0.0011303832
65	0xbce37a1b	-0.027768185
66	0x3d2e1547	0.04250076
67	0xbd27f001	-0.04100037
68	0x3bf26114	0.0073968265
69	0x3e7e451e	0.24831054
70	0x3de38c42	0.111107364
71	0x3d968c0b	0.0735093
72	0x3ce3c7ba	0.027805198
73	0x3db33606	0.087505385
74	0x3de223ab	0.110419594
75	0x3ab8c876	0.0014097828
76	0xbdd8552c	-0.1056312
77	0x3dc673ce	0.09690057
78	0x3dd45c98	0.10369223
79	0xbc94b4ab	-0.018152555
80	0x3da4dea5	0.080502786
81	0xbe501798	-0.203215
82	0xbd7b5aca	-0.06136588
83	0x3dd44821	0.1036532
84	0x3d26ef6b	0.04075567
85	0x3e4dc5e7	0.20095025
86	0x3d41d476	0.04732176
87	0xbe3a37ba	-0.1818532
88	0xbd91b8d3	-0.071153305
89	0xbd06d75b	-0.032920223
90	0xbb7a8880	-0.0038228333
91	0x3d9484ba	0.07251878
92	0x3e4be94f	0.19913219
93	0x3e091a91	0.1338904
94	0x3dfbc041	0.12292529
95	0xbd3d7a68	-0.046259314
96	0xbdbf3117	-0.09335535
97	0xbdcb63d8	-0.09931153
98	0xbcc94f20	-0.024573863
99	0x3da7df31	0.08196867
100	0x3d240b9f	0.040050145
101	0xbdc48fed	-0.09597764
102	0x3c95ce43	0.01828683
103	0x3d97a87c	0.07405183
104	0x3d747fab	0.059692066
105	0x3d2f0a47	0.04273441
106	0xbdb41d83	-0.087946914
107	0xbd33bba7	-0.04388013
108	0x3d2d5729	0.04231945
109	0x3b9bc865	0.0047541135
110	0xbc62f9ac	-0.013853472
111	0x3df36aca	0.11885603
112	0xbe8c585e	-0.2741117
113	0xbd054fba	-0.032546736
114	0x3d381cbe	0.044949286
115	0xbe189357	-0.14899956
116	0x3ca390c1	0.019966485
117	0x3e155b5d	0.14585634
118	0xbddcda1f	-0.10783791
119	0x3d83f0a8	0.06442386
120	0xbd87bf4f	-0.06628286
121	0x3d69fc31	0.057125274
122	0xbe101cb3	-0.14073448
123	0xbda18c57	-0.07888096
124	0xbbb31147	-0.005464706
125	0x3c3398cc	0.010961723
126	0xbca1d013	-0.019752538
127	0xbd63fd15	-0.05566128
128	0x3dab0011	0.08349622
129	0x3df1df39	0.118101545
130	0x3d673479	0.056446526
131	0x3ba9bc4b	0.005179917
132	0xbc81865b	-0.015811136
133	0x3b82adce	0.0039880043
134	0x3b925d89	0.0044667167
135	0x3d95c0e4	0.073121816
136	0xbddcea35	-0.10786859
137	0x3d9a5c71	0.07537163
138	0x3d79abff	0.060955044
139	0xbdd1be5f	-0.102413885
140	0x3d7df1a7	0.061998036
141	0xbd637c28	-0.055538327
142	0xbe338062	-0.17529443
143	0x3da5cdee	0.080959186
144	0x3b3dc03d	0.0028953694
145	0xbe1d39da	-0.153541
146	0xbe32e848	-0.17471421
147	0x3d3afe49	0.04565266
148	0xbd709592	-0.05873639
149	0x3c264ccb	0.010150145
150	0x3d2cfe17	0.042234506
151	0x3d21a32e	0.03946226
152	0x3d11c959	0.03559241
153	0x3ded01cc	0.11572608
154	0x3e2b71f2	0.16742685
155	0xbd285c24	-0.041103497
156	0x3aac77d8	0.0013158275
157	0xbd803212	-0.0625955
158	0xbd71d1ce	-0.059037976
159	0xbe0448f7	-0.12918459
160	0xbb4f7e8a	-0.0031661117
161	0x3d617348	0.05504158
162	0xbc4a6709	-0.012353667
163	0x3d68be33	0.056822013
164	0x3c13718a	0.008999238
165	0x3e01f265	0.12690122
166	0xbd493d05	-0.04913046
167	0x3e11bf4e	0.14233133
168	0xbcb0020d	-0.021485353
169	0xbd5dd6e4	-0.054160014
170	0x3d89d5b4	0.06730214
171	0x3d17dfdc	0.037078723
172	0xba83d0f7	-0.0010056783
173	0xbd21fd22	-0.039548047
174	0xbda1df27	-0.07903891
175	0xbdb871e1	-0.09006096
176	0x3cc6e865	0.024280736
177	0xbe1ba05d	-0.15197892
178	0x3c112641	0.008859218
179	0x3d279594	0.040914133
180	0xbdcec937	-0.100969724
181	0xbd47b742	-0.048758753
182	0xbd7f74cf	-0.062367257
183	0x3dc457e7	0.095870785
184	0x3cd3ec28	0.025869444
185	0xbe19b94a	-0.15012088
186	0xbd8cc829	-0.06874115
187	0x3d9869e3	0.07442071
188	0x3d43416b	0.04766981
189	0x3e0b0f77	0.13580118
190	0xbd65a334	-0.056063846
191	0x3b93f834	0.004515672
192	0x3dc8eb8e	0.098105535
193	0xbafa1479	-0.0019079588
194	0xbd0220e3	-0.031769644
195	0x3d9cce75	0.07656566
196	0x3d1d9746	0.038474344
197	0xbcc04e42	-0.023474816
198	0xbd0d6393	-0.03451879
199	0x3c7320dd	0.014839378
200	0x3c83b9ab	0.016079744
201	0x3c8a6303	0.016892916
202	0x3df2cbb7	0.11855262
203	0xbde455b6	-0.111491606
204	0xbd99e06c	-0.07513508
205	0x3d142286	0.036165737
206	0xbcc233bc	-0.02370631
207	0x3cec7e05	0.028868685
208	0x3db10607	0.08643728
209	0x3d2ac5a8	0.041692406
210	0xbba0c81b	-0.004906667
211	0x3d5191f3	0.05116458
212	0xbcc98104	-0.024597652
213	0xbdb43932	-0.08799972
214	0x3d5fbce0	0.054623485
215	0xbc79425b	-0.015213574
216	0x3bcd51bd	0.0062658475
217	0xbd946e2f	-0.07247578
218	0xbbe62d56	-0.0070244474
219	0xbc00325d	-0.007824508
220	0xbb8593ac	-0.0040764417
221	0xbcb33795	-0.02187709
222	0xbbd57857	-0.00651459
223	0xbc92bffc	-0.01791381
224	0xbd1ffbf8	-0.039058656
225	0x3e09666d	0.13417979
226	0x3c09a64a	0.008401463
227	0xbdae0103	-0.08496287
228	0xbdaf8c6c	-0.08571705
229	0x3cb4b185	0.022057304
230	0x3d4a6f8f	0.049422797
231	0xbd69818d	-0.057008315
232	0xbd50f72f	-0.051016983
233	0x3dbfc7e3	0.09364297
234	0xbd18bbad	-0.037288357
235	0x3d57a9b6	0.052652083
236	0x3de29a07	0.11064535
237	0x3e14596b	0.14487235
238	0x3d817d46	0.06322722
239	0xbd1ad96b	-0.037805002
240	0x3cfd87a5	0.03094847
241	0x3e002d5a	0.125173
242	0xbce08ae5	-0.02740998
243	0x3d7806de	0.060553424
244	0x3ddff017	0.109344654
245	0xbd8c3a82	-0.06847097
246	0xbe12516f	-0.14288877
247	0xbddf1527	-0.10892706
248	0xbcfc40b3	-0.03079257
249	0x3d2b7bb1	0.04186601
250	0xbd8176d3	-0.06321492
251	0xbd1fa7ca	-0.038978375
252	0x3d8f771d	0.07005141
253	0x3da06e21	0.078335054
254	0x3c40e810	0.011774078
255	0xbd8c57df	-0.068526976

messages.W_key f4 [1, 128, 128]
0	0x3d043f14	0.03228672
1	0xbe331253	-0.17487459
2	0xbda4506f	-0.08023154
3	0x3d351db6	0.044217788
4	0x3dbd9b54	0.09258142
5	0x3de0f437	0.1098408
6	0x3d81a59c	0.063304156
7	0xbd2fb635	-0.042898376
8	0xbd919864	-0.07109144
9	0x3b4bd0ca	0.003109979
10	0xbdc6314e	-0.09677373
11	0x3d208e50	0.03919822
12	0xbc40cd40	-0.011767685
13	0xbc79598d	-0.0152191045
14	0xbd240915	-0.040047724
15	0x3c0f0a78	0.008730523
16	0xbdbc8bdb	-0.09206363
17	0x3d6ceee0	0.057844996
18	0xbdacab69	-0.084311314
19	0x3dafd12e	0.0858482
20	0xbda5392a	-0.08067544
21	0xbc7d3fee	-0.015457137
22	0xbd2dad61	-0.042401675
23	0xbda67a2a	-0.0812877
24	0xbd39d944	-0.045373216
25	0x3d717c17	0.058956232
26	0x3ceb550c	0.028727077
27	0xbd7e24da	-0.062046863
28	0xbe390fdc	-0.18072456
29	0xbe49b12c	-0.19696492
30	0xbd91438a	-0.0709296
31	0x3d9f488e	0.077775106
32	0x3e433bdb	0.19065802
33	0x3d0ad20c	0.033891723
34	0xbcdea0b4	-0.027176239
35	0x3c23f108	0.010006197
36	0x3d839204	0.06424335
37	0xbc299806	-0.010351187
38	0xbd3a3d61	-0.04546869
39	0xbe058539	-0.13039102
40	0xbca1377c	-0.019679777
41	0x3e922caf	0.28549716
42	0xbdf296a3	-0.11845138
43	0x3cb4d034	0.022071935
44	0x3d2ac60b	0.041692775
45	0x3e2786ca	0.16360012
46	0xbe17b588	-0.14815342
47	0xbda57b96	-0.08080213
48	0xbd5e9180	-0.05433798
49	0x3dd2a42c	0.102852196
50	0xbcb6b77e	-0.022304293
51	0x3df6d9bd	0.12053249
52	0xbdb26dc3	-0.08712342
53	0x3dcfc9a4	0.10145882
54	0x3e515938	0.2044419
55	0xbd30f4cf	-0.043202218
56	0xbe04834f	-0.12940715
57	0xbceb7ede	-0.028747018
58	0x3d1431f4	0.03618045
59	0xbe2b70d2	-0.16742256
60	0xbc9c8809	-0.019107835
61	0xbdab25f2	-0.08356847
62	0x3b266500	0.002538979
63	0xbe1c5b1c	-0.1526913
64	0xbe622e02	-0.22087863
65	0x3d903444	0.07041219
66	0xbd84f3ab	-0.064917885
67	0xbdd6afe6	-0.10482769
68	0x3d4c6058	0.049896568
69	0x3d7dc1eb	0.061952513
70	0xbda6b749	-0.081404276
71	0x3bbf3490	0.0058351234
72	0xbdd5fdb6	-0.10448782
73	0x3db9a351	0.09064353
74	0xbd92c088	-0.07165629
75	0x3e206a0a	0.1566545
76	0x3db8af83	0.09017851
77	0x3ba9ff21	0.0051878844
78	0xbda408a3	-0.0800946
79	0xbe73c0fa	-0.23804083
80	0xbd2d36e7	-0.042288687
81	0xbe37ed42	-0.179616
82	0x3c9bc9fe	0.019017216
83	0xbc4d1b01	-0.012518645
84	0x3e33aa7e	0.17545506
85	0x3d3c9bf0	0.04604715
86	0x3df508aa	0.11964543
87	0xbdb2c1c9	-0.08728368
88	0xbde1e0df	-0.11029219
89	0x3d7e9621	0.062154893
90	0xbda7f07c	-0.08200166
91	0xbc63732c	-0.01388244
92	0xbe1660bd	-0.1468534
93	0xbe1969da	-0.14981785
94	0x3d81ee67	0.063443
95	0xbe3d7336	-0.1850098
96	0x3e05262d	0.13002844
97	0xbdd9c72e	-0.10633694
98	0xbd61d94f	-0.055138882
99	0x3d78ed48	0.060773164
100	0xbd51fefd	-0.051268566
101	0xbd8d5f7c	-0.06902978
102	0xbd4b3fea	-0.0496215
103	0x3d6d69df	0.057962295
104	0xbdef233d	-0.11676643
105	0x3da2022e	0.07910572
106	0x3d61dab6	0.05514022
107	0xbbde2418	-0.006779205
108	0xbdc3fd67	-0.09569817
109	0x3ca46f8d	0.020072723
110	0xbe752d3b	-0.23943035
111	0xbd3ea907	-0.046547916
112	0xbdc1c3c8	-0.094611704
113	0xbc6b3bdb	-0.014357532
114	0xbce5fbfd	-0.028074259
115	0xbde0e67d	-0.10981462
116	0xbdc61f92	-0.0967399
117	0xbdca6f2b	-0.09884485
118	0xbde13204	-0.10995868
119	0xbd91e19b	-0.07123109
120	0x3d8654e8	0.06559163
121	0xbe3b9e2b	-0.18322055
122	0x3bd33d60	0.0064465255
123	0xbe6ca6ed	-0.23110552
124	0xbe23aca3	-0.15983824
125	0xbd8e39bd	-0.069446065
126	0xbd014106	-0.03155615
127	0xbe1c9440	-0.15290928
128	0xbcda454c	-0.026644371
129	0xbda59042	-0.080841556
130	0xbd922145	-0.07135252
131	0x3e072db5	0.1320103
132	0x3de0c57f	0.109751694
133	0x3e0241b0	0.1272037
134	0x3d903a6d	0.07042394
135	0xbd3c1894	-0.045921877
136	0xbcc75076	-0.024330359
137	0xbe77de56	-0.24205908
138	0xbd713fe3	-0.058898818
139	0x3d2d0da5	0.04224934
140	0xbca59620	-0.020213187
141	0x3e00742e	0.12544319
142	0xbc1dcf95	-0.009632011
143	0x3cc21c94	0.023695268
144	0x3d0b05e8	0.03394118
145	0xbe07fbe6	-0.13279685
146	0x3d9b3a94	0.07579532
147	0x3d8db081	0.06918431
148	0x3cc3a4b0	0.02388224
149	0x3c37125e	0.011173813
150	0x3dfa3cd7	0.122186355
151	0x3c67e93f	0.014154731
152	0xbcfa65d3	-0.030566132
153	0x3cad8901	0.021183493
154	0x3e0e8ca9	0.13920845
155	0x3c6ba836	0.014383366
156	0x3e1cb11c	0.15301937
157	0xbd910b18	-0.07082194
158	0xbc78660c	-0.015161049
159	0x3cecd4e1	0.028910102
160	0xbdc2c363	-0.09509923
161	0xbd4872d1	-0.048937622
162	0x3c4bbc9f	0.0124351075
163	0x3d7a598e	0.061120562
164	0x3e41fbdf	0.18943737
165	0x3dfcd978	0.12346166
166	0xbc5fca33	-0.013659048
167	0xbd4f7830	-0.05065173
168	0xbde2f6db	-0.1108224
169	0xbcb82db5	-0.022482732
170	0xbd58a89e	-0.05289518
171	0xbdbdcf24	-0.092680246
172	0xbc7148be	-0.014726816
173	0xbc237e82	-0.009978892
174	0xbd2fc1ce	-0.042909436
175	0x3cb0aac9	0.021565812
176	0xbd9619af	-0.073291175
177	0x3c533e65	0.012893294
178	0x3cdb8329	0.02679594
179	0xbdaef7b6	-0.08543341
180	0x3d58356c	0.052785322
181	0xbe1bf9a3	-0.15231948
182	0x3d841a0e	0.06450282
183	0x3cfcf82f	0.030880062
184	0xbd63a704	-0.0555792
185	0xbd8b376c	-0.0679768
186	0x3cb493a6	0.02204306
187	0x3b81e974	0.0039645974
188	0xbe0709cd	-0.13187332
189	0x3d4d339d	0.05009805
190	0xbba8449d	-0.0051351325
191	0xbdc823c9	-0.097724505
192	0x3d803198	0.06259459
193	0xbde11d36	-0.109919
194	0xbd76e1f8	-0.060274094
195	0xbbbcfebf	-0.005767673
196	0xbca4c1f6	-0.020112019
197	0xbc73178d	-0.014837158
198	0xbe11ab35	-0.14225467
199	0x3d8aeea4	0.06783798
200	0x3db1cc1d	0.0868151
201	0xbd0e3189	-0.03471521
202	0x3cefd27a	0.029275168
203	0x3d87c5b8	0.06629509
204	0xbc54fc61	-0.012999625
205	0xbdba30e3	-0.09091356
206	0xbcea6f59	-0.028617548
207	0xbd1dd54c	-0.038533494
208	0xbcf327d3	-0.029682076
209	0xbd82a71b	-0.06379529
210	0x3da3035b	0.079596244
211	0x3d92d771	0.071699984
212	0x3d62f4e3	0.055409323
213	0xbe057dba	-0.13036242
214	0xbd1b48a2	-0.037911065
215	0x3d0a543e	0.033771746
216	0x3d1eaeb0	0.038740814
217	0x39e6d13d	0.00044024913
218	0x3c86e8c1	0.016468408
219	0xbd9c4958	-0.07631177
220	0xbc894170	-0.016754836
221	0x3c29eca1	0.010371358
222	0x3d5d388c	0.054009005
223	0xbe1333e5	-0.14375265
224	0xbc45eb5c	-0.01208004
225	0x3cc7d2b2	0.02439246
226	0xbdac9243	-0.08426335
227	0xbdb81c8d	-0.08989821
228	0x3d49170a	0.049094237
229	0xbca4c271	-0.020112248
230	0xbe4f2b59	-0.2023138
231	0x3d13c0ea	0.03607265
232	0xbc9ef0ec	-0.01940199
233	0x3cebb01d	0.0287705
234	0x3d199b79	0.037501786
235	0xbdaaf84a	-0.08348139
236	0x3cd46b1f	0.025929986
237	0x3dc8f623	0.09812572
238	0xbd97da97	-0.074147396
239	0xbe1aa850	-0.15103269
240	0xbdcd0bf4	-0.100120455
241	0x3e043788	0.12911808
242	0xbd4899ec	-0.048974916
243	0xbdb20a22	-0.08693339
244	0x3d3d5bd0	0.046230137
245	0xbe54d6e3	-0.20785098
246	0xbdf542d7	-0.11975639
247	0xbd438cdd	-0.04774176
248	0xbdc9ac94	-0.0984737
249	0x3d6ca405	0.05777361
250	0x3db927b6	0.090407774
251	0x3ce61932	0.028088186
252	0x3e369a70	0.1783235
253	0xbdcc2734	-0.09968415
254	0xbe112faa	-0.14178339
255	0xbdad36ef	-0.084577434

messages.W_val f4 [1, 128, 128]
0	0x3e1214d9	0.14265765
1	0x3d68e68f	0.056860503
2	0xbc76d625	-0.0150657045
3	0xbdb1a66b	-0.0867432
4	0x3d88718b	0.066622816
5	0xbca8fe00	-0.02062893
6	0x3c254514	0.01008727
7	0xbc2544ee	-0.010087235
8	0x3e196c8d	0.14982815
9	0x3df79368	0.120886624
10	0xbc1d13f7	-0.0095872795
11	0xbc26a119	-0.010170245
12	0x3d4cb850	0.04998046
13	0x3dabfc85	0.08397774
14	0x3e02b3cb	0.12763898
15	0x3db63524	0.088968545
16	0xbd7492be	-0.059710257
17	0xbd88e736	-0.06684725
18	0xbdc4e06e	-0.09613119
19	0xbcbdc826	-0.023166727
20	0x3d9d926c	0.076939434
21	0x3c7d20a4	0.015449677
22	0xbbdae6bf	-0.006680339
23	0x3e18c333	0.14918213
24	0xbd8f66a4	-0.07001999
25	0xbd9c89df	-0.07643484
26	0x3e1ee188	0.15515721
27	0x3d04634e	0.032321267
28	0x3dfa0baa	0.12209256
29	0xbb2cda42	-0.002637521
30	0x3a643443	0.00087052974
31	0x3e12aa80	0.14322853
32	0x3d307a88	0.043085605
33	0x3d3c43f4	0.045963243
34	0xbd63950c	-0.055562064
35	0xbd6ea0cd	-0.05825882
36	0x3bda7076	0.0066662384
37	0x3dfcc3c8	0.1234203
38	0xbcf55c5f	-0.029951273
39	0xbd789bfc	-0.060695633
40	0xbda4ece5	-0.080529965
41	0x3cbd84de	0.023134645
42	0xbd82082e	-0.063492164
43	0x3dab536b	0.0836552
44	0xbb184a76	-0.0023237742
45	0xbcf62bdd	-0.030050213
46	0x3df6509b	0.12027093
47	0x3d8575df	0.06516623
48	0x3d19a8af	0.037514385
49	0x3d8c1938	0.068407476
50	0xbdfa2f3c	-0.122160405
51	0xbcbfaecd	-0.023398781
52	0xbcb6d57c	-0.022318594
53	0x3d8071c2	0.062716976
54	0xbda0e14e	-0.078554735
55	0xbb7638a8	-0.003757039
56	0x3dd205be	0.102550015
57	0xbdedf11a	-0.11618252
58	0xbd85ee40	-0.06539583
59	0x3da972c2	0.082738414
60	0xbd47e47a	-0.048801877
61	0xbd49f668	-0.049307257
62	0x3d9624a9	0.07331211
63	0x3dcad6ad	0.099042274
64	0xbb0392b1	-0.0020076449
65	0xbe254889	-0.16140951
66	0x3c95627e	0.018235441
67	0x3de09e99	0.1096775
68	0xbdae2967	-0.085039906
69	0xbae646c3	-0.0017568696
70	0xbd0ab158	-0.033860534
71	0x3d46810a	0.048462905
72	0xbd795b63	-0.06087817
73	0xbd93c14f	-0.07214605
74	0xbb4feba6	-0.003172615
75	0xbdaa6e2c	-0.08321795
76	0xbca7e131	-0.020493122
77	0xbda54cd5	-0.08071295
78	0xbd96acb7	-0.073571615
79	0xbd352d99	-0.04423294
80	0xbdfb2b84	-0.12264159
81	0xbdf261ef	-0.118350856
82	0x3d7f25b6	0.062291823
83	0xbdb3e2ad	-0.08783469
84	0x3d31ae5b	0.04337917
85	0x3d1b975c	0.037986144
86	0x3ca108d6	0.019657534
87	0xbd75973e	-0.05995869
88	0x3d2b93af	0.04188889
89	0xbc85e03b	-0.016342273
90	0xbdebb5f0	-0.11509311
91	0xbdcb2a29	-0.09920151
92	0xbcea07f2	-0.028568242
93	0x3d5137d1	0.05107862
94	0xbc9ae97b	-0.01891016
95	0x3d4ed9d2	0.0505007
96	0xbd08492f	-0.03327292
97	0xbd85b1d9	-0.065280624
98	0x3d37e50d	0.044896174
99	0xbbf138f8	-0.0073615275
100	0x3d315570	0.04329437
101	0x3d822f11	0.063566335
102	0x3da5107b	0.08059784
103	0xbe00e169	-0.12585987
104	0x3cdf72c0	0.027276397
105	0x3e50d1e3	0.20392565
106	0xbd9fc0e4	-0.07800463
107	0x3cd07209	0.025445001
108	0xbd4cd1e0	-0.05000484
109	0x3da63720	0.08115983
110	0x3e08a522	0.13344243
111	0x3cf522a7	0.02992375
112	0xbdfa4dc6	-0.12221865
113	0xbdc3abbd	-0.09554241
114	0x3d0970f4	0.033554986
115	0xbd4dd956	-0.050256096
116	0x3daf34d2	0.085549966
117	0xbe2d0dd2	-0.16899803
118	0x3d3f103a	0.046646334
119	0xbc3a225e	-0.011360733
120	0xbd1b60b5	-0.037934024
121	0xbc996cf9	-0.01872872
122	0x3d2a27f0	0.041541994
123	0x3da44fbf	0.08023023
124	0xbd79fa2b	-0.061029594
125	0x3d8a67c3	0.06758072
126	0xbde4e23d	-0.11175964
127	0x3c5db864	0.013532732
128	0xbd52ac97	-0.051434126
129	0x3d735abe	0.05941271
130	0xbca1a224	-0.019730635
131	0x3c8bd754	0.01707045
132	0xbaa47da7	-0.0012549654
133	0xbe01afdb	-0.1266474
134	0x3c86e72c	0.016467653
135	0xbd2c6d76	-0.042096578
136	0xbdac85c4	-0.08423951
137	0xbdac54c4	-0.08414605
138	0xbb74ec8e	-0.0037372443
139	0xbc37d9fa	-0.011221403
140	0xbd5249d6	-0.051339947
141	0x3d4e67e6	0.050392054
142	0x3d8e193c	0.06938407
143	0xbc26f2d1	-0.010189728
144	0x3d0fab5d	0.035075534
145	0x3c8da6b5	0.017291406
146	0xbc7cdbaf	-0.015433236
147	0x3d8bdad0	0.068288445
148	0x3d37e5cb	0.044896882
149	0x3ccf9081	0.02533746
150	0xbd91c354	-0.07117334
151	0xbc88771d	-0.01665836
152	0x3bc33d08	0.005958203
153	0xbda4a3d0	-0.08039057
154	0x3d0538a4	0.03252472
155	0xbda01b3a	-0.07817693
156	0x3d91c3f0	0.0711745
157	0xbd11c071	-0.035583917
158	0x3d4307d9	0.047614906
159	0x3c848924	0.016178675
160	0xbdab54b5	-0.08365766
161	0x3dd972f4	0.10617629
162	0x3c640590	0.013917342
163	0x3c20ee91	0.009822504
164	0x3d84b6cf	0.064801805
165	0x3d985b86	0.07439332
166	0xbd91de58	-0.07122487
167	0xbc36cb15	-0.011156817
168	0xbdc9f578	-0.098612726
169	0xbdd5247a	-0.10407348
170	0xbcb764ee	-0.022386994
171	0x3c039591	0.008031265
172	0xbb710f6f	-0.003678288
173	0x3d2fd64a	0.04292897
174	0xbd7d83af	-0.06189316
175	0xbd06741e	-0.03282558
176	0xbda17027	-0.078827195
177	0x3d03815e	0.032105796
178	0x3d9d2fc5	0.07675127
179	0x3d6929c0	0.05692458
180	0xbdab6e9b	-0.08370706
181	0xbcc8afdb	-0.024497917
182	0x3d914140	0.070925236
183	0xbd9786a3	-0.07398727
184	0x3cc122f0	0.02357623
185	0xbdb6dd66	-0.08928947
186	0x3d0e5dc4	0.03475739
187	0xbd9a9df0	-0.075496554
188	0xbc962201	-0.018326761
189	0x3c94e5a4	0.018175907
190	0xbdbce538	-0.092234075
191	0xbcb8f4c8	-0.022577658
192	0x3d22b5ca	0.03972415
193	0xbd33dedb	-0.043913703
194	0xbdd06896	-0.10176198
195	0xbd8904c2	-0.066903606
196	0x3dfc5de5	0.123225965
197	0xbe01033a	-0.12598887
198	0xbdc87b7c	-0.09789178
199	0xbd3c6ac7	-0.04600027
200	0x3d87d76b	0.066328846
201	0x3cae04a3	0.021242445
202	0xbdcc337e	-0.09970759
203	0x3d598d8f	0.053113516
204	0x3ca853f5	0.020547846
205	0xbda9a705	-0.082838096
206	0x3d5f5fa3	0.054534566
207	0xbbd8e122	-0.006618635
208	0xbda36b08	-0.07979399
209	0xbdd089a5	-0.101825036
210	0xbdd1ff8e	-0.10253821
211	0x3db59e5b	0.088680945
212	0x3de199b7	0.11015647
213	0x3d60cddf	0.054883834
214	0xbdec54dd	-0.11539624
215	0x3dc17278	0.09445661
216	0x3bf02b25	0.007329362
217	0x3df07d31	0.11742628
218	0xbd61d8d9	-0.055138443
219	0xbbb78eb9	-0.0056017307
220	0x3d780280	0.06054926
221	0xbd6ffbe9	-0.05858985
222	0xbd7f1830	-0.062278926
223	0xbc68e1ad	-0.014213962
224	0xbceae8ce	-0.028675463
225	0xbd03a206	-0.03213694
226	0xbd61fcab	-0.055172604
227	0x3d918c0e	0.071067914
228	0x3d70e898	0.05881557
229	0x3d91b5f2	0.071147814
230	0x3de1fa77	0.110341005
231	0x3da3f2b5	0.08005277
232	0xbcb3347f	-0.021875618
233	0xbd87a179	-0.06622595
234	0xbcd510c6	-0.026008975
235	0xbd97d13e	-0.07412957
236	0xbdbbfd9f	-0.09179234
237	0x3bcfe0e6	0.0063439487
238	0x3d32dffe	0.043670647
239	0xbc3ed105	-0.011646514
240	0x3e008faa	0.12554803
241	0x3ca844f8	0.0205407
242	0x3dd14c3e	0.1021962
243	0x3d0d8a2d	0.034555603
244	0xbd1f8095	-0.038940985
245	0x3cda3008	0.026634231
246	0x3dd710d9	0.1050126
247	0x3da06d6c	0.078333706
248	0x3ca6c749	0.020358698
249	0x3d78a33f	0.06070256
250	0x3d8271de	0.06369375
251	0xbb60c853	-0.003429909
252	0x3dba4904	0.09095958
253	0x3d358391	0.044314925
254	0x3cced65e	0.025248703
255	0xbc4c1a87	-0.0124574965

messages.W_out f4 [1, 128, 128]
0	0xbcb04e2d	-0.021521652
1	0x3dacf8af	0.0844587
2	0x3d643373	0.05571313
3	0x3d313cbe	0.04327082
4	0x3d4b8ebd	0.049696673
5	0xbd2b9103	-0.04188634
6	0x3d5ef353	0.05443127
7	0xbd097a36	-0.033563815
8	0xbd7d12fa	-0.061785676
9	0xbd554c17	-0.052074518
10	0x3daad84c	0.083420366
11	0xbcf50f45	-0.029914508
12	0x3cf0f658	0.02941434
13	0x3ce7d460	0.02829951
14	0x3cea1d1b	0.028578332
15	0xbda7111f	-0.081575625
16	0xbd2318f6	-0.039818726
17	0x3cad6aa5	0.021169016
18	0x3d95862b	0.07300981
19	0x3d84d5e9	0.064861126
20	0x3d890ef6	0.06692307
21	0x3c28f6e6	0.010312771
22	0x3cf543fd	0.029939646
23	0xbc154440	-0.00911051
24	0x3caa5cae	0.020796146
25	0x39340302	0.00017167258
26	0xbd78e482	-0.060764797
27	0xbcc0745d	-0.023492986
28	0x3c0bf7be	0.008542953
29	0x3cf66f0d	0.03008225
30	0xbccacfd0	-0.024757296
31	0xbd8a2195	-0.067446865
32	0x3cda56f4	0.02665279
33	0x3b9b6966	0.004742789
34	0xbc291f08	-0.01032234
35	0xbd38837e	-0.045047276
36	0xbd33b80b	-0.04387669
37	0xbb6dc8ac	-0.003628294
38	0xbb031bc3	-0.002000556
39	0xba77566f	-0.0009435182
40	0xbd405121	-0.04695237
41	0x3c75891b	0.014986302
42	0x3d929b7f	0.07158565
43	0x3d34f910	0.044182837
44	0x3d50e657	0.05100092
45	0x3c39c2d7	0.011337957
46	0xbb5f65d4	-0.0034087794
47	0xbe07bc89	-0.13255514
48	0xbd01f120	-0.031724095
49	0x3cde2e00	0.027121544
50	0xbd4c2eee	-0.049849443
51	0xbd4911fc	-0.049089417
52	0x3d8ac876	0.06776516
53	0xbd611733	-0.054953765
54	0x3c26d771	0.010183201
55	0xbc1d8102	-0.009613277
56	0xbd76aa5b	-0.060221057
57	0x3bb34fab	0.0054721436
58	0xbcabd841	-0.020977141
59	0xbdc44ea3	-0.09585311
60	0xbdb63f0e	-0.088987455
61	0x3d39f1f5	0.045396764
62	0x3d71a7b1	0.058997814
63	0x3d06719a	0.032823183
64	0xbd75cdb0	-0.060010612
65	0xbdbbd34b	-0.0917116
66	0xbda81319	-0.082067676
67	0xbdb071aa	-0.0861543
68	0xbd619cfc	-0.055081353
69	0x3d2526d9	0.04032025
70	0x3d0f226d	0.03494494
71	0xbcb34fa6	-0.021888565
72	0x3d1dce31	0.038526718
73	0x3cac98af	0.021068899
74	0xbe04f9a8	-0.12985861
75	0xbd80c6b9	-0.06287903
76	0x3d10c49e	0.03534376
77	0x3dbb014f	0.09131109
78	0x3ca129dc	0.01967328
79	0x3d94bc39	0.07262463
80	0x3dae9574	0.085246
81	0x3db60486	0.088875815
82	0xbd51d921	-0.05123246
83	0x3d64ed4a	0.05589036
84	0x3d51e4ef	0.05124372
85	0x3dc05396	0.09390943
86	0x3d39055c	0.045171127
87	0xbd7d1856	-0.061790787
88	0x3d15764b	0.036489766
89	0x3e078e72	0.13237932
90	0xbd209d65	-0.039212603
91	0x3bb9f07e	0.005674421
92	0xbd52d7b7	-0.051475253
93	0x3c7fdc42	0.015616478
94	0xbd9be88e	-0.07612716
95	0x3d69a7d5	0.057044823
96	0xbcfa2ea7	-0.030539824
97	0x3da9ff6f	0.08300673
98	0x3c8782cc	0.016541861
99	0xbcf67b0f	-0.030087976
100	0x3d975314	0.07388893
101	0x3ca4e98d	0.020130897
102	0xbcf32aaf	-0.029683439
103	0xbdf6c81a	-0.12049885
104	0x3d098eb1	0.033583347
105	0x3db7baf8	0.08971208
106	0xbc0f45a1	-0.008744628
107	0xbc1eb703	-0.009687188
108	0xbdebbbad	-0.11510406
109	0x3dccac55	0.09993807
110	0xbd03b789	-0.032157455
111	0x3ddf2d6b	0.10897335
112	0x3c9c3a34	0.019070722
113	0x3e06159c	0.13094181
114	0x3db82cc8	0.08992916
115	0x3cd8c1f9	0.02645968
116	0x3d268f54	0.040664032
117	0xbd6bb469	-0.0575451
118	0xbdd36b05	-0.10323147
119	0x3d9600a8	0.07324344
120	0x3cd677ce	0.026180174
121	0xbdc51a8b	-0.09624203
122	0x3d802cac	0.062585205
123	0xbd085919	-0.033288095
124	0x3d881249	0.066441126
125	0xbdd46333	-0.10370483
126	0x3aacfeca	0.0013198492
127	0xbd076c70	-0.0330624
128	0xbe14e7d6	-0.14541563
129	0xbdd8743f	-0.10569047
130	0xbd49be43	-0.049253713
131	0xbd1481ee	-0.036256723
132	0xbd587b06	-0.0528517
133	0x3ce224cf	0.027605442
134	0x3dad0dc2	0.0844989
135	0x3d70580f	0.05867773
136	0x3d1fb261	0.038988475
137	0x3c92e3b0	0.017930835
138	0xbbb3ec02	-0.005490781
139	0x3d6393b7	0.055560794
140	0x3d799f4c	0.060942933
141	0xbd9e9df5	-0.07744972
142	0x3d6702d7	0.056399193
143	0xbd3115b5	-0.043233592
144	0x3d69aa67	0.057047274
145	0xbd3f1433	-0.046650123
146	0xbd679079	-0.056534264
147	0x3c69cdd3	0.014270264
148	0x3db87594	0.09006801
149	0x3caff006	0.021476757
150	0x3e13618b	0.14392678
151	0x3d1e572b	0.03865735
152	0xbd55bd5d	-0.052182544
153	0xbdb5832c	-0.0886291
154	0x3d0c2eca	0.03422431
155	0x3d9c52af	0.07632958
156	0x3c4bd445	0.012440746
157	0xbd785902	-0.06063176
158	0xbe0ca39b	-0.13734286
159	0x3dcd44ae	0.10022865
160	0x3d0dfe26	0.034666203
161	0xbca53aed	-0.0201697
162	0xbc64c8ea	-0.013963917
163	0xbdac709c	-0.08419916
164	0xbd676bd0	-0.056499302
165	0x3c3727ff	0.011178969
166	0xbd79c029	-0.060974274
167	0x3c2c2b31	0.0105083445
168	0xbcd6f993	-0.026242053
169	0xbd7d0ab9	-0.061777804
170	0x3b9cb800	0.0047826767
171	0x3b102145	0.0021992486
172	0x3d770666	0.060308836
173	0xbcbd8cdd	-0.023138458
174	0xbd305827	-0.04305282
175	0x3d2d2039	0.042267058
176	0xbd679c37	-0.056545462
177	0xbd8a98e1	-0.067674406
178	0xbd357a6f	-0.044306215
179	0x3d99671c	0.0749037
180	0x3b601c2f	0.0034196486
181	0xbc3d3dfd	-0.011550424
182	0xbcefc172	-0.029267047
183	0x3d050ffa	0.03248594
184	0xbd8eece4	-0.06978777
185	0x3d0ad41f	0.0338937
186	0xbda8be42	-0.08239414
187	0x3ce06f38	0.027396783
188	0xbd2f723d	-0.042833555
189	0xbad1a6fc	-0.00159952
190	0xbd8fb321	-0.07016588
191	0xbda3620f	-0.079776876
192	0xbd3349a6	-0.04377141
193	0xbc1e7d22	-0.009673389
194	0x3d213ac9	0.039362703
195	0x3d16c9ce	0.03681355
196	0x3d6843ca	0.056705274
197	0x3db9e0d2	0.09076084
198	0x3d26b010	0.04069525
199	0x3d948278	0.072514474
200	0xbd9a2f0c	-0.07528505
201	0xbe0419ef	-0.12900518
202	0x3bafd117	0.0053655016
203	0xbd734d17	-0.05939969
204	0xbdfe4b43	-0.12416699
205	0x3bf8070a	0.0075691985
206	0x3db97292	0.09055056
207	0x3daeaa88	0.0852862
208	0xbca26d03	-0.019827371
209	0xbb261d8f	-0.0025347208
210	0xbd0751ac	-0.033036873
211	0x3db59735	0.08866731
212	0x3d2b793a	0.041863658
213	0x3d82f8e5	0.06395129
214	0x3d052a29	0.03251091
215	0xbce2d858	-0.027691051
216	0xbd963c27	-0.07335692
217	0x3c729243	0.014805379
218	0x3daef2ab	0.08542379
219	0xbd3f2812	-0.046669073
220	0x3d94afb5	0.07260076
221	0xbd1b3134	-0.03788872
222	0x3d858044	0.06518605
223	0xbb59250c	-0.0033133654
224	0xbdabd507	-0.08390241
225	0xbd82865f	-0.063732855
226	0xbdeb1b61	-0.114798315
227	0x3d8e34e6	0.06943683
228	0xbd627938	-0.055291384
229	0x3c21211e	0.009834556
230	0x3e01c093	0.12671117
231	0xbdc43c78	-0.09581846
232	0xbd411b0b	-0.04714493
233	0x3d0c443a	0.034244753
234	0xbcb0f175	-0.02159951
235	0x3c599862	0.01328096
236	0x3dc6a900	0.09700203
237	0xbdc8a223	-0.0979655
238	0xbdb3abdd	-0.08773015
239	0x3c2c1ee7	0.010505415
240	0x3d6ee5eb	0.058324736
241	0xbdaa7e93	-0.08324923
242	0xbde33825	-0.11094693
243	0xbbea0981	-0.0071422462
244	0xbdf89d9f	-0.12139439
245	0xbdb22559	-0.0869853
246	0xbe0316ab	-0.12801616
247	0xbd7e0734	-0.06201859
248	0xbd37968c	-0.044821307
249	0x3c83c3aa	0.01608451
250	0x3d885c07	0.06658178
251	0xbbf5103a	-0.007478741
252	0x3d11b1b0	0.035569847
253	0x3d131f16	0.035918318
254	0xbd8b95e7	-0.06815701
255	0x3de5d29c	0.11221811

update.0.weight f4 [128, 256]
0	0xbdb1394a	-0.08653505
1	0x3cbda7d8	0.023151323
2	0x3da559bd	0.08073757
3	0xbcc89ce4	-0.024488874
4	0xbd4bee97	-0.049788084
5	0x3c9f392f	0.019436447
6	0xbd0f5ffb	-0.035003643
7	0x3d3f3921	0.04668534
8	0xbe00bdca	-0.12572399
9	0xbd87e658	-0.066357315
10	0x3da60426	0.0810626
11	0xbe8b7860	-0.27240276
12	0x3df82ed8	0.1211831
13	0x3c091cbd	0.008368668
14	0x3d1ccdaa	0.038282074
15	0xbdff77d0	-0.12474024
16	0xbe0fbb77	-0.14036356
17	0xbdea1106	-0.11429028
18	0xbe37f3f5	-0.17964156
19	0x3dd92808	0.106033385
20	0xbc2ac38d	-0.0104225995
21	0x3e1dc25f	0.15406178
22	0x3d4710f9	0.04860017
23	0x3e003801	0.12521364
24	0xbcb62232	-0.022233102
25	0xbe27d2eb	-0.16389053
26	0xbb9c4657	-0.0047691274
27	0xbdefcb69	-0.11708719
28	0xbdeef911	-0.116685994
29	0x3e0687db	0.13137762
30	0x393fd43c	0.00018294243
31	0x3bcf19ea	0.006320228
32	0xbdfe4901	-0.12416268
33	0x3c14ca44	0.009081427
34	0x3dcba5c9	0.099437304
35	0xbccb0a11	-0.024785073
36	0xbd7b4ed2	-0.061354466
37	0xbde170e0	-0.11007857
38	0x3b641eb1	0.0034808333
39	0x3dcc8dfe	0.0998802
40	0xbdfcb599	-0.123393245
41	0x3d56d29a	0.05244694
42	0xba84ae1f	-0.0010122693
43	0x3dc5c369	0.09656412
44	0x3df24ada	0.11830683
45	0x3ac07f2c	0.0014686338
46	0xbbe36ab0	-0.0069402084
47	0xbe1860cf	-0.1488068
48	0xbd9f72fe	-0.07785605
49	0x3ccc026d	0.0249035
50	0x3de2c16f	0.11072051
51	0xb902216a	-0.00012410214
52	0x3dc02ff5	0.09384147
53	0xbc7b774d	-0.015348268
54	0x3d671990	0.056420863
55	0x3c8b3230	0.016991705
56	0xbdc1dd1b	-0.09466001
57	0x3d474dd1	0.048658196
58	0x3d503e5d	0.050840724
59	0xbdd5cdb4	-0.104396254
60	0x3cfbe7c3	0.030750161
61	0xbba47f3e	-0.0050200513
62	0xbd81ac62	-0.063317075
63	0xbe8bffb1	-0.27343515
64	0x3d0a64af	0.033787426
65	0x3ca67ced	0.020323241
66	0xbd1f454c	-0.038884446
67	0xbd1f15b3	-0.038839053
68	0xbe15d9a3	-0.14633803
69	0xbe3aac33	-0.18229751
70	0x3c9478bc	0.018123977
71	0x3d2008d6	0.039070927
72	0x3d68512b	0.056718033
73	0x3dfadf51	0.122496255
74	0xbe10430d	-0.14088078
75	0x3d64539c	0.0557438
76	0xbdc24913	-0.09486594
77	0xbe1b19b8	-0.1514653
78	0xbe308684	-0.17238814
79	0x3c1c5a21	0.009542973
80	0x3df59cfc	0.11992833
81	0x3d25d24d	0.04048376
82	0xbd9bb9c4	-0.07603791
83	0xbe73cd91	-0.23808886
84	0xbd47c054	-0.048767403
85	0x3e0b71ef	0.13617681
86	0xbdcb0fdd	-0.09915135
87	0x3d76eb27	0.060282853
88	0xbe63fb6d	-0.2226388
89	0xbe5ae657	-0.2137693
90	0x3da5bfd7	0.08093231
91	0x3cfa9231	0.030587288
92	0xbe7bc3fa	-0.24586478
93	0xbe19662a	-0.14980379
94	0xbd91fd75	-0.07128421
95	0x3de59bd8	0.112113655
96	0xbd4bae91	-0.049727026
97	0xbdb51831	-0.08842505
98	0xbd2c2eb9	-0.042036746
99	0xbd0e42df	-0.034731742
100	0xbd57556d	-0.052571703
101	0xbc08e2bf	-0.008354842
102	0xbd2e94a6	-0.04262223
103	0x3dcf5fb8	0.10125679
104	0xbd064642	-0.032781847
105	0x3d7d0a75	0.06177755
106	0xbca7983c	-0.020458333
107	0x3d421dda	0.04739175
108	0xbe641ebd	-0.2227735
109	0x3da152b4	0.078771025
110	0x3d93380a	0.07188423
111	0x3da8dc38	0.082451284
112	0x3d915fad	0.07098327
113	0xbd694edc	-0.05695997
114	0x3cca3dec	0.02468773
115	0xbd87780e	-0.066146955
116	0xbc80e250	-0.015732914
117	0xbcc7a86f	-0.024372308
118	0x3c3aaece	0.011394216
119	0xbd454137	-0.048157897
120	0x3dba81c0	0.09106779
121	0x3dabe2b7	0.08392852
122	0x3e0a9bef	0.13536046
123	0xbbf243a0	-0.0073933154
124	0x3dd85e4b	0.1056486
125	0x3c32396e	0.01087795
126	0xbe30b8fc	-0.17258066
127	0x3cab54fd	0.020914549
128	0xbddd5e47	-0.108089976
129	0xbcd455df	-0.025919853
130	0xbdc0b7d5	-0.09410063
131	0xbc50dd2b	-0.012748043
132	0x3d27d961	0.040978793
133	0x3d290907	0.041268375
134	0x3c24e16a	0.0100635085
135	0x3cb59118	0.022163913
136	0x3c7312db	0.014836038
137	0xbdcbc815	-0.09950272
138	0x3d1c9331	0.03822631
139	0x3e366fc3	0.17816071
140	0x3c7de134	0.015495587
141	0x3c7728e7	0.0150854355
142	0x3dc36c48	0.095421374
143	0xbd5b733f	-0.053576704
144	0x3da183e9	0.07886488
145	0x3c053759	0.008130872
146	0xbd458c7a	-0.048229672
147	0x3c421955	0.01184686
148	0x3dff0d5a	0.124537185
149	0x3dee2f89	0.1163016
150	0xbdf7cae8	-0.12099248
151	0xbdc37b1b	-0.09544965
152	0xbe07a65e	-0.13247058
153	0x3d51364a	0.051077165
154	0xbdf3ece4	-0.11910418
155	0x3d839eb6	0.06426756
156	0x3cc56023	0.024093693
157	0xbddce248	-0.10785347
158	0xbdd04021	-0.101684816
159	0xbdd38456	-0.103279755
160	0xbd2e82f7	-0.042605367
161	0x3c3cdcfc	0.011527296
162	0xbcc97363	-0.024591153
163	0x3d89c497	0.0672695
164	0xbc4fbf7b	-0.01267993
165	0x3c6ffa9b	0.014647151
166	0x3db25f86	0.08709626
167	0xbd9cfbe5	-0.076652326
168	0xbd64e057	-0.05587801
169	0x3cacab61	0.021077814
170	0x3df8793b	0.12132498
171	0xbc75026a	-0.014954189
172	0xbd941a7e	-0.072316155
173	0xbcc3ca77	-0.023900254
174	0xbb99f81f	-0.004698768
175	0x3bfc92d1	0.0077079316
176	0xbd44822f	-0.047975715
177	0xbbe09fe2	-0.006854997
178	0x3e3b684e	0.18301508
179	0xbd3e5f38	-0.046477526
180	0x3cfaa9ee	0.030598607
181	0xbd4e0da9	-0.050305996
182	0xbe1ffd30	-0.15623927
183	0xbb8a30c1	-0.0042172377
184	0xbdb7e367	-0.089789204
185	0x3cab49f2	0.020909283
186	0x3ce78a59	0.028264211
187	0x3e0a64de	0.1351504
188	0x3dc41fb6	0.09576361
189	0xbcc9046f	-0.024538247
190	0x3d53d512	0.05171687
191	0xbd87b934	-0.066271216
192	0x3d968e26	0.073513314
193	0x3d0a8d4b	0.033826154
194	0x3d2fa347	0.042880323
195	0x3d96e987	0.073687606
196	0xbd5b2e5d	-0.053511012
197	0x3c1b2ee8	0.009471633
198	0x3d0917bb	0.033469897
199	0x3d801a35	0.062549986
200	0x3dbd2b01	0.09236718
201	0x3ce9f765	0.02856035
202	0xbd8a357c	-0.067484826
203	0xbd61b2fe	-0.05510234
204	0xbb82a6f0	-0.0039871857
205	0xbd86ebf9	-0.06587977
206	0x3d98fb79	0.074698396
207	0x3b8fb75a	0.004385871
208	0xbd8bc6cb	-0.06825026
209	0xbd61273c	-0.054969057
210	0xbd3f36e5	-0.04668321
211	0x3dcd7f2d	0.100340225
212	0xbd9e3b3f	-0.07726144
213	0xbbd7833e	-0.0065769246
214	0xbce4e119	-0.027939366
215	0xbe569a26	-0.2095724
216	0x3d64e7cc	0.05588512
217	0xbd9e9159	-0.077425666
218	0xbde394a4	-0.11112335
219	0x3dce35e3	0.10068872
220	0xbcf89889	-0.030346172
221	0x3dd3ad9b	0.10335847
222	0x3dc788ac	0.09742865
223	0xbcd0bcda	-0.025480676
224	0x3d99705b	0.07492133
225	0xbcc98c10	-0.02460292
226	0x3cba14b2	0.022714946
227	0x3d1cee72	0.038313337
228	0xbb7d0554	-0.0038607912
229	0x3dfaf81a	0.12254353
230	0x3d19ce26	0.037550114
231	0x3d890019	0.06689472
232	0x3d4deeed	0.050276686
233	0x3b86f79b	0.0041188723
234	0x3dd22eb3	0.102628134
235	0xbcf98e9a	-0.030463506
236	0x3d73f608	0.059560806
237	0xbe3b23f5	-0.18275435
238	0xbcd79428	-0.026315764
239	0x3dd185a3	0.10230567
240	0x3dd77fdd	0.10522435
241	0xbe0cf742	-0.13766196
242	0xbd4c627a	-0.049898602
243	0xbd8bd94d	-0.06828556
244	0x3dedc977	0.11610692
245	0xbbadbab7	-0.005301799
246	0x3b3ca2f4	0.002878365
247	0xbcb1a31c	-0.021684222
248	0x3e0b4452	0.13600281
249	0xbd88e407	-0.06684118
250	0xbe0415c5	-0.1289893
251	0x3c55eb47	0.013056583
252	0x3c2d7cd2	0.0105888415
253	0xbd89e0fc	-0.067323655
254	0xbda5a87e	-0.08088778
255	0x3e3dc305	0.18531425

update.0.bias f4 [128]
0	0x3d624a9e	0.05524694
1	0x3d6cc02f	0.057800468
2	0x3da7cc98	0.0819332
3	0xbbdd8f6f	-0.0067614834
4	0xbd1ee5a5	-0.038793225
5	0x3d5b811a	0.053589918
6	0xbdaa3d70	-0.083124995
7	0x3c1a9546	0.009435004
8	0xbcad4653	-0.021151697
9	0xbc1d926d	-0.00961743
10	0xbc3cfbee	-0.011534674
11	0xbce13bd7	-0.027494354
12	0xbd0008b7	-0.03125831
13	0x3c4ee11b	0.0126269115
14	0x3c726751	0.01479514
15	0x3c905494	0.017618455
16	0x3c7054ea	0.014668683
17	0x3d543255	0.051805813
18	0x3d6ee724	0.0583259
19	0xbb7e8467	-0.0038836242
20	0xbbf70301	-0.0075382
21	0x3c8a21cb	0.016861817
22	0x3d577e98	0.052610964
23	0x3d11c1ce	0.035585217
24	0xbc863150	-0.016380936
25	0x3d479ed9	0.048735473
26	0x3d614c7c	0.05500458
27	0x3cdbbd39	0.026823627
28	0xbd13b2d2	-0.03605921
29	0xbd24d41c	-0.040241346
30	0x3d933711	0.071882375
31	0x3d464d58	0.048413604
32	0x3d4074e3	0.04698647
33	0xbc1dd476	-0.009633174
34	0xbb921cfb	-0.004459021
35	0x3dcbb11e	0.09945892
36	0x3da514d7	0.080606155
37	0x3daba7a6	0.08381586
38	0x3d2454f4	0.04012008
39	0xbbb3597f	-0.0054733153
40	0x3ba35fe7	0.0049857977
41	0x3d820f8d	0.06350622
42	0x3d97842d	0.073982574
43	0x3d7b2b60	0.061320662
44	0x3c12bbe6	0.008955931
45	0xbc9ff2ac	-0.019524895
46	0xba965e62	-0.001147222
47	0xbd653777	-0.0559611
48	0x3d96aba6	0.07356958
49	0x3cbfec26	0.023428034
50	0x3d2b669a	0.041845895
51	0x3cc14038	0.023590192
52	0x3dbea3cd	0.09308586
53	0x3b4f02dd	0.00315874
54	0x3c984a16	0.018590014
55	0x3d3afd11	0.0456515
56	0x3d4b63bd	0.049655665
57	0xbc8de8f9	-0.017323004
58	0x3d964567	0.07337456
59	0x3d1678e1	0.036736373
60	0x3d34611c	0.044037923
61	0xbd0ffd60	-0.035153747
62	0xbd0c3d3c	-0.034238085
63	0xbcf97598	-0.03045158
64	0x3d441dce	0.047879986
65	0xbdbf7ca0	-0.09349942
66	0x3cf31e80	0.02967763
67	0xbd2aca5c	-0.04169689
68	0x3d230e5b	0.039808612
69	0x3d0a7b4b	0.033808988
70	0x3d4043f7	0.046939816
71	0x3dc7d86b	0.09758075
72	0x3d5f6c49	0.05454663
73	0x3d6fe1ae	0.058564834
74	0xbd13fcfd	-0.03612994
75	0xbd0dc4d5	-0.03461154
76	0xbceb2a26	-0.028706621
77	0x3d8a44b3	0.067513846
78	0x3dbc727a	0.09201522
79	0x3cefecef	0.029287783
80	0x3d69e83e	0.05710625
81	0x3c26b237	0.010174326
82	0x3d5e272f	0.054236587
83	0x3bf42dd8	0.007451754
84	0xbcf2d1e9	-0.029641109
85	0x3d63e842	0.05564142
86	0xbcf0177b	-0.029308071
87	0x3d3e5ca9	0.046475086
88	0xbc92c3ee	-0.017915692
89	0xbc5e26de	-0.013559071
90	0x3c53dcf7	0.0129311
91	0x3cd20eeb	0.025641879
92	0x3d3a577d	0.04549359
93	0x3cc8b3a5	0.024499724
94	0x3d82198f	0.06352531
95	0xbcf1fe1a	-0.02954011
96	0x3d98b904	0.07457164
97	0x3d4e6281	0.05038691
98	0xbb83a7f4	-0.0040178243
99	0x3d6bcd33	0.05756874
100	0x3d5a78cc	0.053337857
101	0x3ca27d23	0.01983506
102	0x3c957ed7	0.018248959
103	0xbcc8c0a8	-0.024505928
104	0xba5c1200	-0.0008395016
105	0x3d19e1c8	0.037568837
106	0x3cb1a269	0.021683889
107	0x3d7a48ff	0.06110477
108	0xbdf28b1f	-0.118429415
109	0x3d1e6c42	0.03867746
110	0xbd8f24a0	-0.069894075
111	0x3d1bf49d	0.03807508
112	0x3d63e24e	0.055635743
113	0x3d3acba2	0.045604356
114	0xbd36efbe	-0.04466223
115	0x3c81ee94	0.015860833
116	0x3d983d22	0.07433535
117	0xbc113a55	-0.008864005
118	0x3c9b6a46	0.018971574
119	0xbdb15c5c	-0.08660194
120	0x3d2bb504	0.041920677
121	0x3d10f236	0.03538724
122	0x3de168cc	0.110063165
123	0xbc6c6b04	-0.014429811
124	0x3caa4b7c	0.020787947
125	0x3e0e268e	0.13881895
126	0x3c85ca58	0.016331837
127	0xbd95256d	-0.07282529
