models/sl/na10_uc.pt (torch_old, 558906 bytes, 150 tensors)

encoder.0.weight f4 [128, 8]
00000000: f248 dcbd 9cae 98bd 9293 463e 2c1c 053d
00000010: 44f1 cd3d 36a2 ce3d 5eb9 d13d ec1c 8dbd
00000020: f004 0fbd 281b 273c 5ea1 a2bc 2862 f93d
00000030: 89e1 093e 4846 b53c 547e 683e de8e cdbd
00000040: c682 123c 10d3 c3bd 5cb8 d8bd 73ce df3c
00000050: b34c a53d 9634 a2be 5092 343e 8394 8abe
00000060: fdac 6a3e 9da6 843d 70d4 55bc 58a0 95bd
00000070: 1806 903b ebe4 bcbd 4f51 c2bd b4c2 133e
00000080: 53ba ac3d 5dd0 d6bd 9a6b 1f3c 01a7 61bb
00000090: 9077 34bb 93f0 0fbd 0ede 4cbd 8657 3b3e
000000a0: 4343 1d3e d92c 743d 2bb4 f4bd 67cd cd3d
000000b0: 32e2 bdbd f03a 96bc aca5 1dbe 1c2f 713d
000000c0: ab86 8bbd 963a 0f3e 7e95 033e fe78 843c
000000d0: ded9 aabc 64b5 8fbe 2782 143e 71a2 dc3d
000000e0: 08be 1ebd 1fb8 693d 23cc dc3d 34e7 823d
000000f0: accc a23d 0551 5cbd e2c3 34be 4b4e 4e3e
00000100: a3e5 c73c 449a 9ebd 3e9c d13d 5b7d 803e
00000110: 2932 2e3d d78e b93c 0882 233e a81a 0bbe
00000120: 0e94 373d 36f6 0cbd b90d 3f3e ab75 c13d
00000130: ef21 f73d 5ffc ccbd 2af6 d93d 9244 023e
00000140: 89a7 dc3d 3e50 0fbe 62d2 503c 7332 cc3d
00000150: ad64 813e 7e1b ec3d a035 0b3e eb4c 3c3d
00000160: 7c9a 3abd 6575 8c3c 1648 38be 6798 603d
00000170: b36d 343e b2b7 a7be 2efe 913c 43ee 883c
00000180: 072e 8abd f342 eebc 78aa ba3d a031 a8bc
00000190: 46de 2ebe b398 543e 8be8 33be a426 f53d
000001a0: 2e15 0abc 7e0b 8ebc 484f b83d 0245 b3bd
000001b0: 5e85 65be 5354 843d f88f c83d 8e79 bbbc
000001c0: 033f ca3c 19c2 69bd 6cec 4cbc b4ef 813d
000001d0: 55cd f8bd 5c53 10be 4939 273e 5105 653e
000001e0: 3917 09bd 6d3c b0bd 52b5 dc39 41a6 14bd
000001f0: 05a2 8dbd 4dfa 083e dada a3be 4276 dc3d
00000200: b10d a2bb 21b1 8a3d 9fe7 d8bc 0d64 ab3d
00000210: d8dc 00bd d10a 913d ed2d 823c 33c8 d7be
00000220: 95e4 4c3d b50c 1abe a9cb e93d 8ae8 403d
00000230: 49e0 5d3e 2619 843b cdaf 2b3e 933a a6bc
00000240: b604 d6bc 2591 91bc f0bb 5e3d 487b aebd
00000250: b41f 383d 1a52 8dbe 36c7 a73c 87db a03e
00000260: 4826 b7bd edce 2b3e 4a26 01bd 0303 13bd
00000270: d50b 03bd 140b e8bd ccd0 df3d d827 733e
00000280: c2b8 363e 434d 46bd 33b0 d9bb 49d7 843d
00000290: 7ab8 f1bc 6f25 403e 329a c4bc 1d0a fb3d
000002a0: 9d5c 14bd 1588 bb3d 242a 3d3d ba91 3f3d
000002b0: a618 473d adaf 6dbe 0702 8f3d f347 4b3e
000002c0: ad04 af3b b7de 463c 14e2 843b f7a2 b8bd
000002d0: 455a 323e d41f ab3d 0df5 373e 0a59 6d3e
000002e0: 8134 9bbd d9e5 123d 5273 df3c 0177 153d
000002f0: 94ed f4bd 3f24 aa3d 9226 c73d 0a60 373e
00000300: 07a2 063c c108 adbe 1ad2 9dbd 2cdd ea3c
00000310: f6e2 a2bd 597f 733d 98a5 83bb 7340 dd3c
00000320: e353 64bd b110 35bd e649 40be f996 613d
00000330: 2500 523e 03e1 f2bd 9cbb 693e 9337 09bd
00000340: 5724 f03c 9c21 883c 944a babc e800 983b
00000350: 38cf 75be 5188 e3be 3b7d 9eba c0fe ddbc
00000360: 261d 16bd cb16 82bb 1f2e da3d 50d0 07bd
00000370: 64f5 3b3e 4ec6 583e b5a7 9b3e b09a d33a
00000380: 845f 95bc 9744 7b3c ee8f 45be ffd5 f0bd
00000390: 570a 1f3e d9b1 873c 5735 05be 08d0 36be
000003a0: 3a62 8fbe 6b5c 36be 5353 183d ecb8 3ebd
000003b0: 8aeb 983d e8a2 c1bc 2999 2b3d fe83 45bc
000003c0: 343a 17bd 61db 333c 85e7 933d 892e 4bbe
000003d0: 4add 1f3d a665 af3d a683 4c3e 2323 04be
000003e0: 0dee 3c3e 7aa9 703e f905 0a3e c737 2cbd
000003f0: 46df 4d3d 0a21 f9bd c78c afbd 81b4 abbd
-0.10756101 -0.07455179 0.19392231 0.03249757 0.100557834 0.10089533 0.10240434 -0.06890282
-0.03491682 0.010199346 -0.019852336 0.12176925 0.13464941 0.02212824 0.2270444 -0.100370154
0.008942312 -0.09561741 -0.10582039 0.027320122 0.0807127 -0.31680745 0.17633939 -0.2706643
0.22917552 0.064770915 -0.013051137 -0.07305974 0.0043952577 -0.0922335 -0.09488165 0.14429742
0.08433976 -0.10488961 0.009730244 -0.0034431817 -0.0027537085 -0.03514154 -0.050016455 0.18295106
0.1535769 0.059613083 -0.11948427 0.10048943 -0.09271659 -0.01833865 -0.1539523 0.058882818
-0.06812795 0.13987193 0.12849995 0.016170975 -0.02085584 -0.28068078 0.14502774 0.10773171
-0.038755447 0.057060357 0.107811235 0.06391755 0.07949194 -0.053788204 -0.17652848 0.20147054
0.024401492 -0.077442676 0.10234879 0.2509564 0.042528305 0.02265112 0.15967572 -0.13584387
0.04481893 -0.034414493 0.18657579 0.094462715 0.12067019 -0.100090735 0.10642655 0.1272147
0.10774142 -0.13995454 0.012745472 0.0997056 0.25272122 0.11528681 0.13594675 0.045971792
-0.045557484 0.017145822 -0.17996249 0.054832842 0.17619972 -0.32757336 0.017821398 0.016715175
-0.0674706 -0.029084658 0.091145456 -0.020531476 -0.17076978 0.20761375 -0.17569177 0.11970261
-0.008427901 -0.017339464 0.08999497 -0.087533966 -0.22414157 0.06461396 0.09793085 -0.02288511
0.02468825 -0.05706987 -0.012507539 0.06344548 -0.12148539 -0.14094299 0.16330446 0.2236531
-0.033469412 -0.08605275 0.00042096764 -0.036291365 -0.069156684 0.13376732 -0.32002908 0.107647434
-0.00494548 0.06772066 -0.026477633 0.083686925 -0.031460613 0.07082141 0.01589104 -0.42144927
0.05002268 -0.1504391 0.11415798 0.047096767 0.21667589 0.0040313182 0.16766281 -0.020291602
-0.026125293 -0.017769406 0.05437845 -0.08519608 0.04495211 -0.276017 0.020480733 0.31417486
-0.089428484 0.16778155 -0.031530656 -0.035891544 -0.031993706 -0.11330238 0.10928497 0.23745668
0.17843917 -0.048413526 -0.006643319 0.06486375 -0.02950691 0.1876428 -0.023999307 0.12257788
-0.036221135 0.09156815 0.046182767 0.046769835 0.04860749 -0.23211546 0.069828086 0.19851665
0.0053411336 0.01213806 0.004055271 -0.09015458 0.17417248 0.0835568 0.17964573 0.23178497
-0.07578374 0.03586373 0.027276669 0.036490444 -0.11959377 0.08307695 0.097241536 0.1790773
0.008217341 -0.3379574 -0.07706089 0.028669916 -0.079534456 0.05944762 -0.004017543 0.02700827
-0.055744063 -0.04420537 -0.1877819 0.05507562 0.20507868 -0.11859324 0.22825474 -0.033500265
0.029314203 0.016617589 -0.02274064 0.00463878 -0.24004829 -0.4443994 -0.0012091765 -0.027099013
-0.036648892 -0.0039700023 0.10653328 -0.033157647 0.18355328 0.21169397 0.30401388 0.0016144123
-0.018234022 0.015336177 -0.19293186 -0.117595665 0.15531288 0.016564297 -0.13008629 -0.17852795
-0.28004628 -0.17808692 0.03718884 -0.046563074 0.074668005 -0.02363725 0.04189411 -0.012055395
-0.03692074 0.010977597 0.07221893 -0.1984197 0.039029397 0.0856431 0.19972095 -0.12904029
0.18450184 0.2350215 0.13478841 -0.04204538 0.05026176 -0.12164505 -0.08571773 -0.08384038

encoder.0.bias f4 [128]
00000000: 2339 6cbd 0252 ec3c 362a dbbd 168e 113c
00000010: 3686 513c 091c 31bd 2c03 89bc c345 cdbc
00000020: 4ef0 d2bd 5781 1fbd 0fc7 f33b 1c26 763d
00000030: ccf3 dc3c 720e 1dbd ad60 83bc 7b99 8abd
00000040: 6261 633d 7cee 9d3c d6dc e6bc d882 993c
00000050: eb95 8fbb 9918 06bd e057 fa3c ae52 54bd
00000060: f3e5 873d 43c3 a53c 1df0 803d 2f3d 48bd
00000070: 0311 24bc 1f4d bb3d 5afa 00bd 2578 8ebd
00000080: 18d9 62bd 2f2a 3ebd 2690 87bd f8ad 84bd
00000090: e62e 3f3d 0a47 b0bc bd93 423b 35c2 0cbe
000000a0: 8fb2 2cbc 5c0e 383d 5b3b 403c 7b81 873d
000000b0: c533 423d 8e6f 263d 8f9b 8fbb a75d 00bc
000000c0: 6c21 8e3d 16c3 543c 1fa1 4cbd c6cc 10bc
000000d0: 3240 f5bb 1e05 d03c c95f a7bd 9932 cd3c
000000e0: f8ac 36bd e95f 183d a2a7 b1bc e991 873c
000000f0: fdac 8e3c 4be3 b43c a9a9 d0bc 288b 06bd
00000100: c70d e63c 97c1 30bd 07a4 f63a 20f5 ef3c
00000110: 48c0 d93b b273 28bd fd47 053e aa07 edbc
00000120: 9788 87bc 583d 8bbd c553 f83c 5357 033d
00000130: 0154 0abc 3d71 213d 6a5b 11bd 99f5 ccbd
00000140: 97ed 2c3d f2e5 0c3d 9f6f 133c a0ff 1dbd
00000150: fee3 c2bc db6e 10bd edb0 10bc b477 f23c
00000160: a4b1 2fbd 13f0 1dbd c183 efbd 787c d8bd
00000170: d0a7 74bd b7cf a2bc c224 b5bb 08da 713c
00000180: 50fe a1bd 1988 35bd f734 2bbd d66f 023d
00000190: 84c9 253d 7b25 b03c b351 b1bd 617f 52bd
000001a0: 125e 803d a16f d4bd 9dff 97bc b9d4 15bd
000001b0: 48aa 1fbd 7209 3a3d e00c afbd 9dbf d03d
000001c0: cfa2 683c ed3b 14bc 1723 bb3b 2b96 f8bc
000001d0: 198d adbd eca9 b2bc cf38 89bc 8e33 1bbd
000001e0: 980e a83d 9eee 24bc 27b5 643c 4e4b a73c
000001f0: 23b3 45bc 5ee9 a2bd 7f31 92bd d152 103d
-0.057671677 0.028847698 -0.107014105 0.008883974 0.012788346 -0.043239627 -0.016725145 -0.025057679
-0.10299741 -0.038941707 0.007439501 0.060094938 0.02697172 -0.038343854 -0.01603731 -0.06767555
0.055512793 0.019278757 -0.028181475 0.018739149 -0.0043818853 -0.032738302 0.03055948 -0.051836662
0.06635656 0.02023471 0.06295798 -0.048886474 -0.010013822 0.09145569 -0.031488754 -0.069565095
-0.055382818 -0.04642695 -0.06619291 -0.064784944 0.046675585 -0.021518249 0.002969011 -0.13745959
-0.010540619 0.04493557 0.011732901 0.06616493 0.047412653 0.04063373 -0.0043825577 -0.007834828
0.069399685 0.012985965 -0.049958345 -0.008837884 -0.0074844593 0.025393065 -0.081725664 0.02504854
-0.04459855 0.037200842 -0.021686379 0.016549068 0.017416472 0.022081038 -0.025471525 -0.032847553
0.028082741 -0.04315337 0.0018817195 0.02929169 0.006645236 -0.04112596 0.13015743 -0.028934319
-0.016544623 -0.0679881 0.030313382 0.0320657 -0.00844288 0.039414633 -0.03548757 -0.100077815
0.04221877 0.03439898 0.0089987805 -0.03857386 -0.023790356 -0.03526197 -0.008831245 0.029598095
-0.04289402 -0.03855903 -0.11695052 -0.105706155 -0.05973035 -0.019874437 -0.0055280635 0.014761455
-0.079098344 -0.044319246 -0.041798558 0.031844936 0.040475383 0.021502247 -0.08658161 -0.05139101
0.062679425 -0.10372854 -0.018554503 -0.03657982 -0.038980752 0.045419164 -0.085473776 0.10192797
0.014198973 -0.009047491 0.00571097 -0.030345043 -0.08474178 -0.02180954 -0.016750721 -0.037890963
0.082059085 -0.010066656 0.013959206 0.02042165 -0.012066635 -0.079546675 -0.07138347 0.03523523

messages.W_query f4 [1, 128, 128]
00000000: 576a 0c3b 88d1 67bd 8c0e b23d df54 20be
00000010: 4a25 8c3e dbc5 a93d 47e7 44be 72b9 47be
00000020: 5a85 2a3e 733f dabd 139f dfbb 80d9 9a3e
00000030: c1c8 853d 737e 393d 54a1 1d3e 8f73 fb3d
00000040: 3362 d03d f608 673e fc4f 4a3d fa68 84bd
00000050: 1a1d 8f3c 1141 4dbe 46a8 92bd 9370 0ebe
00000060: 26d5 1fbe fa52 7e3d 8f31 853c 9dd7 14be
00000070: 2750 ffbd 6fe6 d43d 94d1 83bc 8b12 fcbc
00000080: 3570 073c 3469 26bd 1a7c 0e3e 6118 93be
00000090: ac29 1abe d024 0e3e e03e bfba 8416 fb3c
000000a0: 2c90 bcbc 1329 ec3d d491 d5bc 6158 883d
000000b0: 88fe 08be 0e20 fdbc cd03 963d ef26 9abd
000000c0: 89a5 52be a7d4 2b3e 4030 2c3e e6aa 633e
000000d0: f40b 0ebe ac1c 1b3c 3c3f 25be c630 bebd
000000e0: d3b2 96bb 49f3 e1bd f63a a2bd 6c9e c5bd
000000f0: c8be eebd 816f f2bb c1c2 033d e07a 77be
00000100: 0e45 2abd dd79 8c3d 09f5 65bd e766 7dbd
00000110: 743e 7cbe 8503 273c e39d aebd 4e20 b93c
00000120: 4b63 093e 2982 f8bd a2c0 d2ba b222 68bd
00000130: 0b0c 4e3d b7de d3bd cfff 82bc ae97 70be
00000140: e82c 073d 8587 1abe af3a b93d 11f9 153e
00000150: 751a 76bc 5c15 463e 5794 4e3e 7b3b 81bd
00000160: 3fe3 09be b843 ca3d 30ee 253d 4b29 01bd
00000170: f758 c93d 4729 6a3d 311b 52bd 15b4 393e
00000180: 36c8 1c3e 3b96 523d 866a f7bd 9468 3cbe
00000190: b6b6 c43d 6fe6 8cbe 45f8 ab3a de6b ee3d
000001a0: 2fa0 70be 5866 56be b054 8f3e 28c2 73be
000001b0: ab46 54bb a3b0 a23d 852d 89bd 3628 84bd
000001c0: 1ba2 5f3d 6484 f83d caa8 45bd e5b4 08be
000001d0: 4ec9 1d3e 40c7 cb3b 5ada aebd e476 47be
000001e0: 13cf c83b 8c89 a13c 7f05 1f3d 8665 083e
000001f0: 98b8 90be 6ac8 7b3d b9cb 4fbe f3f5 bcbd
00000200: e341 f4ba 2144 abbd 5535 833d 63ce efbd
00000210: c389 1dbd cf84 033e 7c78 91bd cb1a 24be
00000220: 541e 993d 992c ba3c 132c adbd c8d3 cebc
00000230: b1e2 dc3d c95e 2abd af10 413e 111f f03d
00000240: 5b14 243e 0a0c be3d 4a26 533d 33b4 3f3d
00000250: 4674 8d3c 3638 7c3d 7756 ad3d 7ee7 a5bd
00000260: 37b3 bf3c 56b7 dd39 b47b 97bb 21aa 1dbe
00000270: 72d4 613d b5f6 afbb 611b 193e 49a8 953c
00000280: 7120 da3b cee7 4bbd bdb3 693e d370 f5bc
00000290: e335 803c 2529 31be 9080 6e3e 13a2 4b3d
000002a0: a5ec ca3c ccab 013e ea21 93bd d31b e9bd
000002b0: 36e6 b8bd beb5 b93d adc5 f2bc 688a 4cbe
000002c0: d3d3 7abd b314 043e 7d95 2a3e a554 0a3e
000002d0: 7765 23be 815f c73d 5b7f c03c 9b49 27be
000002e0: 16c2 aa3a d4bc f2b9 05aa 053c 6602 56bd
000002f0: c7bb 953d 186a c3bd a3c2 27be 4f73 78be
00000300: 2de1 42be 1891 babd 08bb f9bd 80ad 5ebd
00000310: c724 b0bd 8f4b 5fbd d109 8e3d bd69 0cbd
00000320: 8229 e43d 2d8a 09be 692a 10bd 183f 513d
00000330: c8a7 353e f29e ad3d 9d6f acbd 6939 39be
00000340: 6480 aebc 66b6 ccbd ff54 1b3d bd2e 8e3d
00000350: 5d31 3b3b 1ff0 1bbe 4cf6 be3d 752d 013d
00000360: 42cd a8bd deeb a73d 4f60 bd3d 5c68 973d
00000370: ac70 9a3d 8eb9 febc e6be d13d dcdd fc3d
00000380: 44f9 343e 6986 833d a33f ed3d 0371 3bbd
00000390: bea0 c03d 5784 a6bd 2244 0f3e 0545 27be
000003a0: ec92 d5bc b63f 84bd 85e6 f3bc 72b8 32be
000003b0: 00f5 2abe 7e82 d03d 265e 9d3d 9e87 a7bd
000003c0: b271 4f3e 08af 383e 7ba3 88bd f79a 40be
000003d0: a5a3 1ebd 9225 a83c 4178 adbc dd66 c1bd
000003e0: 2937 09be d7ad 10be 9165 1b3e 13b7 093e
000003f0: dca6 02bd 95fc 03be a9c2 82bd 1349 d1bd
0.0021425688 -0.05659631 0.08694181 -0.15657376 0.273722 0.08289691 -0.1922885 -0.19504336
0.16652432 -0.10656633 -0.006824383 0.30244064 0.065324314 0.045286607 0.15393573 0.122779004
0.1017498 0.22562012 0.049392685 -0.06465335 0.017469931 -0.20044352 -0.07161002 -0.13910131
-0.15608653 0.06209085 0.016258983 -0.14535375 -0.1246646 0.10395514 -0.016091146 -0.03077056
0.008266498 -0.040627673 0.13914528 -0.28729537 -0.15054959 0.1388123 -0.0014590882 0.030650385
-0.023017965 0.11531272 -0.026070513 0.06657482 -0.13378346 -0.030899074 0.07324944 -0.07526957
-0.20570959 0.16780339 0.16815281 0.22233161 -0.13871747 0.009467285 -0.16137403 -0.092866465
-0.004598954 -0.11032731 -0.07921402 -0.09649357 -0.116574824 -0.007398546 0.032168154 -0.24167967
-0.041569762 0.06859181 -0.056141887 -0.061865713 -0.24633199 0.01019371 -0.08526208 0.022598412
0.13416784 -0.12134201 -0.0016079138 -0.056673713 0.050304454 -0.10345214 -0.01599112 -0.23495361
0.03300181 -0.15090759 0.09044396 0.14645793 -0.015020956 0.19344085 0.20173775 -0.06310173
-0.13465594 0.098761976 0.040510356 -0.03153352 0.09831422 0.05716827 -0.051295463 0.18135102
0.1531075 0.051412802 -0.120808646 -0.18399268 0.09605162 -0.27519557 0.0013120255 0.11641668
-0.23498605 -0.20937479 0.279943 -0.23804533 -0.0032390754 0.07943847 -0.06698135 -0.06452982
0.054597955 0.121346265 -0.048256673 -0.13350256 0.15408823 0.006218821 -0.08537741 -0.19478947
0.006128201 0.019718908 0.0388236 0.13319978 -0.28265834 0.061470427 -0.20292558 -0.092265986
-0.0018635358 -0.08362604 0.06406657 -0.11709287 -0.038461458 0.12843631 -0.07103059 -0.16025846
0.07476488 0.022726344 -0.08455672 -0.02524747 0.107854255 -0.0415943 0.1885402 0.117246754
0.1602339 0.0927964 0.051550187 0.04680271 0.017267358 0.061577044 0.084637575 -0.08100794
0.023400886 0.00042289 -0.004622901 -0.1539693 0.055134244 -0.005369986 0.1495185 0.018268721
0.0066566993 -0.049781613 0.22822471 -0.029961025 0.015650695 -0.17300852 0.2329123 0.049715113
0.024771044 0.12663192 -0.07184203 -0.1138226 -0.09028284 0.09067868 -0.029635275 -0.19974673
-0.061237168 0.12898521 0.16658588 0.13508852 -0.15956675 0.09735013 0.023498228 -0.16336672
0.0013027813 -0.00046298525 0.008158212 -0.05224838 0.07311206 -0.0954172 -0.16382842 -0.24262737
-0.1903121 -0.09109706 -0.121938765 -0.05436468 -0.08600765 -0.054515418 0.06935466 -0.034280527
0.111407295 -0.13431616 -0.035196695 0.05108556 0.17739785 0.08477582 -0.08419726 -0.18088306
-0.021301456 -0.09995727 0.037922855 0.06942508 0.0028563358 -0.15228318 0.09324321 0.03153749
-0.08242275 0.08199285 0.09246885 0.07392952 0.07541022 -0.031094339 0.10241489 0.12347004
0.17673212 0.06422121 0.11584403 -0.045762073 0.09405659 -0.081307106 0.13990834 -0.16334923
-0.026071034 -0.064574644 -0.029773006 -0.17453173 -0.16695023 0.101811394 0.07683973 -0.08180164
0.20258215 0.18035519 -0.066718064 -0.18809114 -0.038730282 0.020525727 -0.021175506 -0.09443448
-0.13399948 -0.14128815 0.15175463 0.13448744 -0.03189741 -0.12889321 -0.06384785 -0.10219016

messages.W_key f4 [1, 128, 128]
00000000: 90cd 4b3e 3e6a 1dbc f33c 9bbd a729 c03d
00000010: b5ae 393d ad70 49be 142c af3d f0da 0abe
00000020: 8ca0 4dbd 063f 35bd e221 92bd 5093 e43c
00000030: 9f67 603d 517e 0b3e 0e89 65bd bc0d dbbd
00000040: 483d 9c3d 8e1b 01bd 68cc 29be ad9c 67be
00000050: 9d9c cf3d 0dda 433d 6c81 2fbe dfab 2d3d
00000060: 6c4e 083e a2ae f03c 1a9f 42bd 72a5 963c
00000070: 02dd 823c da8a 133e 0f74 3cbe 2d4b 533d
00000080: ac2f 933d 812d 03be bae1 83bd 69f6 e73d
00000090: 36bc 533d 84df 803e 4d4d fdbd 20bf 993e
000000a0: 061e 363d 0f6c 25bd 4f4a a4bc 972b 00bd
000000b0: 0f27 ac3d fcab 29be f7c1 203e c03a 033e
000000c0: ca39 70bd b40b 413e 51b0 5dbd c816 633e
000000d0: ec2b 1a3e 493e 71bc fa2d 023e e5bc 1b3e
000000e0: 4567 1ebe e86b 30be 2c9c ab3d 84a8 333e
000000f0: 88ff d2bd 78b2 be3d d7f7 a13d 8cd4 f53d
00000100: 5938 003d 5e6e 4c3e 5429 3e3e 70ce 0b3b
00000110: 12cd 37be a017 743d 74d0 17be 07f8 323e
00000120: af20 9f3d e0cd 903d 647e 403e 8714 153e
00000130: ae12 32be ca77 3cbd af5e 693d 3375 d13b
00000140: dd69 e13d 1aa5 b23c 4c45 a6bd 0bcf a7bd
00000150: 521e a33d f03d 0a3e 1d77 acbc 2de6 8dbe
00000160: 3a97 043e a26d 293d 5c80 903d 440e aa3d
00000170: 247a 90bd 98ab 933d df32 4fbe f07d 443d
00000180: 9d23 283d 1c4d 09be e337 96bd 2ec3 19ba
00000190: 1cf5 e2bd d682 e93c a208 9bbd 25aa 363e
000001a0: 09c5 74bc 49a9 5dbd 468f 883b ad53 aebc
000001b0: 59a2 6fbb de26 95bb ed7d 1bbe 744c db3d
000001c0: 77fb dcbd 3e8b 21be aa33 c0bc 938e da3c
000001d0: 713e e0bd 5a45 a73d 3fe4 8bbe 98fe 843d
000001e0: 8c5d 373e 6943 ea3c 39d1 8abd 7a30 ce3d
000001f0: c73c 553d 7610 4e3d 5b8d 29be 7104 b03d
00000200: 9050 35bd 7f56 e3bd 3b0c 773d 4212 5dbd
00000210: 8fa6 0cbc 4f94 323e d1c9 64bd 22c5 b93c
00000220: 2186 e23d aae7 f23d c623 9e3d d79d 673d
00000230: 02fd 41bc 636e 02be fd47 933d 12e6 bd3d
00000240: 2e23 0c3d bfc9 1abd 8341 5f3d 1d45 f4bc
00000250: 2a4b e93b 3818 aa3c 8e46 a23d 8af8 b0bb
00000260: b692 263d deec 823d e7bb 8b3d b50f a3bd
00000270: 8f3c 493d 0055 9fbd f6f4 fc3d 11ec c0bd
00000280: 81f9 a2bd c970 be3d 33ef f53c 5e56 1cbd
00000290: 29b8 703b 6815 fcbd ca9c 103e b5ab 20be
000002a0: 4479 a4bd af67 c1bd 2954 4bbd 020b cbbd
000002b0: 29ae 11be 3720 543d cc17 d9bd d466 d1bd
000002c0: b311 103d e087 3f3e e13e 083e 9a2a 3d3d
000002d0: cc3f eebc caf2 253e 4fb9 a63b bb88 aabd
000002e0: 5dbe 14bd 71a1 af3c 60d4 6fbd 7038 c2bb
000002f0: 9094 be3c 2ea2 8cbd a724 25be 7d94 94bd
00000300: 8b9d 41bc 7b64 e0bd 2e19 963b a185 88bd
00000310: 1c70 483c 74cb e0bc 5a11 df3d 444e 74bd
00000320: 9b56 fcbd 6cb8 3bbb 33a4 98bd 5356 8a3c
00000330: c658 843b 1f45 36bc 19b2 febd f749 49be
00000340: 8904 4b3d 20af 64bd 2436 163d 276c b93d
00000350: eda9 f5bd 1061 38be 8262 22bc beeb 573c
00000360: 2eaf ecbd e4df 973d 4e2e ae3d c66e b2bd
00000370: c23a d23b c2fe 803d 3b3e 213c 3082 ddb9
00000380: 2e50 e03d 89a9 c73d 4708 0b3e a640 83bd
00000390: b7e2 fdbc 564a 063d ab34 2f3d 2824 f73b
000003a0: 2335 063d b919 12be 6b49 e63c b216 63bd
000003b0: 25b0 36bd 8378 b03c 3818 093e cf56 fdbd
000003c0: d008 f13d a1b8 85bc d9e0 babd 3f0a e5bd
000003d0: 1397 993d af6d 03be ead1 cbbd b4a7 8dbd
000003e0: 0680 36be 1186 503c 7eb2 073e 596c c73d
000003f0: 9926 f9bd 324a b9bd 217b a2bd a410 23be
0.19902635 -0.00960785 -0.075799845 0.093829446 0.04533263 -0.19671889 0.08553329 -0.1356008
-0.050201938 -0.044249557 -0.07135369 0.027902275 0.05478632 0.13622405 -0.05603891 -0.10695979
0.07628876 -0.03152042 -0.16581881 -0.22618361 0.101372935 0.04781537 -0.17139214 0.042400237
0.13311166 0.029380146 -0.047515012 0.018389437 0.015974525 0.14408436 -0.18403648 0.051585365
0.07186827 -0.12810327 -0.06439538 0.11326296 0.051693164 0.2517053 -0.123682596 0.3002863
0.044462226 -0.040386256 -0.020054964 -0.03129157 0.08405887 -0.16569513 0.15698992 0.1281538
-0.058648862 0.1885212 -0.054123227 0.22176659 0.15055817 -0.014724323 0.12712851 0.15208776
-0.15469082 -0.17228663 0.08379397 0.17544752 -0.10302645 0.09311384 0.079086 0.12003431
0.031303737 0.19963977 0.18570453 0.0021332763 -0.17949322 0.059592843 -0.14825612 0.17477427
0.07769906 0.070705175 0.18798214 0.14558612 -0.17389938 -0.046012677 0.056975063 0.006392145
0.1100652 0.021807242 -0.08118686 -0.08193787 0.079647675 0.1350019 -0.021052891 -0.27714673
0.12948313 0.04136432 0.070557326 0.08303502 -0.070545465 0.07210463 -0.2023425 0.047971666
0.04104959 -0.13408321 -0.07334878 -0.0005865571 -0.11081907 0.02850477 -0.07570006 0.17838342
-0.014939555 -0.05411652 0.00416747 -0.021280134 -0.0036565273 -0.0045517525 -0.15184756 0.10707942
-0.107901506 -0.15775773 -0.023462135 0.026679313 -0.1094941 0.08167525 -0.27322575 0.064938724
0.17906779 0.028596597 -0.06778187 0.1006784 0.052059915 0.050308667 -0.16557829 0.08594597
-0.044266284 -0.11100482 0.0603144 -0.05397249 -0.008584633 0.17439388 -0.05585653 0.022677008
0.11060739 0.11860593 0.07721667 0.056547012 -0.011840107 -0.12737422 0.07191465 0.09272398
0.034213237 -0.037790056 0.054505836 -0.029818112 0.007119556 0.020763502 0.079236135 -0.005400722
0.04066726 0.06392835 0.06822949 -0.0796198 0.04913002 -0.07779884 0.1235141 -0.09420026
-0.07957745 0.09298856 0.030021286 -0.038168304 0.0036730862 -0.123087704 0.1412231 -0.15690501
-0.08030942 -0.09443604 -0.04964081 -0.09914209 -0.14226593 0.051788535 -0.10600242 -0.10224691
0.03517313 0.18704176 0.13305236 0.046183206 -0.029083155 0.16205898 0.0050880085 -0.083268605
-0.036314357 0.021439286 -0.058552146 -0.005927138 0.0232642 -0.06866871 -0.16127263 -0.072548844
-0.011817346 -0.10956665 0.0045806384 -0.06666113 0.01223376 -0.027440764 0.108919814 -0.059644952
-0.12321206 -0.002864386 -0.074531935 0.016886866 0.004038903 -0.011124878 -0.12436313 -0.19657122
0.049564872 -0.055831075 0.036672726 0.090538315 -0.119953014 -0.18005776 -0.009911181 0.013178764
-0.115568504 0.074157506 0.08504926 -0.087125346 0.006415696 0.06298591 0.009841497 -0.00042249402
0.10952793 0.09749133 0.13577376 -0.06408815 -0.030991895 0.032785736 0.042774837 0.007542152
0.03276552 -0.14267625 0.02811118 -0.055441566 -0.04460158 0.02154184 0.13388145 -0.12370073
0.11769259 -0.01632339 -0.091249175 -0.11183595 0.07499518 -0.1283481 -0.09952147 -0.069167525
-0.17822275 0.012727276 0.13251683 0.097374626 -0.12165565 -0.09047355 -0.07933641 -0.15924317

messages.W_val f4 [1, 128, 128]
00000000: 9fa1 d63c 3401 463c afeb ab3d ba6d 143e
00000010: ae5e b73d cad0 b4bd a11a 8e3c 77e8 923c
00000020: b390 913d afce ab3c fe8f debc 9464 bebb
00000030: 4d51 1abe e1f4 b7bc 9406 943c d640 2a3d
00000040: bbf9 8e3c 2db7 f8bc a99a a5bd d3cd cf3d
00000050: e584 a5bd c35f 4abb 258e bbbd da4f 0b3d
00000060: bad0 b1bd f20c fd3c 62d0 e9bc 0b64 9c3d
00000070: cd8a 56bc e120 243d 54e6 973d 6080 8c3c
00000080: 56f0 123e 0dec 31bd c065 febd b4f9 293d
00000090: 8f98 1b3c f353 a6bd 2492 b8bd ae7c 9fbd
000000a0: df11 623c 6a7b 5cbd 069d b23d 776a 8ebd
000000b0: 8f2c 813c bef1 3e3d a68a 923b 06b4 72bd
000000c0: 49da 23bd f55f ca3c c861 b8bd 6be0 913d
000000d0: bccf 27bc 3e4f 573d 6c1f 9f3d 8cbe 1b3d
000000e0: 974e dc3c 6a9e c4bc bbb4 6e3d a8d1 25bc
000000f0: c0aa 7f3d 26e6 16bd fc08 3ebd 8350 d03d
00000100: 363f 2b3c f8d0 b0bc d5cf 703d d525 54bd
00000110: b228 7abc d841 89bd 3a5d a5bd 8402 2b3c
00000120: 0114 e03c 4c2b da3d 3481 b8bd 16c9 1ebd
00000130: 3be1 923b 0083 a23d 0635 ac3d 2bd5 ccbd
00000140: 6209 b23d 138d 443d bc61 0dbd 24b5 bebd
00000150: 743f 6abc 08c1 113d 0ce9 b83c 4287 6bbd
00000160: a2af 0dbc 7ed6 4f3d e857 7abd 77c2 b0bc
00000170: de28 793d d734 a63d 1dd1 9b3d c0e8 1a3c
00000180: 0b6b 02bc 81e3 9bbd 3e75 eabc cf96 f4bc
00000190: ece3 233d a573 89bd 1f64 863b 1834 72bd
000001a0: 64d5 a03d 239a 95bc 9baf aa3d 6fda 9bbd
000001b0: 4692 6cbd 1e6c b93d 4ab5 a63c 856f 83bd
000001c0: 58d1 8d3d f55e c739 1d12 a43d 1444 9a3c
000001d0: dce8 ba3d 7046 833d 00bb 03bd d766 243d
000001e0: b683 a83d a0b8 573d 8316 653d 088b 263d
000001f0: dee5 15bb f0a5 2dbd 47c2 8cbd 0eb4 97bd
00000200: ef01 35bd 8e61 c33d 2f5b 4dbc 47b1 3f3d
00000210: f0eb 23bd 7ef8 b4bd 5e0a 48bc 660b ebbc
00000220: d603 a5bd 6306 00bd 3154 a63d 837c 3fbd
00000230: 8515 1cbe 6d62 cbbc 1820 bcbc 355b 2dbc
00000240: 2451 43bd 24c8 ad3d 9877 cfbd 6b25 1d3d
00000250: 3a85 113d 1cce fe3d b40c b0bd ad36 8f3d
00000260: 141b 8b3d d746 0b3c 776c c3bd 45f6 2e3d
00000270: 954a 0fbd bfa8 3abd 778a ee3d 6674 1c3c
00000280: 8529 7e3d 2112 333d 8172 b83c 0ca8 013d
00000290: a1cc aabd bf55 47bd d5ae d9bd a28f dcbc
000002a0: 116a c13b 31b3 f4bc ddda 3e3c 976d c0bb
000002b0: 83ac 1bbb 76f8 db3d 3d91 b03d 4913 edbd
000002c0: 178a cebc 40fa 593d 08e6 82bc fd1c e1bc
000002d0: 17b5 cdbc 65b7 7eba 3a39 a83d 0b10 e03c
000002e0: 2bf6 babd efaf d13d 0bda 79bd 0b5a 2a3d
000002f0: cfd3 84bd a031 75bd d899 c2bd 52b9 21bd
00000300: e6f4 50bd a1aa c93d d1ee 033c 1680 af3d
00000310: 8f83 1cbe e8e6 1f3c d779 9dbc 108d 233c
00000320: e346 58bd 10f9 57bc 93d8 bfbd 869c bbbd
00000330: df26 a3bd 57c8 c73c 06b9 513d 2a47 fc3c
00000340: afe3 413d 12ba b7bb 945b fe3d a289 30bd
00000350: c37e 33bd 6278 b03d 8a4f 923d b868 85bb
00000360: d55d ca3d 4567 813c ed37 aabd 1e40 9abd
00000370: 6552 2cbd 8e47 5e3d 7a8f db3d 7d84 973d
00000380: 8316 d7bd 48c6 0a3d 4819 5ebc f8b2 8f3d
00000390: bf3e 68bd 6970 a13d ec0d 003d edac 77bd
000003a0: e230 623c 62a4 2f3d 9010 cfbd d0cd a73d
000003b0: 76c3 073e 85c6 89bc c1a4 9a3d 515a 42bd
000003c0: fcd8 33bd 35c7 92bd 431b 7dbd 829f 503d
000003d0: 221f 95bd cfad c7bc 0054 06be 73e8 f03c
000003e0: 7163 10bd da8e 9dbd 9940 383d 41c6 6e3d
000003f0: bb18 383d cb70 1c3d 938a fd3d 3e19 b93d
0.026200114 0.012085248 0.083945625 0.14494982 0.089536056 -0.08828886 0.017346682 0.017933114
0.07107677 0.020972578 -0.02716827 -0.0058103297 -0.15070076 -0.022455635 0.018069543 0.04156574
0.017453065 -0.030360783 -0.0808614 0.1014668 -0.08081988 -0.0030879832 -0.09157971 0.0340117
-0.086823896 0.030889962 -0.028541747 0.07636269 -0.013094616 0.04007042 0.074169785 0.017151058
0.14349493 -0.043438006 -0.12421751 0.0414979 0.009496822 -0.08121481 -0.09012249 -0.07787453
0.013798206 -0.053828634 0.08721356 -0.069539 0.015768318 0.046617262 0.0044720946 -0.059253715
-0.040003095 0.024703959 -0.09003025 0.071228825 -0.010242399 0.052565806 0.07769665 0.038023517
0.026892943 -0.024001319 0.058277827 -0.010120787 0.0624187 -0.03684058 -0.046395287 0.101716064
0.010452082 -0.021584019 0.058791954 -0.051793892 -0.015268492 -0.06702012 -0.08074422 0.0104376115
0.027353289 0.106527895 -0.090090185 -0.03876599 0.004482416 0.079351425 0.08408551 -0.10001596
0.08693196 0.0479861 -0.034517035 -0.093118936 -0.014297355 0.03558448 0.022572063 -0.05750204
-0.008647831 0.050741665 -0.06111899 -0.021577103 0.06082999 0.08115547 0.076082446 0.009454906
-0.007960091 -0.07611752 -0.028620359 -0.029857067 0.040012285 -0.067115106 0.004101291 -0.05913171
0.07853201 -0.018261975 0.08334275 -0.07610022 -0.057756685 0.09053825 0.020350117 -0.06417755
0.06924695 0.00038026986 0.08011267 0.01883129 0.09126446 0.06409919 -0.03216076 0.04013714
0.08228247 0.052666306 0.055929672 0.040659934 -0.0022872607 -0.04239458 -0.06872993 -0.074073896
-0.044191297 0.095400915 -0.012533947 0.046799924 -0.04001993 -0.088364586 -0.012209503 -0.028691959
-0.08057372 -0.03125609 0.08121527 -0.046749603 -0.15242584 -0.024827207 -0.022964522 -0.0105808275
-0.047684804 0.084854394 -0.101302326 0.038365763 0.035527445 0.12441656 -0.08596173 0.069928505
0.06792274 0.008500776 -0.095421724 0.04271533 -0.034983236 -0.045571085 0.11647504 0.009549236
0.062051315 0.04371846 0.022515537 0.031654403 -0.08339811 -0.04866576 -0.1062905 -0.026923958
0.0059025367 -0.029870601 0.011648861 -0.005872439 -0.0023753948 0.107407495 0.08621452 -0.11575944
-0.02521233 0.053217173 -0.015978828 -0.027479643 -0.025110764 -0.0009716659 0.0821404 0.0273514
-0.09128984 0.10238635 -0.060998958 0.041589778 -0.06485712 -0.05986178 -0.095019996 -0.039483376
-0.051014803 0.09846998 0.008052544 0.08569352 -0.1528456 0.009759642 -0.019223137 0.009982362
-0.052801978 -0.01318194 -0.0936748 -0.09160714 -0.079663984 0.024387522 0.051201843 0.030795652
0.047336277 -0.005606898 0.12419811 -0.043100007 -0.04382206 0.08616711 0.07144077 -0.0040713213
0.09881178 0.015796313 -0.08311448 -0.07531761 -0.042070765 0.05426746 0.10720725 0.07398317
-0.10502341 0.033880502 -0.013555832 0.070165575 -0.056700464 0.07882769 0.031263277 -0.06046765
0.0138056 0.042881377 -0.10110581 0.081935525 0.13258156 -0.016818294 0.075509556 -0.047449414
-0.043908104 -0.07166902 -0.061793577 0.05093337 -0.07281329 -0.02437487 -0.13117981 0.029407715
-0.035251085 -0.076932624 0.04498348 0.05829454 0.04494546 0.038193505 0.123799466 0.09038018

messages.W_out f4 [1, 128, 128]
00000000: f25e 4cbd cd0d 22bd 281a 913c d2a5 15bd
00000010: e10a b53c 8a68 c9bd 51b0 f63c 5af9 b4bd
00000020: 9e55 a83d 0e63 0bbe d24b dbba 9fde 293c
00000030: ea65 4abb edbc 403d 25be 84bc 1793 2b3d
00000040: 6c43 7d3d a974 ae3c 549f 933b 649a 61bd
00000050: d335 bd3c b908 9dbb d92d 153c 59ed 0dbd
00000060: dcfa 62bd 60f1 1f3d a881 afbc a053 b33c
00000070: 2468 833d 3fbc 9dbc c3d1 aebd 55cd 5a3d
00000080: cc23 103d dec0 12ba 9dd9 2d3d b76e 18bd
00000090: 69e7 c83d e049 aebd d2c9 783c 48c8 83bd
000000a0: 79eb c4bc b56a 0e3d e0ea 5f3d 978e f2bc
000000b0: 20a9 2a3d 2d15 933d cd54 bdbd 5bea 05bd
000000c0: 1c5e 05bd 507a 84bd 31b5 db3b 9348 c1bc
000000d0: 3b2d c1bc 436c c9bc ebf5 a23c ae90 dbbb
000000e0: beeb 48bc 6891 7bba 985f 143d 8fe2 6a3d
000000f0: 6f3c a13c ad4f 423c c4bb 1f3c 53d7 993d
00000100: bd11 a5b9 c739 e2bc 43b0 a43c 0136 313d
00000110: 5712 e63d 13eb 09bc 2a82 703c 2d93 cc3c
00000120: 93d8 053d 6ffa ce3d 3792 b2bd 04f7 2b3d
00000130: bd90 093d 68f1 6d3d 7b78 c03d d04a da3c
00000140: 8e50 0c3a 2b62 a93c 4df3 a63d b60b d2bd
00000150: 8e1b a4bd 1fcd 053d 2593 2f3e a015 6b3d
00000160: 59d4 0f3b 9e20 b13d 086d 033d 96fc 20bd
00000170: 1dcc 6cbd 041b da3d ffb8 cabd e486 febd
00000180: 156f a53d 7ada 86bd 42c9 aa3d cfa8 46bd
00000190: 1507 923c 6ac3 2abd 1f2c 423d 0a70 ed3d
000001a0: c741 b53d e353 25bd 7fe3 36bc 576c 373c
000001b0: ff1d 813d a479 0ebc e825 ab3c db6b 513d
000001c0: d8ba 613c 1751 8f3d b389 9fbd a890 22bd
000001d0: 0341 80bd bc10 9d3d cca9 93bc b774 163d
000001e0: d9b3 a2bd e7a0 c7bc 25c3 6f3d 936d fcbb
000001f0: 3cc7 04bd dd9b 84bd b445 6bbc 8cd0 a8bd
00000200: bc4e 68bc debf ec3c 7278 d93b 86f4 093c
00000210: ccaf b0bc 2e83 493c aa3f dcbd 5080 babd
00000220: 77a0 24bd b68a e0bd 8d92 99bd 681b 61bd
00000230: d42d fb3c 56b3 b93d 191f 3b3d 5b14 8ebd
00000240: 8430 8fbd 4270 01bc cd30 8c3d 07f6 28bc
00000250: 7770 86bc cdd7 c6bc 7e83 f4bd 711a 8fbd
00000260: 0ebd 87bd 598f 9bbc 8e89 863d d04e 963d
00000270: 01b8 8ebd 746c 33bc c79b d43b 3597 e63b
00000280: 47a5 bb3d 6827 02be 47be 09bd ef9e 01bd
00000290: 41b4 45bd 3bac a33d a4bd 5bba b902 093c
000002a0: 795b ff3c b1ba 8dbd 24db 03bc dcf3 82bd
000002b0: 1b7e 1b3c 76ca b8bc 881b 463b 903e 0abd
000002c0: b44a 843d ec68 323d f99c a4b9 1824 ef3c
000002d0: 4c0d 57bb 85ff 7a3d 2aab 9e3d 85f3 cabc
000002e0: e0ee e7bb a6be 213d 92a3 8b3d c7f0 95bd
000002f0: 0722 56bd 21d4 a5bd e0fe 7fbd 5a0c 073d
00000300: 7aaa 8c3c e0d7 9d3d af18 5dbd 3460 50bd
00000310: a097 493d 6373 d83d 58e7 32bd 205f 963d
00000320: e04d 373d 037c b53d 53ca 04be 38a2 31bd
00000330: 9087 a53c 2cfb 7a3c 556d 62bd 46b7 853d
00000340: 56ae e0bd ffcd 12be f83d c83d 7358 cd3b
00000350: 16af 60bd b55f 503d 3da3 38bc fa2f 9abd
00000360: 9955 f2bd 3a75 0cbd 8c7a 873d eb00 1c3d
00000370: 3558 803c 4994 8f3c 0fc9 2bbc 278b 90bb
00000380: 5055 dc3c 78c7 743d b72e 06bd 3301 3dbc
00000390: 5ad5 bf3d 272f e5bd 204e 813d f05b cf3c
000003a0: 7061 e13c cadb f1bc 29f5 deba c2f1 43bd
000003b0: e0e0 b43d a55e 3dbd 4cec a33d 9882 123c
000003c0: a50f 08be 8cc9 403d 6a51 95bd 3f13 603d
000003d0: 84f5 103c 4246 e63d 8e78 3abd 86b1 8e3d
000003e0: 3952 383d 9e0b 9d3d 8ec5 96bc 9a09 52bd
000003f0: 0641 0a3d 2bb2 fd3d 6a1c bfbd 046d 213d
-0.049895234 -0.039563943 0.017712668 -0.03653509 0.022099914 -0.09834392 0.030113371 -0.088366225
0.08219455 -0.13612005 -0.001673097 0.010368018 -0.00308835 0.047055174 -0.01620395 0.041888323
0.061831877 0.021295862 0.0045050774 -0.05507888 0.023096954 -0.0047922996 0.009105169 -0.03465018
-0.05541502 0.039048553 -0.02142413 0.021890461 0.064163476 -0.019254802 -0.085361026 0.053418476
0.03519039 -0.00055981975 0.04244386 -0.03721496 0.09809763 -0.08510184 0.015184836 -0.06434685
-0.024038063 0.034769733 0.054667354 -0.029609008 0.041665196 0.07181773 -0.0924469 -0.032694202
-0.032560453 -0.06468642 0.0067049493 -0.023594176 -0.023581138 -0.024587756 0.019892653 -0.006700597
-0.012263237 -0.00095965574 0.036223978 0.05734497 0.019682137 0.0118598165 0.009749357 0.07511773
-0.00031484468 -0.027615441 0.02010358 0.043264393 0.11233967 -0.0084178625 0.014679471 0.024972523
0.032677244 0.1010636 -0.087192945 0.04198362 0.0335853 0.05809155 0.0939798 0.026647002
0.000535258 0.020676693 0.08151875 -0.1025614 -0.08013068 0.03266632 0.17145975 0.05739367
0.0021946637 0.08648799 0.032086402 -0.039303385 -0.057811845 0.10649684 -0.098985665 -0.12428072
0.08077828 -0.0658464 0.08339168 -0.048500832 0.017825643 -0.041690268 0.04740536 0.115936354
0.08850437 -0.040363204 -0.011162638 0.011195264 0.063045494 -0.008695994 0.020892099 0.05112825
0.013777457 0.069978885 -0.07789936 -0.039688736 -0.062624 0.076692075 -0.018025301 0.0367324
-0.079444595 -0.024368716 0.058535714 -0.007703492 -0.032416567 -0.06475041 -0.01435988 -0.08242902
-0.014178928 0.028900083 0.0066366727 0.008420115 -0.021568201 0.012299342 -0.107543305 -0.09106505
-0.040192094 -0.10963957 -0.074986555 -0.054957777 0.030661501 0.09067409 0.045683954 -0.06937476
-0.069916755 -0.0079002995 0.068452455 -0.010312564 -0.01641105 -0.024272824 -0.11939143 -0.06987465
-0.06627856 -0.018989252 0.06569205 0.07339251 -0.0696869 -0.01095115 0.0064882967 0.0070370683
0.091623835 -0.12710345 -0.03362873 -0.03164571 -0.048267607 0.07991835 -0.00083824457 0.008362466
0.031171547 -0.06920374 -0.008047853 -0.06394169 0.009490515 -0.022557478 0.0030228812 -0.03375107
0.06459561 0.043557093 -0.0003139747 0.029192016 -0.0032814322 0.06127884 0.07747491 -0.024774322
-0.0070780367 0.039488457 0.06818308 -0.07321315 -0.052278545 -0.08097101 -0.062498927 0.032970764
0.017171133 0.077071905 -0.05397862 -0.050872996 0.049216866 0.10568883 -0.043677658 0.073423624
0.044752 0.08861544 -0.12967806 -0.043367594 0.020206243 0.015318673 -0.05528005 0.06529097
-0.10970752 -0.14336394 0.097774446 0.0062666475 -0.054854475 0.050872523 -0.011269388 -0.07528682
-0.11832733 -0.034291483 0.06615171 0.038086813 0.01566706 0.017526763 -0.010484948 -0.0044111195
0.026896149 0.05976054 -0.032759394 -0.01153593 0.093668655 -0.11190634 0.06313729 0.025312394
0.027512282 -0.029523749 -0.0017010319 -0.04783798 0.08831954 -0.04623284 0.080040544 0.008942269
-0.13287218 0.04706721 -0.07290919 0.054705855 0.008847598 0.11243869 -0.045525126 0.06967454
0.04500029 0.076682314 -0.018404748 -0.051278688 0.033753417 0.123874985 -0.093315914 0.039410606

update.0.weight f4 [128, 256]
00000000: 4fb0 4bbe fd09 a8be 179c 87bd eda5 fb3d
00000010: f386 d53d 839a 923d 3c3f 8bbc b854 213d
00000020: b7a7 a7bc 852d d2bc 8e3a 49bc d39f d3bd
00000030: f736 d43d 22aa debc a4cd 853d 861c 603e
00000040: 815d 1ebe d4f8 85be f269 9f3d 4c48 11be
00000050: 1a34 9bbc b202 9e3c 5696 4cbe c6f4 fbbc
00000060: e1ef 723d 273d 83be a332 303e eef7 5dbd
00000070: 9dd3 c93d 97fd e1bd 96a1 85be 7c68 023e
00000080: b1df 43be f9fc 133e 81bd 913d a1bb 66bc
00000090: 21d8 3f3d 6086 433c 6e9d 3a3d 71de 33bd
000000a0: a793 b4bd 10ce 93be e689 f4bc 1d8a 22bd
000000b0: 4909 e43d 3254 fe3d a4d9 b83b 4708 2c3c
000000c0: 1f31 30be 3fc0 8fbc 60e2 b33d be05 1cbd
000000d0: ff5a 803d 6897 e6bd 3f25 013e 4a20 6a3e
000000e0: 62b1 193d 6e07 25be 5eda 23bd ceda 0b3d
000000f0: 511a 5c3e 5171 45be 6ade e7bd 78e9 483e
00000100: 912a 35bb a595 7a3d 5538 4dbd 8ed7 b6bc
00000110: f5af 453d d1e3 80bd 34a1 d93d f69f a13d
00000120: 49c9 debd dc2a a53d 8794 c43d 895a 4abe
00000130: 4a9f 94bc 85de 38be 4ed7 103e 85af 003e
00000140: 5c7c a03d e00a 14be d917 9cbd 2444 17bb
00000150: 9f43 dbbd 6e97 5bbd 7c3f 58be 6245 49bd
00000160: 53ef f93d c0ac cf3d 0bae cabd 21a5 89be
00000170: 9671 6e3d d111 3dbe 27e1 8e3b 81f9 d93d
00000180: 1ff2 1bbe 4452 9fbc 1c21 e93d a36f 2c3d
00000190: 5f36 533d 171f 9fbe f33d 9ebd a1ad 4ebd
000001a0: d700 283e aac5 2f3e f033 cebd f408 21be
000001b0: 4f88 d23d 62c1 a43d 5ea3 54be c600 5abd
000001c0: 46b8 6c3e 1a31 223b a035 063e 651a 383d
000001d0: f558 853d 95a6 023e 454b 64be 3294 2dbb
000001e0: 3b4e a13d 57a0 1d3e d3d4 debd 9cb1 1ebd
000001f0: 1a9c f9bd ed63 61bd 9009 e9bd b50f 88bd
00000200: b468 0d3c c7ac 843b ba8c d53c 365d 3abe
00000210: c9e2 8cbc 9af3 91bc 1b4d 843d 759a 063e
00000220: acff bfbc 5813 5d3d ad77 d03d 26d8 34be
00000230: 776a 853d a628 5a3c 8fe7 94bc 211c cebd
00000240: 776f 383c adee fc3d 54cd ec3c a40c 96bd
00000250: 0485 3cbd 014d fc3d 502c eabd e0a4 b23c
00000260: ff74 ee3c 5232 3fbd 59cc c1bd f47c 67bd
00000270: a5ae 8b3c 28e9 0dbe 929c be3b dcfc a93d
00000280: 453c a83c 75b2 903d 6446 bcbd 33d1 dabc
00000290: 9e4e a5bd 9601 fc3d e3ee 663d fa91 893d
000002a0: aa46 f03b 35b5 99bd c979 7fbd d010 dd3d
000002b0: 4880 583d 75c9 03bd ffe7 1c3d 85c3 7dbb
000002c0: 27a6 1ebd 73ca bbbd 91d7 04be c545 15bd
000002d0: 3bb4 723d c709 633c 7b26 903d 40b4 18be
000002e0: 9681 7abd eb37 25bd ce22 dfbd b7be 2c3e
000002f0: 4fab 29bd 5706 5e3d d394 b83d 8424 8cbc
00000300: 3881 e63d 82bb 233e 2fb1 43bd 8afa 83be
00000310: 1ff2 98bc 72e0 7d3c cddd 09bd 4664 bd3c
00000320: 0852 d0bc 8b53 75bd 0f83 513d c914 213d
00000330: 371c 2fbb db13 5ebc c71f b6bd 9d45 2c3d
00000340: 6c93 b8bd cd26 58bd 2a53 0dbd 4e89 6bbd
00000350: d9fc 483d 84f4 dd3d 9dfb d4bd 85dd 033e
00000360: e83b 9c3d e7b5 a4bd 3671 c5bd 0b71 4fbd
00000370: 2162 993d 75cd 833d 6488 c4ba ca52 e2bc
00000380: f7f7 e6bd c92e 173c 22a5 753d 4cde 4cbd
00000390: 35e4 01bb 4b60 14be b99c f1bd b29f 5abd
000003a0: 5573 4ebd 9b2e b0bd 3ebf a13c 8893 473c
000003b0: 91c2 44bb 1a03 023c 64af 3b3b 0afa 81bd
000003c0: 834f 4dbe d290 073e 1fa2 a83c eb1d 1a3e
000003d0: b958 4cbd 4fc5 23bd a7ff b1bd 1c1c 953d
000003e0: 270f 0dbe 9027 acbd 1eee 98bd eab2 403d
000003f0: 18e5 653e ca18 d23c 886b 97bb f88b edbd
-0.19891475 -0.3282012 -0.06621569 0.12287507 0.1042613 0.07158377 -0.016997926 0.039387435
-0.020465715 -0.025656471 -0.012282027 -0.103332184 0.10362046 -0.027180735 0.065333635 0.21885881
-0.15465356 -0.26166403 0.07783879 -0.14187735 -0.018945742 0.019288395 -0.19979224 -0.030756366
0.059310798 -0.25632593 0.17206816 -0.054191522 0.09854815 -0.110346965 -0.26099843 0.1273517
-0.191283 0.1445197 0.07116223 -0.01408282 0.046836976 0.011933893 0.045560293 -0.04391331
-0.08817225 -0.2886815 -0.029850911 -0.039682496 0.111345835 0.12418403 0.005641179 0.01050002
-0.17206238 -0.017547725 0.08783412 -0.038091414 0.06267356 -0.11259347 0.12611865 0.2286388
0.03752268 -0.16116115 -0.040003173 0.034144215 0.21494414 -0.19281508 -0.11321719 0.19620311
-0.002764378 0.06117787 -0.05010255 -0.022319581 0.04826351 -0.062934525 0.1062645 0.07891838
-0.10878236 0.080648154 0.09598642 -0.19761099 -0.018142361 -0.18053634 0.14144632 0.12566955
0.0783622 -0.14457273 -0.07621736 -0.0023081386 -0.10706257 -0.05361121 -0.21117967 -0.049138434
0.122038506 0.10140371 -0.09896477 -0.26883796 0.058213793 -0.18463828 0.0043603363 0.10643292
-0.1522908 -0.019448407 0.11383268 0.042098653 0.051565524 -0.31078407 -0.077266596 -0.050458554
0.1640657 0.17165247 -0.100685 -0.15726072 0.10279905 0.08044697 -0.20765445 -0.053223394
0.2311717 0.0024748505 0.13106394 0.044947047 0.06511108 0.12758859 -0.22294338 -0.0026486036
0.078762494 0.15393196 -0.10880437 -0.0387436 -0.12187977 -0.055026937 -0.11378777 -0.06643621
0.00863092 0.004048917 0.02606808 -0.1819962 -0.017197983 -0.017816354 0.06460019 0.13144858
-0.023437344 0.053973526 0.10179076 -0.17660579 0.06514447 0.013315355 -0.018176822 -0.10063959
0.011257044 0.12350211 0.028906502 -0.0732663 -0.04602529 0.12319375 -0.11434233 0.021807134
0.029108522 -0.04667885 -0.09462804 -0.05651565 0.01705105 -0.13858473 0.0058170045 0.08300182
0.020536551 0.07065288 -0.091931134 -0.026711082 -0.08071636 0.1230499 0.056380164 0.06717296
0.0073326426 -0.075052656 -0.062372003 0.10794222 0.052856714 -0.032174546 0.038307186 -0.0038721275
-0.038732674 -0.091694735 -0.12972857 -0.03644349 0.059253912 0.013857312 0.070385896 -0.1491251
-0.06115874 -0.04033653 -0.1089531 0.16869627 -0.04142314 0.054205265 0.09012761 -0.017107256
0.11255115 0.15989497 -0.047776397 -0.25777084 -0.01867014 0.015495406 -0.03365879 0.023119103
-0.02542974 -0.059894126 0.051150378 0.039326463 -0.0026719698 -0.013554539 -0.0889278 0.042058576
-0.090124935 -0.05277138 -0.03450314 -0.05750399 0.04906926 0.10837653 -0.10399554 0.12877472
0.07628614 -0.080425076 -0.09640734 -0.050644916 0.0748942 0.06435672 -0.0014994261 -0.027627368
-0.11277764 0.009227463 0.059971936 -0.050016686 -0.001981986 -0.14489858 -0.117974706 -0.053374954
-0.050402958 -0.08602639 0.019744512 0.01218117 -0.0030023197 0.00793531 0.0028638477 -0.06346519
-0.20049863 0.13238838 0.020585118 0.15050475 -0.0498893 -0.03998309 -0.0869134 0.07280752
-0.13775311 -0.084059834 -0.07467292 0.047045626 0.22450674 0.025646586 -0.004620973 -0.115989625

update.0.bias f4 [128]
00000000: 3e04 9a3b b377 5bbd 749f 0d3c 7b29 91bd
00000010: 8363 003e d6d6 803d 7d54 4cbc cd97 4cbd
00000020: 1029 79bb 912d 07bc d9f3 dcbd e8c1 02bd
00000030: 9257 043d 005c 783d 47de 1d3d f698 dd3b
00000040: a985 843d fde1 533b 0451 e4bc fe8b 433d
00000050: 1ac8 303b 59f2 fbbc 5077 173c 3825 e8bc
00000060: 4cef 703d a15c 9ebc fe93 87bb b8f7 26bc
00000070: d8ab fdba 4276 0fbd e944 4b3d ddaf 273d
00000080: 7df1 9a3c 0dcb fa3c 32e9 a8bc 3b1a 303c
00000090: 3eb2 283c f91e 033d ab4d 003d 3893 3bbd
000000a0: 7d30 19bd e50c b4bd 9395 963d 2b1b d03c
000000b0: 8850 bebc 0188 5d3d a0c4 5b3d b604 36bd
000000c0: ccd5 da3c 51ab 6abb d7fc 18bd efa5 fd3d
000000d0: 60e1 78bc 2136 5fbc d5ce 17bd 0bd2 a33c
000000e0: f752 f83c 7aeb 0fbc 8858 953c 2d44 d4bd
000000f0: 95b9 b73d 0704 84bc f778 3a3d 9c87 f0bc
00000100: ca0e 74bd 15c1 bc3c c1b9 073d 6b87 c2bc
00000110: 2306 853d f021 0e3d 2476 1c3d b1be 633d
00000120: b350 363c 6ed1 453c 89c0 293d ebb2 37bb
00000130: 4226 993d be15 d33c d5a6 593d 1b89 963d
00000140: 68ff a03d bc66 12bd 6d48 c3bc a3f2 ff3d
00000150: 985c d6bb 92a5 61bc 3b0c 0cbd c013 8fbc
00000160: 898c 033d 64b4 653d b6d4 1d3d aa76 3d3d
00000170: ea07 bebc 845e 86bc 97c6 a53d 711d 903a
00000180: f068 73bc 9a86 603d 153e be3d 2bef 213d
00000190: 49cd b03a 7adb 0ebc 8cbe 1e3c 49c6 163a
000001a0: 57bd d03c 3f4f a73c d0cb 2abd 1f6e e9bc
000001b0: 79d4 37bd 6caf b03d b8d4 f73c cc04 89bc
000001c0: 70db 453d e99d ccbc 9b5d 123e 8a80 e63d
000001d0: 6ce8 0abd 9cc1 febd 8252 ea3c 510b a83d
000001e0: a322 03bd 9b95 d3bc 81d3 b93d 5660 ecbc
000001f0: e32c b13c 75d2 203c a4ed f33b 658e c13c
0.0047002127 -0.05358095 0.008643974 -0.0708799 0.1253796 0.06290977 -0.012471315 -0.049949456
-0.003801886 -0.00825061 -0.10788698 -0.031923205 0.032310076 0.060634613 0.03854206 0.006762619
0.06470806 0.0032330744 -0.027870663 0.04774093 0.0026974739 -0.030755209 0.009244755 -0.02833806
0.05882196 -0.019331278 -0.004137515 -0.010190897 -0.0019353582 -0.03502489 0.049626265 0.0409392
0.018913979 0.0306144 -0.020619009 0.010748441 0.0102964025 0.03201196 0.03132407 -0.045794696
-0.037399758 -0.08791522 0.07352748 0.02540358 -0.02323176 0.05408478 0.053654313 -0.044438086
0.026713274 -0.003580768 -0.037350502 0.12385165 -0.015190452 -0.013623745 -0.037062485 0.019997617
0.030312998 -0.008784169 0.018230692 -0.10364566 0.08970944 -0.016115202 0.045525517 -0.029361539
-0.059584416 0.023041287 0.033136133 -0.023746213 0.06495311 0.034700334 0.038198605 0.05560178
0.011127639 0.012073858 0.04144338 -0.0028030227 0.07478 0.025767203 0.05313762 0.073503695
0.07861215 -0.035742506 -0.023838246 0.12497451 -0.0065417998 -0.013772385 -0.03419135 -0.017465472
0.032116447 0.056080237 0.038532935 0.046255745 -0.023197133 -0.01640249 0.08094519 0.0010995102
-0.014856562 0.054815866 0.09289185 0.03953473 0.0013488914 -0.0087193195 0.009688985 0.00057515927
0.02548091 0.02042353 -0.041698277 -0.028494893 -0.044880364 0.08627209 0.0302528 -0.01672592
0.048304975 -0.024977641 0.1429352 0.11254986 -0.03391306 -0.12439272 0.028603796 0.082052834
-0.032015454 -0.025828173 0.09073544 -0.02885453 0.021627849 0.009815802 0.0074441005 0.02362747
