models/sl/na3_uc.pt (torch_old, 540965 bytes, 45 tensors)

encoder.0.weight f4 [128, 8]
0	0xbd9fdf8b	-0.07806309
1	0xbe039fb9	-0.12853898
2	0x3e348bf7	0.17631517
3	0x3d44be7d	0.048033226
4	0x3de1b75b	0.110213004
5	0x3def8a54	0.11696306
6	0x3d9e1246	0.07718329
7	0xbd84982e	-0.064743385
8	0xbd0fd2f2	-0.035113283
9	0xbc0b5493	-0.008504051
10	0xbcc0dc73	-0.023542618
11	0x3e100a88	0.14066517
12	0x3dd37411	0.10324872
13	0x3c98f3c1	0.018670918
14	0x3e549854	0.20761234
15	0xbd9867e3	-0.0744169
16	0xbca4f23b	-0.020135036
17	0xbe09765e	-0.1342406
18	0xbe387b5d	-0.1801581
19	0xb9ee684e	-0.0004547261
20	0x3dddb654	0.10825792
21	0xbe7e654b	-0.24843328
22	0x3dcd2414	0.10016647
23	0xbe49dfb1	-0.19714238
24	0x3e28def7	0.16491304
25	0xbcee7d9d	-0.029112631
26	0xbc0ebc2d	-0.008711857
27	0xbdd9fc48	-0.10643822
28	0x3cc1fb53	0.023679411
29	0xbdb6f34f	-0.08933126
30	0xbe1ce73b	-0.15322582
31	0x3e13cb37	0.14432989
32	0x3b9239c5	0.004462453
33	0xbdcc0319	-0.09961528
34	0xbc40cdb0	-0.01176779
35	0xbb7d2fb2	-0.0038633165
36	0x3bdddc15	0.0067706206
37	0xbce1aff0	-0.027549714
38	0xbd8149a9	-0.06312878
39	0x3e1101c9	0.14160837
40	0x3e19c410	0.15016198
41	0x3d3fcf7c	0.046828732
42	0xbdc5dc58	-0.09661168
43	0x3e0ba78c	0.13638133
44	0xbd9d488e	-0.07679854
45	0xbd070bc0	-0.03297019
46	0xbdef56d4	-0.11686483
47	0x3d405bbc	0.046962485
48	0xbd2635d0	-0.040578663
49	0x3de3dd96	0.111262485
50	0x3e2cf71a	0.16891137
51	0x3d347418	0.044056028
52	0xbcac7496	-0.021051686
53	0xbe8a7964	-0.2704574
54	0x3e0ebf22	0.13940099
55	0x3dc7cdbe	0.09756039
56	0xbca9d880	-0.020733118
57	0x3d11394c	0.035455033
58	0x3e130d0f	0.1436045
59	0x3d93fba5	0.07225732
60	0x3d670acd	0.056406785
61	0xbd21fa3d	-0.039545286
62	0xbe1b634b	-0.15174596
63	0x3e4dc09a	0.20093003
64	0x3d1cde63	0.038298022
65	0xbd222cc2	-0.039593466
66	0x3d7ab302	0.06120587
67	0x3e93fef1	0.28905442
68	0x3d21b317	0.039477434
69	0x3d24baec	0.040217325
70	0x3dbcd3a2	0.09220053
71	0xbd93dfd7	-0.072204284
72	0x3d5bd9a8	0.05367437
73	0x3c8375a7	0.016047312
74	0x3e56dd32	0.20982817
75	0x3de5d9e3	0.11223199
76	0x3de56273	0.11200418
77	0xbdb58d10	-0.08864796
78	0x3dc167c2	0.09443618
79	0x3e058a7b	0.13041107
80	0x3e0dcc97	0.13847576
81	0xbdd8ff5b	-0.1059558
82	0x3c335578	0.01094567
83	0x3ddae493	0.10688128
84	0x3e4d1d56	0.20030722
85	0x3ded4ce9	0.11586935
86	0x3de9eb5a	0.11421843
87	0x3cd1957d	0.025583977
88	0xbdacdf76	-0.08441059
89	0xb8af0d49	-8.347125e-05
90	0xbe305788	-0.1722089
91	0x3e14c754	0.14529163
92	0x3e0d4270	0.13794875
93	0xbe98982b	-0.29803595
94	0x3d00c832	0.03144092
95	0x3cdf525a	0.027260948
96	0xbcb3ca21	-0.021946969
97	0xbb03a74d	-0.0020088733
98	0x3db0943a	0.08622022
99	0xbc582e3d	-0.013194618
100	0xbe155455	-0.14582951
101	0x3e243ec3	0.16039567
102	0xbe27da4c	-0.16391867
103	0x3dbe8f81	0.09304715
104	0xbb8fa175	-0.004383261
105	0xbdbd9750	-0.09257376
106	0x3e16a663	0.14711909
107	0xbe16833f	-0.14698504
108	0xbe59844f	-0.21241878
109	0x3d2aa21b	0.041658502
110	0x3d2a8048	0.041626245
111	0xbce3edbd	-0.027823323
112	0xbb8f22fc	-0.004368184
113	0xbcd3089e	-0.025760945
114	0xbce86718	-0.028369471
115	0x3d961cf9	0.07329745
116	0xbdd0a0c9	-0.10186917
117	0xbdc5d068	-0.09658891
118	0x3e0721d0	0.13196492
119	0x3e56c2ec	0.20972794
120	0xbd8dc2e7	-0.0692194
121	0xbd9410fc	-0.07229802
122	0xbcd8731c	-0.026422076
123	0xbc8b7762	-0.0170247
124	0xbd23eabf	-0.040018793
125	0x3de2e0fa	0.11078067
126	0xbe8c6ca4	-0.27426636
127	0x3ddb2015	0.106994785
128	0xbd44551b	-0.047932725
129	0x3dc3631a	0.095403865
130	0xbc0b4744	-0.008500878
131	0x3de1af37	0.11019748
132	0xbd9fc2c4	-0.078008205
133	0x3d27c272	0.040956922
134	0x3bcd2416	0.0062604053
135	0xbea6a725	-0.32549396
136	0x3de526c0	0.111890316
137	0xbdb431ac	-0.08798537
138	0x3e086ef4	0.13323575
139	0x3dada1f7	0.08478158
140	0x3e1f1a6b	0.15537421
141	0x3c838245	0.016053328
142	0x3e227165	0.15863569
143	0xbbab1d6a	-0.0052220123
144	0xbb9a08ed	-0.004700771
145	0xbc4f8039	-0.012664848
146	0x3d958438	0.07300609
147	0xbdabf454	-0.08396211
148	0x3d742fbc	0.059615836
149	0xbe708d80	-0.23491478
150	0x3d19947d	0.037495125
151	0x3e91f8e3	0.28510198
152	0xbdb8600c	-0.090026945
153	0x3e1368fb	0.14395516
154	0xbcfdee06	-0.030997287
155	0xbcf064f1	-0.029345008
156	0xbcf430ef	-0.02980849
157	0xbdb188a6	-0.08668642
158	0x3d9efbb9	0.07762856
159	0x3e73769b	0.23775713
160	0x3e1b88e2	0.15188935
161	0x3d3867fd	0.045021046
162	0xbd5daaf2	-0.054118104
163	0x3cfd0632	0.030886743
164	0xbb81e367	-0.003963876
165	0x3e408bfe	0.18803403
166	0xbd223e53	-0.03961022
167	0x3d281836	0.041038714
168	0xbcfe0445	-0.031007895
169	0x3e04cbd4	0.1296838
170	0x3d842c5b	0.06453773
171	0x3d80ca9e	0.06288646
172	0x3d7a3e17	0.06109437
173	0xbe4aeac3	-0.19816117
174	0x3da9eb5f	0.082968466
175	0x3e328004	0.17431647
176	0xbc3b0b89	-0.011416324
177	0xbd25519e	-0.04036104
178	0xbca2b073	-0.019859528
179	0xbde66666	-0.1125
180	0x3e3455a8	0.176108
181	0x3d9779f9	0.07396311
182	0x3e11ca5e	0.14237353
183	0x3e410447	0.18849288
184	0xbd0d1b79	-0.034450028
185	0xbbd2dd16	-0.006435047
186	0x3d94f066	0.07272415
187	0xbab9d38a	-0.0014177423
188	0xbe112cf2	-0.14177302
189	0x3d9a79bb	0.075427495
190	0x3db81124	0.08987644
191	0x3e4a41b3	0.19751625
192	0xbd0327fe	-0.03202056
193	0xbe847b24	-0.258752
194	0xbd36c81b	-0.04462443
195	0x3d4eafbe	0.05046057
196	0xbde477e5	-0.111556806
197	0x3d93c8d6	0.07216041
198	0xbcf23f70	-0.029571265
199	0x3d10ee0d	0.035383273
200	0xbd7b15b6	-0.061300002
201	0xbd5e45dd	-0.054265846
202	0xbe41bbc8	-0.18919289
203	0x3d1e99e9	0.038721
204	0x3e16b9bb	0.14719288
205	0xbdbd6f4c	-0.09249744
206	0x3e5cc44d	0.21559258
207	0xbc592dbf	-0.013255536
208	0x3c228fcd	0.00992198
209	0x3d53e61d	0.051733125
210	0x3cd9f37b	0.026605358
211	0x3d289929	0.04116169
212	0xbe5c21a9	-0.21497215
213	0xbecb500c	-0.39709508
214	0x3c8e9660	0.017405689
215	0xbc859789	-0.01630761
216	0x3aa83c1b	0.0012835296
217	0xbd2a7aea	-0.041621126
218	0x3e0d9333	0.13825683
219	0xbca64289	-0.020295398
220	0x3de88405	0.11353306
221	0x3e29e945	0.16592892
222	0x3ea97387	0.33095953
223	0x3ce04385	0.027375946
224	0xbd32a10c	-0.043610618
225	0xbc8a7786	-0.016902696
226	0xbe65b1f0	-0.22431159
227	0xbddf76b8	-0.10911316
228	0x3def34d8	0.11680001
229	0xbd0f352a	-0.03496281
230	0xbdd11efe	-0.102109894
231	0xbe2907b2	-0.16506842
232	0xbe6e0088	-0.2324239
233	0xbdcc52f7	-0.09976762
234	0x3ca1f2c1	0.019769074
235	0xbd8c1748	-0.06840378
236	0x3d80e157	0.0629298
237	0xba25865c	-0.00063142716
238	0x3ce3b64e	0.02779689
239	0xbd04311c	-0.032273397
240	0x3c094f13	0.008380669
241	0xbd0e20f3	-0.03469939
242	0x3d11020f	0.035402354
243	0xbe7328fe	-0.23746106
244	0x3d8c2384	0.068427116
245	0x3d9d3ffa	0.07678218
246	0x3e287892	0.16452244
247	0xbda2f9c5	-0.07957796
248	0x3e14dd0c	0.14537448
249	0x3deadd86	0.114680335
250	0x3df81a1e	0.121143565
251	0xbd9a73a8	-0.07541591
252	0x3d7422d6	0.059603535
253	0xbdf3c105	-0.1190205
254	0xbd966f98	-0.073455036
255	0xbd85ca4b	-0.06532725

encoder.0.bias f4 [128]
0	0xbd1e0b4f	-0.038585003
1	0x3d634534	0.05548592
2	0xbd61412d	-0.054993797
3	0xbcdb5324	-0.026773043
4	0x3c0d9b69	0.00864301
5	0xbd13b03e	-0.03605675
6	0xbc6520d5	-0.013984879
7	0xbb057e47	-0.0020369457
8	0xbd85c127	-0.065309815
9	0xbd121d93	-0.035672735
10	0x362df689	2.5922511e-06
11	0x3d98ebce	0.07466851
12	0x3c63204c	0.013862681
13	0xbcf457f4	-0.029827096
14	0xbc00d330	-0.007862851
15	0xbd553bd2	-0.052059002
16	0x3d991109	0.07473952
17	0x3c269caa	0.010169188
18	0xbc54722a	-0.012966672
19	0x3c975f1a	0.018477965
20	0xbc09cbdb	-0.008410419
21	0xbc8ac4f1	-0.016939612
22	0x3d53a865	0.051674265
23	0xbbb82703	-0.005619885
24	0x3c56ed9a	0.013118172
25	0x3cce92ad	0.025216425
26	0x3d8abcdf	0.067743056
27	0x3b93f38e	0.004515118
28	0x3b19dd29	0.002347777
29	0x3d56cd70	0.052442014
30	0xbbe67a5d	-0.00703363
31	0xbcee455e	-0.029085811
32	0xbd4b3800	-0.049613953
33	0xbd025f31	-0.031829063
34	0xbbb19462	-0.0054193
35	0xbd82121d	-0.06351111
36	0x3d38c0f6	0.045105897
37	0x3b331e80	0.0027331412
38	0x3d2aac9c	0.04166852
39	0xbda44095	-0.080201305
40	0x3d518fc4	0.051162496
41	0x3d1a79c6	0.03771379
42	0x3b60c992	0.0034299833
43	0x3c150a46	0.009096688
44	0x3d80800a	0.062744215
45	0x3d2f9b4c	0.042872712
46	0x3b4743b3	0.0030405342
47	0x3c931c4a	0.017957825
48	0x3cb93559	0.022608446
49	0x3d1bf34a	0.038073815
50	0xbcdf37a7	-0.027248217
51	0x3c8dd8d5	0.017315308
52	0x3ce3f529	0.027826862
53	0x3cb86e4c	0.022513531
54	0xbd38fe22	-0.045164235
55	0x3cf1aeea	0.02950235
56	0xbd00ffe8	-0.03149405
57	0x3cfe978e	0.031078126
58	0xbc8065bf	-0.015673516
59	0x3cfbbe77	0.03073047
60	0x3c9ed44e	0.019388344
61	0x3ce6b345	0.028161654
62	0xbb54bbc9	-0.0032460561
63	0x3cc650b5	0.024208406
64	0x3d40e4e1	0.047093276
65	0xbaaabacc	-0.001302564
66	0x3bb1608d	0.005413121
67	0x3d55cfc7	0.052200105
68	0xbc3eba9e	-0.011641173
69	0xbcabfe90	-0.020995408
70	0x3dc248b4	0.09486523
71	0x3b04ffc9	0.0020294061
72	0xbc13ac52	-0.009013252
73	0xbd6d46fe	-0.05792903
74	0x3d0fae3a	0.035078265
75	0x3d17ace8	0.03703013
76	0xbc5ef9fd	-0.013609407
77	0x3cc10a75	0.023564557
78	0xbb7a308e	-0.0038175914
79	0xbda61649	-0.08109719
80	0x3d17f9d6	0.037103496
81	0x3d423b1c	0.047419652
82	0x3c4c14ef	0.012456163
83	0x3c8fb9fd	0.01754474
84	0x3a1e0fae	0.0006029558
85	0x3a3d11ea	0.0007212447
86	0x3c24060e	0.010011209
87	0x3c1d1ffa	0.009590143
88	0xbc4efffa	-0.012634272
89	0xbc7e3043	-0.015514436
90	0xbd6df050	-0.058090508
91	0xbd97184f	-0.07377683
92	0xbcd0741d	-0.025445992
93	0x3b9d13a6	0.004793602
94	0x3bc177f4	0.005904192
95	0xbc59fb68	-0.013304569
96	0xbd59aa86	-0.05314114
97	0xbce8ad26	-0.028402876
98	0xbc171a68	-0.009222604
99	0x3d405537	0.046956267
100	0x3d2e8549	0.04260758
101	0x3d0651e4	0.03279294
102	0xbd242b9d	-0.040080655
103	0xbd43aeab	-0.047774
104	0x3cfd0347	0.030885352
105	0xbd695a4a	-0.056970872
106	0xbc2163c2	-0.009850444
107	0x3cb37480	0.021906137
108	0xbd266709	-0.040625606
109	0x3d061f88	0.032744914
110	0xbcddc7a6	-0.027072739
111	0x3d844824	0.06459072
112	0x3c56a1dc	0.013100114
113	0xbc36b831	-0.011152313
114	0x3cfd4fa6	0.030921768
115	0x3c350183	0.011047724
116	0xbd1bbac5	-0.038019914
117	0xbb344299	-0.0027505516
118	0xbb84ff7c	-0.0040587764
119	0xbc4152d3	-0.011799532
120	0x3b2bd470	0.0026219152
121	0x3a96e0df	0.0011511109
122	0x3c9eaab2	0.019368503
123	0x3d394482	0.04523135
124	0xbadeea0f	-0.0017007011
125	0xbc2873aa	-0.010281483
126	0xbd41b573	-0.047292184
127	0x3cd1ac06	0.025594722

messages.W_query f4 [1, 128, 128]
0	0xbbd3d785	-0.006464901
1	0xbd89b152	-0.06723274
2	0x3dcae03c	0.099060506
3	0xbdfe0199	-0.124026485
4	0x3e658485	0.22413833
5	0x3db7504c	0.08950862
6	0xbe1c2f33	-0.1525238
7	0xbe030b8e	-0.12797377
8	0x3e1bab0f	0.15201972
9	0xbd90a452	-0.070625916
10	0x3c7bb184	0.015362147
11	0x3e831bd7	0.25607178
12	0x3ca7ffa6	0.020507645
13	0x3d1fa45c	0.038975105
14	0x3dd90eb0	0.105985045
15	0x3dec329f	0.11533093
16	0x3da3d532	0.07999648
17	0x3e287bda	0.16453496
18	0x3d8dedb0	0.06930101
19	0xbc92467d	-0.017855877
20	0x3baf3b25	0.0053476267
21	0xbe1561a3	-0.14588027
22	0xbd57d9f1	-0.05269808
23	0xbdf3604c	-0.118836015
24	0xbe0d0d5b	-0.13774626
25	0x3d3f7b49	0.046748433
26	0x3ca6956c	0.020334922
27	0xbdf0bea9	-0.117551155
28	0xbde2b488	-0.1106959
29	0x3d574a5a	0.05256114
30	0xbc3d2653	-0.011544782
31	0xbcd20632	-0.02563772
32	0xbb06a08f	-0.0020542478
33	0xbc499b58	-0.012305103
34	0x3dcdfad7	0.100576095
35	0xbe753c18	-0.23948705
36	0xbdf7f285	-0.12106804
37	0x3dd811bb	0.10550257
38	0x3c838cbd	0.01605832
39	0x3ca73373	0.020410275
40	0xbd6103e0	-0.054935336
41	0x3dcb817e	0.09936808
42	0xbc309de5	-0.0107798325
43	0x3d4af499	0.049549673
44	0xbd9d24e2	-0.076730505
45	0xbc0f0a46	-0.008730477
46	0x3d4867aa	0.048926987
47	0xbd59e052	-0.053192444
48	0xbe309343	-0.17243676
49	0x3da40285	0.08008293
50	0x3e2dcd8b	0.1697294
51	0x3e12c1a4	0.1433168
52	0xbe184e8f	-0.14873718
53	0x3cb2c241	0.021821143
54	0xbe271748	-0.16317475
55	0xbdb94371	-0.090460666
56	0xbb8ddda5	-0.0043294006
57	0xbda56486	-0.08075814
58	0xbd9bb242	-0.07602359
59	0xbdb09658	-0.08622426
60	0xbd6dc24f	-0.058046635
61	0xbcf71d68	-0.03016539
62	0x3c842677	0.016131623
63	0xbe5cfb35	-0.21580203
64	0xbcdf714e	-0.027275708
65	0x3d624bef	0.055248197
66	0xbdddf7c6	-0.10838275
67	0xbbf580e7	-0.007492173
68	0xbe373161	-0.1788993
69	0xbc340e43	-0.010989728
70	0xbd700e17	-0.058607187
71	0xbbc60899	-0.0060435054
72	0x3db20a00	0.086933136
73	0xbdbb1c62	-0.09136273
74	0xbbc7d439	-0.006098297
75	0xbd7b48fb	-0.061348896
76	0x3d7936e0	0.06084335
77	0xbdd3c13d	-0.10339592
78	0xbd23ad23	-0.039960038
79	0xbe433f44	-0.19067103
80	0x3ccf20f6	0.025284272
81	0xbe239d08	-0.15977871
82	0x3d5e258b	0.054235023
83	0x3db9d008	0.09072882
84	0xbc710684	-0.014711026
85	0x3e1bcd3c	0.1521501
86	0x3e1ecb7b	0.15507309
87	0xbd47da62	-0.04879225
88	0xbdf15750	-0.11784232
89	0x3dc5dda4	0.09661415
90	0x3c3a5eb3	0.011375117
91	0xbd13ae30	-0.03605479
92	0x3da412a9	0.08011372
93	0x3d22c8de	0.039742343
94	0xbd27a5e2	-0.040929683
95	0x3e16ca52	0.14725617
96	0x3e01db46	0.12681302
97	0x3d571ab3	0.052515697
98	0xbda6b572	-0.08140077
99	0xbe1f347a	-0.15547362
100	0x3d8578fb	0.06517216
101	0xbe616c19	-0.22013892
102	0x3c8ffb7b	0.01757597
103	0x3dd4a1f9	0.10382456
104	0xbe289169	-0.1646172
105	0xbe1e9cf7	-0.15489565
106	0x3e75a38b	0.23988168
107	0xbe54395c	-0.20725006
108	0xbc79d8d3	-0.015249449
109	0x3d69d23e	0.05708527
110	0xbd53414b	-0.05157594
111	0xbd5410b7	-0.051773753
112	0x3d31436f	0.0432772
113	0x3df6fbd2	0.1205975
114	0xbc241a05	-0.010015969
115	0xbd8a84ea	-0.067636326
116	0x3e357818	0.17721593
117	0xbca01823	-0.01954276
118	0xbd655ce4	-0.05599679
119	0xbe45d286	-0.1931859
120	0x3ac3d90f	0.0014942008
121	0x3d141749	0.03615502
122	0x3d33f550	0.04393512
123	0x3dc5554b	0.09635409
124	0xbe6be59d	-0.2303681
125	0x3d7db57f	0.061940666
126	0xbe146a7f	-0.1449375
127	0xbd1c9b1d	-0.038233865
128	0xbb34a5e7	-0.0027564706
129	0xbd62e81f	-0.05539715
130	0x3d70878b	0.058723014
131	0xbdffba9d	-0.124867655
132	0xbd91eeb2	-0.07125606
133	0x3df9ed2a	0.122034386
134	0xbca99f57	-0.020705862
135	0xbdaed0ba	-0.08535905
136	0x3d21dc3c	0.039516672
137	0x3cf4354b	0.029810568
138	0xbe03ab6a	-0.12858358
139	0xbd90a61a	-0.07062931
140	0x3d7b55c2	0.061361082
141	0xbca2bcb9	-0.01986538
142	0x3e1ebf1b	0.15502588
143	0x3d9e14fa	0.07718845
144	0x3e0d3a3f	0.1379175
145	0x3d9991fe	0.07498549
146	0x3d083826	0.033256672
147	0x3d74c0a3	0.059754025
148	0x3cd1390c	0.025539897
149	0x3d95ab86	0.07308106
150	0x3db96087	0.09051614
151	0xbd3e19a2	-0.046411164
152	0x3d0b4f7d	0.034011353
153	0xbc911080	-0.017708063
154	0xbc97a68e	-0.018512037
155	0xbe0d5392	-0.13801411
156	0x3d5c4080	0.05377245
157	0xbc00d316	-0.007862827
158	0x3e0ee5a6	0.13954791
159	0x3b7a792d	0.00382192
160	0x3cc88296	0.02447633
161	0xbd5f7e9f	-0.054564115
162	0x3e42fd1c	0.19041866
163	0xbc3b533f	-0.011433422
164	0x3d088a67	0.033335116
165	0xbe5b3af3	-0.21409206
166	0x3e5ae9e5	0.21378286
167	0x3b9a3919	0.0047065136
168	0x3ce39b5b	0.02778404
169	0x3d5dd458	0.054157585
170	0xbcb2cb61	-0.021825494
171	0xbdf9f893	-0.12205615
172	0xbcc240f5	-0.023712615
173	0x3d9516ff	0.07279777
174	0xbcc9a748	-0.024615899
175	0xbe101a96	-0.14072642
176	0xbd6c5d94	-0.05770643
177	0x3dd43bcb	0.10362967
178	0x3dd190a5	0.10232667
179	0x3e05bcb5	0.13060267
180	0xbe0f7e83	-0.14013104
181	0x3db07016	0.08615129
182	0x3d22b001	0.03971863
183	0xbe13e6e7	-0.14443551
184	0xbb8ca08d	-0.0042916
185	0xbba54758	-0.005043905
186	0x3cdf0869	0.02722569
187	0xbc9bde45	-0.019026885
188	0x3dba0be1	0.09084297
189	0xbdd59637	-0.10429042
190	0xbe1e8343	-0.1547976
191	0xbe31a152	-0.17346695
192	0xbe052a76	-0.13004479
193	0xbdad0d9f	-0.08449864
194	0xbe1d52ca	-0.15363613
195	0xbd71304e	-0.058883958
196	0xbd126178	-0.035737485
197	0xbd3d2541	-0.046178106
198	0x3d7ea05e	0.062164657
199	0xbce7b583	-0.028284794
200	0x3dd554b8	0.104165494
201	0xbe05e098	-0.13073957
202	0xbcd8c8d7	-0.026462955
203	0x3d8a8fa1	0.06765676
204	0x3e2fcf35	0.17168887
205	0x3da30e49	0.07961709
206	0xbd76c708	-0.060248405
207	0xbe23b55a	-0.15987149
208	0xbb5bce2d	-0.0033539638
209	0xbdde0530	-0.10840833
210	0xbb28325a	-0.0025664777
211	0x3d98706a	0.07443316
212	0x3cc5cca9	0.024145441
213	0xbe3a1e58	-0.18175638
214	0x3da90eb4	0.082547575
215	0x3d66f7df	0.056388732
216	0xbd73ef63	-0.05955447
217	0x3d2a5f0f	0.04159456
218	0x3dad02a1	0.08447767
219	0x3ddb4983	0.107073806
220	0x3d35643c	0.044285044
221	0xbcc46ae8	-0.023976758
222	0x3db05fa1	0.0861199
223	0x3df2d986	0.118578956
224	0x3df665c6	0.120311305
225	0x3d40bb4c	0.04705362
226	0x3df46221	0.11932779
227	0xbd13d0d0	-0.03608781
228	0x3d834cf4	0.06411162
229	0xbc82a444	-0.015947469
230	0x3df86d52	0.12130226
231	0xbe20b6d8	-0.1569475
232	0x3c92bbaa	0.01791175
233	0xbd0257a7	-0.031821873
234	0xbd4dca0f	-0.050241526
235	0xbdc16b9f	-0.09444355
236	0xbe2003c7	-0.15626441
237	0x3dc0a3cb	0.09406241
238	0x3d59a620	0.053136945
239	0xbd288720	-0.04114449
240	0x3e3061ad	0.1722476
241	0x3e2abc90	0.16673493
242	0xbd9655ad	-0.0734056
243	0xbe405d21	-0.18785526
244	0xbd4627e8	-0.0483779
245	0x3d57a7c7	0.05265024
246	0x39eed395	0.00045552538
247	0xbd5c429d	-0.053774465
248	0xbe10f4e8	-0.14155924
249	0xbe211075	-0.15728934
250	0x3e19d4e9	0.15022625
251	0x3df0212b	0.11725076
252	0xbbf0470e	-0.007332689
253	0xbdeefe43	-0.1166959
254	0xbd598d0c	-0.05311303
255	0xbde86496	-0.1134731

messages.W_key f4 [1, 128, 128]
0	0x3e4763ab	0.19471614
1	0x3cb39d47	0.021925582
2	0xbdf4ef7e	-0.11959742
3	0x3d670a2d	0.05640619
4	0x3d9f0ab1	0.07765711
5	0xbe602ca8	-0.21892035
6	0x3dff9b83	0.124808334
7	0xbdf0aff0	-0.117523074
8	0xbd2d6f58	-0.042342514
9	0xbd6f1512	-0.058369704
10	0xbdf309b1	-0.11867083
11	0x3c1b5497	0.009480617
12	0x3d1df381	0.0385623
13	0x3e32579d	0.17416234
14	0xbd9d14d3	-0.076699875
15	0xbde17c62	-0.11010052
16	0x3e00d1ee	0.12580082
17	0x3ca309de	0.019902166
18	0xbe4d6f69	-0.20062031
19	0xbe0ce5d5	-0.13759549
20	0x3e0d595b	0.13803618
21	0x3cc36791	0.023853095
22	0xbdd58616	-0.104259655
23	0x3dbd5f0e	0.09246646
24	0x3dc1b277	0.094578676
25	0xbd1948ea	-0.037423052
26	0xbdcf5c26	-0.10124998
27	0xba84d180	-0.0010133237
28	0xbd1f0181	-0.038819794
29	0x3e3db324	0.18525368
30	0xbe54e926	-0.20792064
31	0x3d512e9b	0.051069837
32	0x3dff7da6	0.124751374
33	0xbe205c02	-0.15660098
34	0xbe03e35f	-0.12879704
35	0x3db4b1f7	0.088230066
36	0x3ca7141b	0.02039533
37	0x3e7952ef	0.24348043
38	0xbe132bc3	-0.14372163
39	0x3e896a11	0.26838735
40	0x3a728065	0.00092506997
41	0xbda78c3c	-0.081810445
42	0x3d0092b3	0.031389903
43	0xbca1978e	-0.019725587
44	0x3dbf066f	0.09327399
45	0xbe43f8f0	-0.19137931
46	0x3e3fa91d	0.18716855
47	0x3e13813d	0.14404769
48	0xbdd3d125	-0.103426255
49	0x3e37813d	0.17920394
50	0xbd903747	-0.07041793
51	0x3e6f3f0b	0.23363893
52	0x3e0de8e2	0.13858369
53	0xbd592c9f	-0.05302107
54	0x3df71add	0.12065671
55	0x3e41bcd7	0.18919693
56	0xbe17e26b	-0.14832465
57	0xbe471f8f	-0.19445632
58	0x3e090841	0.13382055
59	0x3e531812	0.20614651
60	0xbce7dd44	-0.02830375
61	0x3de0f12a	0.109834984
62	0x3df79218	0.12088412
63	0x3e0c7b6b	0.13718955
64	0x3d8a17ed	0.06742845
65	0x3e67c428	0.22633421
66	0x3d7c2908	0.061562568
67	0xbd322729	-0.043494377
68	0xbe40ce08	-0.18828595
69	0xbc237f59	-0.0099790925
70	0xbe3c3ae9	-0.18381847
71	0x3e4e52b0	0.2014873
72	0x3d92879c	0.07154772
73	0x3d1cac24	0.038250104
74	0x3e682299	0.22669448
75	0x3de4e617	0.11176699
76	0xbe305627	-0.17220365
77	0xbdc7af76	-0.097502634
78	0x3dd12692	0.10212435
79	0x3c2503de	0.010071723
80	0x3dd666d5	0.104688324
81	0xbd062609	-0.032751117
82	0xbdc879b5	-0.09788839
83	0xbd06e736	-0.032935344
84	0x3dfc1298	0.12308234
85	0x3e1a7a6b	0.15085761
86	0x39874fcc	0.0002580866
87	0xbe8fe29c	-0.28102577
88	0x3e00566d	0.12532969
89	0x3c90da76	0.017682295
90	0x3dfc01d6	0.12305038
91	0x3e2e620c	0.1702959
92	0xbde98e8b	-0.11404141
93	0x3deae956	0.114702865
94	0xbe6a8255	-0.2290128
95	0x3d9233fa	0.0713882
96	0xbc1e2450	-0.009652212
97	0xbe3dfe76	-0.185541
98	0xbdfe3677	-0.12412732
99	0xbc5cbffd	-0.013473508
100	0xbe211ff3	-0.15734844
101	0x3d159ad6	0.036524616
102	0xbdd35b79	-0.103201814
103	0x3e4f060f	0.20217155
104	0xbc071435	-0.008244564
105	0xbcbc7884	-0.023006685
106	0x3d04dbf6	0.032436334
107	0x3c260785	0.010133629
108	0x3c6ff665	0.014646147
109	0x3d21de5b	0.039518695
110	0xbe325ce3	-0.17418246
111	0x3e0f7724	0.14010292
112	0xbe0dc155	-0.13843282
113	0xbe0ee7e5	-0.13955648
114	0xbd863285	-0.065526046
115	0x3d84b5ea	0.0648001
116	0xbdbd9f9a	-0.09258957
117	0x3d99945b	0.07499
118	0xbe2df650	-0.16988492
119	0x3d85a82a	0.065262154
120	0x3e5cf660	0.2157836
121	0xbcded0aa	-0.027199108
122	0xbdefc731	-0.117079146
123	0x3cb6e7fe	0.02232742
124	0x3cd131c1	0.02553642
125	0x3de62f2b	0.11239465
126	0xbe5060c4	-0.20349413
127	0x3e07da91	0.1326697
128	0xbd06546f	-0.032795366
129	0xbd86f496	-0.0658962
130	0x3cbc7a60	0.023007572
131	0xbd8142ad	-0.063115455
132	0x3d14e793	0.03635366
133	0x3e070502	0.13185504
134	0xbd1fce2a	-0.039014973
135	0xbb686224	-0.0035458887
136	0x3dc4d808	0.09611517
137	0x3d9b0252	0.07568802
138	0x3d1650a4	0.036698
139	0x3c52449d	0.0128337415
140	0xbc232389	-0.009957203
141	0xbdc7c2d3	-0.09753957
142	0x3d852484	0.065011054
143	0x3d9e2a93	0.07722964
144	0x3d8983ac	0.067145675
145	0xbbf0c478	-0.0073476397
146	0x3bb7d26c	0.005609801
147	0x3bb259b0	0.0054428205
148	0x3d46df51	0.048552815
149	0x3cdeaf6f	0.027183263
150	0x3debeb63	0.11519506
151	0x3c5041de	0.012711016
152	0x3cf52f3d	0.029929752
153	0xbc40505b	-0.011737908
154	0x3c3e30a8	0.01160828
155	0xbdceee02	-0.1010399
156	0xbaf90134	-0.0018997551
157	0xbd49b871	-0.049248163
158	0x3dc06957	0.09395092
159	0xbd6d341d	-0.057911027
160	0xbceb09a7	-0.028691126
161	0x3d92d9a0	0.07170415
162	0x3beedfe6	0.0072898744
163	0xbd387d99	-0.045041654
164	0xbb874e77	-0.004129227
165	0xbe229fbc	-0.15881246
166	0x3dd74959	0.10512037
167	0xbe24c85f	-0.1609206
168	0xbdb8447c	-0.08997437
169	0xbdc55c09	-0.09636695
170	0xbc8dedbc	-0.017325275
171	0xbda0f31e	-0.07858871
172	0xbdef5ac1	-0.11687232
173	0x3d0228f0	0.031777322
174	0xbdb4e5f0	-0.088329196
175	0xbdbd66fe	-0.0924816
176	0xbc5adb90	-0.013358012
177	0x3e43ae9f	0.19109581
178	0x3e056baf	0.1302936
179	0x3db4d01f	0.088287584
180	0xbcf4b593	-0.029871738
181	0x3dfe231f	0.124090426
182	0x3c9a885a	0.018863846
183	0xbd643390	-0.055713236
184	0xbd470426	-0.04858794
185	0x3bbdad20	0.0057884604
186	0xbc2a015b	-0.0103763
187	0x3cc36523	0.023851937
188	0x3dbede75	0.09319774
189	0xbd286d86	-0.041120075
190	0xbddea870	-0.10871971
191	0xbd5c9b09	-0.05385879
192	0x3cfd852a	0.030947287
193	0xbdaf83ab	-0.085700355
194	0xbd2a71a1	-0.04161227
195	0xbd7ddbfc	-0.06197737
196	0xbd192600	-0.037389755
197	0xbd9faec4	-0.07797006
198	0x3da0c3b8	0.078498304
199	0xbcb561f3	-0.022141432
200	0xbd674a26	-0.056467198
201	0xbd1acf65	-0.037795443
202	0x3b353767	0.002765143
203	0x3b00419b	0.0019570354
204	0x3b52c430	0.0032160394
205	0xbd8c5565	-0.06852225
206	0xbdd306c8	-0.10304028
207	0xbe2ffe22	-0.17186788
208	0x3d30fa15	0.043207247
209	0xbdc4eec6	-0.09615855
210	0x3c546701	0.012964011
211	0x3e2bb9c3	0.16770081
212	0xbdb4a2d9	-0.08820123
213	0xbe305ae0	-0.17222166
214	0x3b57f634	0.0032953145
215	0x3c751aeb	0.014960031
216	0xbdcf22cc	-0.10114059
217	0x3d20aab1	0.039225284
218	0x3ddef6fc	0.10886952
219	0xbc8d049f	-0.017214118
220	0xbc910d9b	-0.017706683
221	0x3e080b2c	0.13285512
222	0xbcc82774	-0.024432875
223	0x3c3788d2	0.011202054
224	0x3d82b895	0.063828625
225	0x3d4bd84b	0.04976682
226	0x3da683d1	0.08130611
227	0xbd852de1	-0.06502891
228	0xbd5a61c0	-0.053315878
229	0x3d4dc139	0.0502331
230	0x3d2ae5d2	0.04172308
231	0x3d004469	0.03131524
232	0x3c695080	0.014240384
233	0xbdd5b433	-0.10434761
234	0x3d23129f	0.03981268
235	0xbd334f74	-0.043776944
236	0xbc929200	-0.017891884
237	0x3d5a85d7	0.053350296
238	0x3de0b5a7	0.109721474
239	0xbdc11fb1	-0.09429873
240	0x3dafbf68	0.0858143
241	0xbb565889	-0.003270658
242	0xbe300427	-0.17189084
243	0xbdb81643	-0.08988621
244	0x3d8bd9c5	0.068286456
245	0xbdc1c346	-0.094610736
246	0xbd5cc823	-0.053901803
247	0xbd5d97e6	-0.05409994
248	0xbe11bb29	-0.14231552
249	0xbdc14118	-0.09436244
250	0x3daf1f31	0.08550871
251	0x3d81034e	0.062994584
252	0xbdf6e17a	-0.12054725
253	0xbd31fe2d	-0.04345529
254	0xbdf21d4c	-0.11821994
255	0xbde71b09	-0.112844534

messages.W_val f4 [1, 128, 128]
0	0x3c8655c6	0.016398322
1	0x3d14c7ab	0.03632323
2	0x3d98be0a	0.07458122
3	0x3e24cdf3	0.16094188
4	0x3dc2c492	0.09510149
5	0xbd99d81d	-0.075119235
6	0xbc4d0671	-0.012513743
7	0x3c7e7248	0.015530176
8	0x3dca349b	0.09873315
9	0x3cd33b3c	0.025785081
10	0xbd4dd782	-0.050254352
11	0x3bdcfea8	0.0067442246
12	0xbe183a88	-0.14866078
13	0xbcf01e90	-0.029311448
14	0x3d759f1f	0.059966203
15	0x3d0d6104	0.03451635
16	0x3cf11d96	0.029433053
17	0x3c1a76a2	0.009427698
18	0xbdd2a888	-0.10286051
19	0x3dc6a2da	0.0969903
20	0xbd7476cc	-0.059683606
21	0x3c6ece6c	0.014575582
22	0xbdb334fd	-0.08750341
23	0x3d8151c4	0.06314424
24	0xbdf6f4ab	-0.120583855
25	0x3cabf370	0.020990103
26	0xbd1eba2e	-0.038751774
27	0x3dccdff9	0.10003657
28	0x3c98afdd	0.018638546
29	0x3d2e6dfb	0.042585354
30	0x3d8e34d7	0.06943672
31	0x3cff973c	0.031200044
32	0x3e0d043c	0.13771147
33	0xbcd4f909	-0.025997655
34	0xbe016096	-0.12634501
35	0x3d65cf0e	0.056105666
36	0x3c42e7ba	0.011896068
37	0xbddccd95	-0.10781399
38	0xbdd8ccc2	-0.105859295
39	0xbd950c89	-0.072777815
40	0x3d149c9f	0.036282178
41	0xbd821971	-0.06352509
42	0x3d8d8bbe	0.06911419
43	0xbda31033	-0.07962074
44	0xbc1dc951	-0.009630517
45	0x3d71cad6	0.05903133
46	0xbc0454d2	-0.008076863
47	0xbd75b6f2	-0.059988923
48	0x3beb9824	0.0071897674
49	0xbbc72349	-0.0060772044
50	0xbdb470a1	-0.08810545
51	0x3daab4fd	0.08335302
52	0xbd135317	-0.035967913
53	0x3cfc3d17	0.030790849
54	0x3d988101	0.074464805
55	0x3d229852	0.039696045
56	0x3d4f337f	0.05058622
57	0xbd8a3348	-0.06748062
58	0x3d802c4c	0.06258449
59	0xbc786166	-0.01515994
60	0x3d9c238b	0.07623967
61	0xbd62156a	-0.055196203
62	0xbd4be7c7	-0.049781587
63	0x3df7b4cd	0.12095032
64	0xbbfff641	-0.007811338
65	0xbd0293dc	-0.03187929
66	0x3d845092	0.0646068
67	0xbd2f44d3	-0.042790245
68	0x3bcac05b	0.0061874813
69	0xbd8de20e	-0.06927882
70	0xbdd2328f	-0.102635495
71	0x39b33c6e	0.00034186564
72	0x3c83bde3	0.016081756
73	0x3e1b08bb	0.15140049
74	0xbdaec43f	-0.08533525
75	0xbcc7e432	-0.024400804
76	0xbb35914d	-0.0027705014
77	0x3decb9f0	0.11558902
78	0x3dafebaf	0.08589875
79	0xbdb5b2e1	-0.08872009
80	0x3dde5fe1	0.10858131
81	0x3d25d740	0.04048848
82	0xbd16d16d	-0.036820818
83	0xbda27e4f	-0.07934248
84	0xbd1ab84a	-0.037773408
85	0x3d0efbd0	0.034908116
86	0x3c84fa7e	0.016232725
87	0xbd7757b2	-0.060386367
88	0x3d02bf0d	0.03192048
89	0x3d4fca1c	0.050729856
90	0xbd0a28f4	-0.033730462
91	0xbcae060b	-0.021243116
92	0x3d503d30	0.050839603
93	0x3ddd7897	0.10814016
94	0x3d961531	0.07328261
95	0x3c9d0175	0.019165734
96	0xbc1fdaba	-0.009756738
97	0xbda48125	-0.08032445
98	0xbc19f57b	-0.009396906
99	0x3ccf8db2	0.02533612
100	0x3d881609	0.06644828
101	0xbd9a205e	-0.07525705
102	0xbce35d4b	-0.027754446
103	0xbd827ba9	-0.063712426
104	0x3dbfa099	0.093568034
105	0xbd7afad7	-0.061274376
106	0x3db684db	0.08912059
107	0xbdb277e0	-0.087142706
108	0xbd1e8cf9	-0.03870866
109	0x3dd2b665	0.10288695
110	0x3c7fad43	0.015605274
111	0xbd8cfd00	-0.068841934
112	0x3da1008e	0.07861434
113	0xbc16f8ed	-0.009214622
114	0x3db5b9c9	0.08873326
115	0x3d32ff78	0.043700665
116	0x3d9694d0	0.073526025
117	0x3dc62bdd	0.09676335
118	0xbd33997b	-0.043847542
119	0x3c9a6b71	0.01885006
120	0x3dbc5bbb	0.09197184
121	0x3d479a66	0.04873123
122	0x3d88096e	0.066424236
123	0x3d2a7e2e	0.04162424
124	0xbb961042	-0.004579575
125	0xbd9ed32a	-0.0775512
126	0xbd84b27a	-0.06479354
127	0xbd66a813	-0.05631263
128	0xbd65aa2e	-0.0560705
129	0x3dde74b8	0.10862106
130	0x3d282266	0.04104843
131	0x3d684e28	0.05671516
132	0x3a9159f5	0.0011089431
133	0xbdaf58a0	-0.08561826
134	0x3d022e45	0.031782407
135	0x3bc804f1	0.0061041047
136	0xbd8b2850	-0.067947984
137	0xbd09270e	-0.03348451
138	0x3da488d1	0.08033908
139	0xbd31a9e6	-0.04337492
140	0xbe24e60b	-0.1610338
141	0xbceea154	-0.029129662
142	0xbced3032	-0.028953645
143	0xbb7ef60d	-0.0038903982
144	0xbd188d6d	-0.03724425
145	0x3d9157b9	0.0709681
146	0xbdc622d6	-0.09674613
147	0x3d073b92	0.033015795
148	0x3d565e22	0.052335866
149	0x3dd8b33d	0.10581062
150	0xbd5cfc90	-0.0539518
151	0x3dabedc5	0.0839496
152	0x3d865750	0.06559622
153	0x3d590950	0.052987397
154	0xbd9cb163	-0.07651021
155	0xbc3cf514	-0.011533041
156	0xbd62752c	-0.055287525
157	0xbc1e8b9c	-0.00967684
158	0x3db47fd4	0.08813444
159	0x3c70fb7f	0.014708399
160	0x3d2cc388	0.04217866
161	0x3c9924b4	0.01869426
162	0xbc93f1cc	-0.018059634
163	0x3a2d6f73	0.00066160335
164	0xbdb18e34	-0.08669701
165	0x3c73934f	0.014866664
166	0xbdc102f6	-0.09424393
167	0xbc847949	-0.016171115
168	0xbc969e2a	-0.018385965
169	0xbc9fc858	-0.019504711
170	0x3c397ffb	0.011322017
171	0xbc70beb9	-0.014693909
172	0xbbe2e9d8	-0.006924849
173	0x3db01d68	0.08599359
174	0x3d97177b	0.073775254
175	0xbdef300a	-0.116790846
176	0xbd2b6408	-0.041843444
177	0x3ca5f7ba	0.020259727
178	0xbbff1445	-0.0077843987
179	0xbcd99e9e	-0.026564892
180	0xbc0a7fb9	-0.008453303
181	0x39b4d9b3	0.00034494474
182	0x3db6f014	0.0893251
183	0xba8e67ba	-0.0010864653
184	0xbda2f05e	-0.07956003
185	0x3d6ad4b6	0.057331763
186	0xbd6eee4a	-0.05833272
187	0x3d631309	0.055438075
188	0xbd6aa084	-0.057281986
189	0xbdd577dd	-0.10423253
190	0xbd8eab87	-0.0696631
191	0xbd6762a9	-0.056490574
192	0xbd273b6e	-0.04082816
193	0x3d9cc1f2	0.0765418
194	0x3b289ebb	0.0025729376
195	0x3d09ed32	0.033673473
196	0xbdf1aef4	-0.11800948
197	0x3cb7a99c	0.022419743
198	0xbcaf4452	-0.021394882
199	0x3d87fcd8	0.06640023
200	0xbd92e03b	-0.07171675
201	0xbd1934f6	-0.037404023
202	0xbd92cebc	-0.07168338
203	0xbda5aaba	-0.08089204
204	0xbd468cbd	-0.048474062
205	0x3c79edbf	0.015254437
206	0x3d2b3822	0.04180158
207	0x3d999508	0.074991286
208	0x3d851240	0.064976215
209	0xbcd1935e	-0.025582965
210	0x3dd339e2	0.10313775
211	0xbd896e9e	-0.06710552
212	0xbd18d442	-0.0373118
213	0x3d636401	0.055515293
214	0x3d32bfab	0.04363982
215	0xbd132cd9	-0.035931442
216	0x3d88690a	0.066606596
217	0x3d3eafdc	0.04655443
218	0xbd9a0f87	-0.07522493
219	0xbdbbf82f	-0.09178197
220	0xbd410af2	-0.04712958
221	0x3d5e8a38	0.054331034
222	0x3dd96385	0.10614685
223	0x3d814548	0.063120425
224	0xbdea2c46	-0.11434226
225	0x3a08ef8d	0.0005223684
226	0xb90cfb10	-0.00013444968
227	0x3d3baca4	0.04581894
228	0xbd92da2c	-0.07170519
229	0x3db2f198	0.087374866
230	0x3d2d90cc	0.042374417
231	0xbda979d3	-0.08275189
232	0xbb85b209	-0.0040800613
233	0x3d244430	0.04010409
234	0xbd99110f	-0.07473957
235	0x3d8e286b	0.06941303
236	0x3df03279	0.11728377
237	0x3c6412e9	0.013920524
238	0x3d14f1a4	0.03636326
239	0xbd3c52fa	-0.04597757
240	0xbd505b58	-0.050868362
241	0xbd93c18d	-0.07214651
242	0xbdca2b74	-0.09871569
243	0x3b97d174	0.004633123
244	0xbd7e9afd	-0.062159527
245	0x3c451209	0.012028226
246	0xbd915c71	-0.0709771
247	0x3d625acf	0.055262383
248	0xbc92daa5	-0.017926523
249	0xbc914c64	-0.017736621
250	0x3c8b7c70	0.01702711
251	0x3d9baf4c	0.076017946
252	0x3db752db	0.0895135
253	0x3d1adf7b	0.037810784
254	0x3daa6e4c	0.08321819
255	0x3de2c3d6	0.11072509

messages.W_out f4 [1, 128, 128]
0	0xbd93f418	-0.072242916
1	0xbd8269bf	-0.06367826
2	0x3c2d2d9f	0.010569959
3	0xbd3194af	-0.043354686
4	0xbc690ae9	-0.014223793
5	0xbdef5c76	-0.116875574
6	0x3c5e4190	0.013565436
7	0xbdb43ac2	-0.0880027
8	0x3d9d03db	0.07666751
9	0xbdf0fdd0	-0.11767161
10	0x3bae8dc1	0.005326957
11	0xbbcc04d3	-0.006226161
12	0xbba5ebbb	-0.0050635017
13	0x3d95015e	0.072756514
14	0xbc9d655d	-0.019213373
15	0x3cf91623	0.030406063
16	0x3d8611e1	0.06546379
17	0x3cb21f95	0.021743575
18	0x3bff1aeb	0.0077851913
19	0xbd928317	-0.0715391
20	0x3c696eab	0.014247577
21	0xbc92566f	-0.01786348
22	0x3c93794f	0.01800218
23	0xbd0f703f	-0.035019156
24	0xbd79307f	-0.060837265
25	0x3d84aaa8	0.064778626
26	0xbca4ce34	-0.020117857
27	0x3cb9bca3	0.022672957
28	0x3d610644	0.054937616
29	0xbc86c1c3	-0.016449815
30	0xbdb9f9f1	-0.09080876
31	0x3d8cdbfe	0.06877898
32	0x3d2c8f88	0.04212907
33	0xbcb46442	-0.022020463
34	0x3cde1d14	0.027113475
35	0xbce382e8	-0.027772382
36	0x3dcf2c6c	0.10115895
37	0xbdaff373	-0.08591356
38	0x3c85590e	0.016277816
39	0xbd96f345	-0.07370619
40	0xbd2a0c1d	-0.04151546
41	0x3cb65203	0.022255903
42	0x3da3a768	0.079909146
43	0xbce39b94	-0.027784146
44	0x3d71c4cc	0.05902557
45	0x3da1c7f2	0.07899465
46	0xbdc269e0	-0.0949285
47	0xbd215005	-0.039382953
48	0xbd1ff8b8	-0.039055556
49	0xbdca78ad	-0.09886298
50	0x3cf911de	0.030404028
51	0xbce4ecce	-0.027944949
52	0xbc4b4615	-0.012406846
53	0xbceb07cb	-0.02869024
54	0x3d3e467e	0.046453945
55	0xbbaf9711	-0.0053585847
56	0xbc9a1f1a	-0.018813659
57	0x3c8531d3	0.01625911
58	0x3d1dc19c	0.03851472
59	0x3d4b45de	0.049627177
60	0x3c8bdf1d	0.017074162
61	0x3c0f30e3	0.008739683
62	0xbbda4706	-0.0066612987
63	0x3d950e67	0.07278138
64	0x39106c14	0.00013773172
65	0xbce4cd07	-0.027929796
66	0x3c6657bf	0.014059006
67	0x3d1fdcdd	0.03902899
68	0x3e05ca4e	0.13065454
69	0xbbb91486	-0.0056481985
70	0x3baa1fc2	0.005191774
71	0x3d1d8375	0.038455445
72	0x3c9f21a8	0.019425228
73	0x3ddd488b	0.10804852
74	0xbdb6bae8	-0.08922368
75	0x3cb69635	0.022288421
76	0x3cce8195	0.025208274
77	0x3d2dd12e	0.042435817
78	0x3db07da8	0.08617717
79	0x3a1563a0	0.0005698744
80	0xbc1766b8	-0.009240799
81	0x3ce47041	0.027885558
82	0x3d98cd98	0.07461089
83	0xbddd8785	-0.10816864
84	0xbdacfa7d	-0.08446214
85	0x3d11d5cc	0.035604283
86	0x3e38dfe5	0.18054159
87	0x3d50d905	0.050988216
88	0x3c742dbb	0.014903481
89	0x3da86995	0.08223263
90	0x3d43dfd8	0.047820896
91	0xbd426992	-0.04746396
92	0xbd7edf32	-0.062224574
93	0x3dd5f9bd	0.104480244
94	0xbdcfbadc	-0.101430625
95	0xbe0e209b	-0.13879625
96	0x3d93ca25	0.072162904
97	0xbd827c56	-0.063713714
98	0x3d773e28	0.06036201
99	0xbcd2fe4f	-0.02575603
100	0xbc92ed2d	-0.01793536
101	0xbd534de5	-0.051587958
102	0x3d39a3e2	0.045322306
103	0x3dece802	0.115676895
104	0x3d9028c3	0.07039025
105	0xbcd11db5	-0.02552686
106	0xbcbc2149	-0.02296509
107	0xbba81ba4	-0.005130248
108	0x3d23a47a	0.03995178
109	0xbcb1211c	-0.021622233
110	0x3d2363d0	0.03989011
111	0x3d26cd43	0.040723097
112	0x3cb38d11	0.021917852
113	0x3d651da8	0.055936486
114	0xbd937403	-0.07199862
115	0xbd647f8f	-0.05578571
116	0xbd97e4f7	-0.074167185
117	0x3d7fc098	0.06243953
118	0xbc97a6a9	-0.018512087
119	0x3cebb246	0.02877153
120	0xbd9c22d6	-0.07623832
121	0xbc9ef767	-0.01940508
122	0x3d098925	0.033578057
123	0xbd392268	-0.045198828
124	0xbb118dbb	-0.0022209722
125	0xbd397c77	-0.045284715
126	0xbcea6d07	-0.028616441
127	0xbdbeb4a9	-0.09311802
128	0x3c4dcdd0	0.012561277
129	0x3b929f9f	0.0044745947
130	0x3cbe5c3d	0.023237342
131	0x3cb6a69a	0.022296239
132	0x3bf7aceb	0.007558455
133	0x3d814e87	0.06313806
134	0xbdcccf95	-0.10000531
135	0xbdb47a61	-0.088124044
136	0xbd4cbfc5	-0.049987573
137	0xbe0147ae	-0.12625
138	0xbdcd7132	-0.10031356
139	0xbd202518	-0.039097875
140	0x3d0ea4a1	0.03482497
141	0x3d75a4b7	0.059971537
142	0x3d317609	0.043325458
143	0xbcf47613	-0.029841458
144	0xbda64522	-0.08118655
145	0xbc2a44c7	-0.010392374
146	0x3d62bb82	0.055354603
147	0x3c846741	0.016162517
148	0x3ad03061	0.0015883559
149	0xbd5047f1	-0.05084986
150	0xbe0211db	-0.12702124
151	0xbd88f05b	-0.06686469
152	0xbd8fce7b	-0.07021805
153	0xbd107cb4	-0.035275176
154	0x3d453850	0.048149407
155	0x3d90421c	0.07043859
156	0xbdbce8ae	-0.09224068
157	0xbc0b18eb	-0.008489828
158	0x3d2ad52f	0.041707214
159	0xbcfcae0d	-0.030844713
160	0x3db8b8fa	0.090196565
161	0xbe03eee6	-0.12884101
162	0xbcc0db7d	-0.02354216
163	0xbc9980ba	-0.01873814
164	0xbd790560	-0.06079614
165	0x3dc28d74	0.09499636
166	0xbcc0e08d	-0.023544574
167	0x3c60fb6a	0.013731817
168	0x3d711918	0.058861822
169	0xbd6137e5	-0.054984946
170	0xbd143836	-0.03618642
171	0xbd3dc33d	-0.04632877
172	0xbc8ba2ff	-0.017045496
173	0xbc561dcb	-0.013068627
174	0x3cd92533	0.026506996
175	0xbd203788	-0.03911546
176	0x3d298f77	0.041396584
177	0x3d169e07	0.0367718
178	0xbc50b953	-0.012739497
179	0x3d64cf41	0.055861715
180	0x3b3027e7	0.0026879252
181	0x3db38685	0.08765892
182	0x3d235662	0.039877303
183	0xbd1ccb40	-0.03827977
184	0x3b77b130	0.003779482
185	0x3d85b2a2	0.06528212
186	0x3d95f781	0.07322598
187	0xbdb21f2d	-0.086973526
188	0xbd4a3f9f	-0.04937708
189	0xbda5ba8d	-0.08092222
190	0xbc7d01b8	-0.015442304
191	0x3d6cec7d	0.05784272
192	0x3bfb358a	0.0076662945
193	0x3d9d8e3c	0.07693145
194	0xbd252d87	-0.04032662
195	0xbd2562b0	-0.04037732
196	0x3c82c0c8	0.015961066
197	0x3dd0eb82	0.102011696
198	0xbda64655	-0.081188835
199	0x3d8539a0	0.06505132
200	0x3d4205c8	0.047368795
201	0x3db23e31	0.08703268
202	0xbdc92bd2	-0.09822811
203	0xbad1bc58	-0.0016001565
204	0x3d8b86b3	0.06812801
205	0x3cdeb4f2	0.02718589
206	0xbd94b979	-0.072619386
207	0x3d3abbb6	0.04558917
208	0xbdc73e02	-0.09728624
209	0xbe1e2954	-0.15445453
210	0x3dcecbec	0.10097489
211	0x3cab4a9e	0.020909604
212	0xbd90f557	-0.07078045
213	0x3d0fd0bf	0.035111185
214	0xbd0f1175	-0.034928758
215	0xbd6d78fe	-0.057976715
216	0xbe08f352	-0.1337407
217	0xbc6776b6	-0.014127424
218	0x3d8ff42d	0.07028995
219	0x3d8cc6bb	0.06873842
220	0x3ca9344d	0.020654822
221	0x3c8f6482	0.01750398
222	0x3c19409f	0.009353786
223	0x3cd6f3e2	0.02623934
224	0x3d1e077f	0.038581368
225	0x3d85a1e1	0.065250166
226	0xbcf96ed6	-0.030448359
227	0xbca0a939	-0.019611942
228	0x3dd3b6ab	0.103375755
229	0xbdb06221	-0.086124666
230	0x3ce5f1e5	0.028069446
231	0x3d2bb6c8	0.04192236
232	0x3d18ce41	0.037306074
233	0xbcc3be37	-0.023894412
234	0xbbd4240c	-0.0064740237
235	0xbd0745fa	-0.03302572
236	0x3dae8cf8	0.085229814
237	0xbd33b5f8	-0.04387471
238	0x3dcf2b29	0.10115654
239	0x3ce57960	0.028011978
240	0xbde41f64	-0.111388
241	0x3d115507	0.03548148
242	0xbd630af2	-0.05543036
243	0x3d3f67fa	0.04673002
244	0xbc837a70	-0.016049594
245	0x3dbaf0c7	0.09127956
246	0xbd46e167	-0.048554804
247	0x3d1bd760	0.038047194
248	0x3d767f87	0.060180213
249	0x3db27af9	0.087148614
250	0xbcec59c7	-0.028851403
251	0xbd770c53	-0.060314488
252	0x3d120482	0.03564883
253	0x3e090ad9	0.13383044
254	0xbde737f7	-0.11289971
255	0x39eadf40	0.00044798292

update.0.weight f4 [128, 256]
0	0xbe2e6a08	-0.17032635
1	0xbe160972	-0.1465204
2	0x3d5173fc	0.051136002
3	0x3dfad696	0.1224796
4	0x3d7eb84d	0.06218748
5	0xbb6b800c	-0.0035934476
6	0x3bec398a	0.0072090076
7	0x3d5e9501	0.05434132
8	0x3d993941	0.074816234
9	0x3cc4b922	0.02401406
10	0x3d6fc24e	0.058534913
11	0xbd3e4269	-0.046450052
12	0x3cf46b67	0.02983637
13	0xbd8b3feb	-0.06799301
14	0x3d5051b4	0.05085917
15	0x3e1e522b	0.15461032
16	0xbe0096c5	-0.12557514
17	0xbe2a29a6	-0.1661745
18	0x3dc5ac97	0.096520595
19	0xbe047d51	-0.1293843
20	0xbd5c7797	-0.053824987
21	0x3d0700b8	0.03295967
22	0xbe219e92	-0.15783146
23	0xbcf6a367	-0.030107213
24	0x3d35f018	0.044418424
25	0xbe2d67ba	-0.169341
26	0x3e317de1	0.17333175
27	0xbd0f98ea	-0.03505794
28	0x3deee278	0.11664289
29	0xbdf576ad	-0.11985526
30	0xbe4de403	-0.20106511
31	0x3d9d9008	0.076934874
32	0xbdf558a9	-0.11979801
33	0x3d8bab85	0.06819824
34	0x3c93ad6b	0.018027028
35	0xbd62df6c	-0.055388853
36	0x3cbdd9bd	0.023175115
37	0xbabe41ff	-0.0014515518
38	0x3dbfe0e6	0.09369068
39	0xbd0a92b8	-0.03383133
40	0xbd8fa893	-0.07014575
41	0xbe8a3659	-0.2699459
42	0xbd345712	-0.04402835
43	0xbdbacabf	-0.09120702
44	0x3db151de	0.08658193
45	0x3d3d261d	0.046178926
46	0x3d192522	0.03738893
47	0x3b5ec7c3	0.003399358
48	0xbe30146c	-0.1719529
49	0x3b0abfc1	0.0021171423
50	0x3db37700	0.08762932
51	0xbd16439b	-0.036685567
52	0x3dbe58a5	0.09294251
53	0xbd96fd6a	-0.07372554
54	0x3dfef041	0.124481685
55	0x3e2e7fc5	0.17040928
56	0x3c1107cd	0.0088519575
57	0xbe366a45	-0.17813976
58	0xbd004999	-0.03132019
59	0x3c16fd8c	0.009215724
60	0x3e225c36	0.15855488
61	0xbd435682	-0.047689922
62	0xbd76a197	-0.060212698
63	0x3e233b5f	0.15940617
64	0x3c76253b	0.015023525
65	0x3c8b6d65	0.017019937
66	0xbdb32ec8	-0.08749157
67	0xbda5c5a5	-0.08094338
68	0xbc64d315	-0.0139663415
69	0xbd6031ca	-0.054734983
70	0x3dff54d2	0.1246735
71	0x3c012ad2	0.007883744
72	0xbde8807f	-0.11352634
73	0x3dd0c337	0.10193484
74	0x3deda6be	0.11604069
75	0xbd01fdda	-0.031736232
76	0x3d14343e	0.036182635
77	0xbe107e2a	-0.14110628
78	0x3dd114c8	0.10209042
79	0x3dc4ee87	0.09615808
80	0x3dde51d7	0.108554535
81	0xbda41446	-0.08011679
82	0xbdc739cb	-0.0972782
83	0xbc230459	-0.009949767
84	0xbdd1a126	-0.10235815
85	0xbd2e5cb4	-0.042568877
86	0xbe3c23a7	-0.18372975
87	0xbd4ca56f	-0.049962457
88	0x3dd51eac	0.10406241
89	0x3da8bf3a	0.082395986
90	0xbd23ffd0	-0.040038884
91	0xbe722da5	-0.23650225
92	0x3d8e54cf	0.0694977
93	0xbe16098c	-0.1465208
94	0x3c371a76	0.011175742
95	0x3d944916	0.072405025
96	0xbde6bffb	-0.11267086
97	0xbb03d1b1	-0.0020114
98	0x3d384250	0.044985116
99	0x3d2f88d9	0.042855117
100	0x3d366d95	0.0445381
101	0xbe49db96	-0.19712672
102	0xbd928446	-0.071541354
103	0x3b19ccd4	0.0023468034
104	0x3e28fb9d	0.16502233
105	0x3e276cdb	0.16350119
106	0xbd956b03	-0.072958015
107	0xbe0d0621	-0.13771869
108	0x3dd756c5	0.10514597
109	0x3cbdf141	0.023186328
110	0xbe3ef88d	-0.18649502
111	0xbd8d4783	-0.068984054
112	0x3e58e3c4	0.21180636
113	0x3d5feedf	0.054671165
114	0x3ddfe0ea	0.10931571
115	0x3cc432ac	0.023949943
116	0x3d09b4be	0.033619635
117	0x3df22069	0.11822588
118	0xbe10c3b7	-0.1413716
119	0xbc366154	-0.011131603
120	0x3d8680bc	0.06567523
121	0x3e23331d	0.15937467
122	0x3b81a425	0.003956335
123	0x3bf5e7f4	0.0075044576
124	0xbdcdb8da	-0.10045023
125	0xbd672f11	-0.05644137
126	0xbdbe859a	-0.09302826
127	0x3cd72692	0.026263509
128	0xbc8c03e1	-0.017091693
129	0xbb20fc1c	-0.0024564331
130	0x3ce5dd13	0.028059518
131	0xbe3d625e	-0.18494555
132	0xbd4fdf4f	-0.050750073
133	0xbcd6604f	-0.02616897
134	0x3d823efe	0.06359671
135	0x3e109cde	0.1412234
136	0x3bdc8677	0.0067298966
137	0x3cfd6d87	0.030936016
138	0x3dd75842	0.10514881
139	0xbe00ea5b	-0.125894
140	0x3d25133b	0.040301543
141	0x3d47f868	0.048820883
142	0xbcba876a	-0.022769649
143	0xbe06d6ce	-0.13167879
144	0x3aa22402	0.001237035
145	0x3dd39180	0.10330486
146	0x3d31e989	0.043435607
147	0xbd9397eb	-0.072067104
148	0xbd334685	-0.043768425
149	0x3e0d7a79	0.13816251
150	0xbdba8c8b	-0.09108838
151	0xbc258f4e	-0.010104967
152	0x3ce9d339	0.028543102
153	0xbd3468ba	-0.044045188
154	0xbd666734	-0.056250766
155	0xbd4872ab	-0.04893748
156	0x3d533d1b	0.051571947
157	0xbdedde42	-0.11614658
158	0xbca2377e	-0.019801851
159	0x3d92dc64	0.071709424
160	0x3cd3621d	0.02580362
161	0x3d72d50f	0.05928522
162	0xbde2925b	-0.11063071
163	0xbb9d1f98	-0.004795026
164	0xbd2900e6	-0.041260622
165	0x3e08137d	0.13288684
166	0x3d16690d	0.036721278
167	0x3d526a56	0.05137094
168	0x3b04b778	0.0020250957
169	0xbd913ce9	-0.07091696
170	0xbd5065b0	-0.050878227
171	0x3de3a49f	0.11115383
172	0x3d4bd3b2	0.049762435
173	0xbd48a3c2	-0.048984297
174	0x3d813a08	0.06309897
175	0x3d314843	0.043281805
176	0xbc863bcc	-0.016385935
177	0xbd882c72	-0.06649102
178	0xbdded5e3	-0.108806394
179	0xbd5c8cda	-0.053845264
180	0x3d936d4b	0.0719858
181	0x3ce3ab81	0.02779174
182	0x3da02345	0.07819227
183	0xbe0fa309	-0.14027037
184	0xbd8c0d77	-0.06838506
185	0xbd388123	-0.04504503
186	0xbdb3bad2	-0.087758675
187	0x3e3697ff	0.1783142
188	0xbcd393bc	-0.025827281
189	0x3d319f20	0.043364644
190	0x3d9e03b4	0.0771555
191	0xbd727b09	-0.059199367
192	0x3dc00057	0.09375065
193	0x3defe52a	0.117136315
194	0xbcf66556	-0.030077618
195	0xbe65877e	-0.22414967
196	0xbcaafb1a	-0.020871688
197	0xbd87e172	-0.06634797
198	0xbbb4530f	-0.0055030654
199	0x3d901213	0.070346974
200	0xbd199aed	-0.037501264
201	0xbdb362fa	-0.08759113
202	0x3da71ddc	0.08159992
203	0x3cf10706	0.029422294
204	0x3cbdfcdd	0.023191864
205	0xbce33b3b	-0.027738204
206	0xbd60514a	-0.054765023
207	0x3d1a289c	0.037636384
208	0xbdc1f3e6	-0.09470348
209	0xbd48cc98	-0.04902324
210	0xbd0e9c2b	-0.034816902
211	0xbd40bd81	-0.047055725
212	0x3bcdc399	0.0062794206
213	0x3dd79be5	0.105277814
214	0xbdac56b8	-0.08414978
215	0x3e0fb884	0.14035231
216	0x3e0ab682	0.13546184
217	0xbd396f00	-0.045271873
218	0xbda19eb7	-0.078916006
219	0xbd1718cf	-0.036888894
220	0x3d75a7c2	0.05997444
221	0x3da53108	0.080659926
222	0xbd257da7	-0.040403035
223	0xbd57c1b6	-0.05267497
224	0xbe0423b5	-0.12904246
225	0xbc2e5b93	-0.01064195
226	0x3d4ad5ff	0.04952049
227	0xbd8af058	-0.06784123
228	0xbc89bb70	-0.01681301
229	0xbdf0c498	-0.11756247
230	0xbdd27447	-0.102760844
231	0xbd4f53c8	-0.05061701
232	0xbd90c8c4	-0.07069543
233	0xbdd215e9	-0.10258085
234	0x3a980e46	0.0011600934
235	0x3c4e76ba	0.012601549
236	0x3cf39d0f	0.029737977
237	0x3b4b9dd5	0.0031069417
238	0x3ca7f539	0.020502673
239	0xbd764d83	-0.060132515
240	0xbe180090	-0.14843965
241	0x3e092432	0.13392714
242	0x3d3baec3	0.045820963
243	0x3e09165f	0.1338744
244	0xbd9dc405	-0.077034034
245	0xbc38226c	-0.011238676
246	0xbda96d49	-0.082727976
247	0x3d2a035e	0.041507117
248	0xbdf51225	-0.119663514
249	0xbdcbd271	-0.09952248
250	0xbd6f94e8	-0.058491617
251	0x3d092447	0.033481862
252	0x3e602fd1	0.2189324
253	0x3d4307cf	0.04761487
254	0x3cf1591c	0.029461436
255	0xbdeec2d3	-0.116582535

update.0.bias f4 [128]
0	0x3cb37d48	0.021910325
1	0xbbf6daa1	-0.007533387
2	0x3c826e32	0.015921686
3	0xbd2fa4e4	-0.04288186
4	0x3d98efad	0.074675895
5	0x3d51ea02	0.051248558
6	0xbbaa0d85	-0.0051896
7	0xbbd5ded2	-0.0065268064
8	0x3bd604c1	0.0065313284
9	0xba658c51	-0.00087565655
10	0xbdafb82a	-0.085800484
11	0xbcaefc40	-0.021360517
12	0xba25b0fb	-0.00063206226
13	0x3d26834e	0.040652566
14	0x3c7df215	0.015499611
15	0x3d02035e	0.031741492
16	0x3d1c2f7f	0.038131233
17	0xbb30c245	-0.0026971262
18	0xbc4cc40e	-0.012497915
19	0x3c0149dd	0.007891146
20	0xbcb62587	-0.022234691
21	0x3b17c3c4	0.0023157457
22	0xbba12cd7	-0.0049186754
23	0xbce6f6f6	-0.028193932
24	0x3d219507	0.039448764
25	0xbc6f7494	-0.014615197
26	0x3a810ac8	0.0009845132
27	0x3c8375e6	0.01604743
28	0xbc4c7c50	-0.01248081
29	0xbd1d43ee	-0.03839486
30	0x3d21f28d	0.039537955
31	0x3ca0cefc	0.019629948
32	0xbba2439c	-0.0049519073
33	0x3d1fff08	0.039061576
34	0xbca889c0	-0.020573497
35	0x3ce16e93	0.027518546
36	0x3c47c45c	0.012192812
37	0x3cb35160	0.021889389
38	0x3d0fdfe8	0.035125643
39	0xbc1a65a1	-0.009423644
40	0xbc26dbef	-0.010184272
41	0xbd09195d	-0.033471454
42	0x3cd1abfb	0.025594702
43	0x3d20fde2	0.03930462
44	0x3c5ac7a5	0.013353263
45	0x3d45608a	0.04818777
46	0x3d6f76ec	0.058463022
47	0xbd5882af	-0.052859005
48	0x3c968c00	0.018377304
49	0xbc627047	-0.013820714
50	0x3b9d558a	0.004801457
51	0x3da26847	0.079300456
52	0xbccf3680	-0.025294542
53	0xbca5482e	-0.02017602
54	0x3c070e63	0.008243176
55	0x3bc8b133	0.0061246394
56	0x3cca0652	0.024661217
57	0x3c99702a	0.018730242
58	0x3cb81ca8	0.022474602
59	0xbd4dcf92	-0.050246783
60	0x3d367db1	0.044553462
61	0xbcdc53bf	-0.026895402
62	0x3d17e4ba	0.037083365
63	0xbc867b0e	-0.016416099
64	0xbcd6a5e3	-0.026202148
65	0xba7f9850	-0.00097501744
66	0x3c0aefc1	0.008480013
67	0xbca25515	-0.01981596
68	0x3d4cc6a9	0.049994145
69	0x3cec16f4	0.028819539
70	0x3cc4943e	0.023996469
71	0x3d03ee0f	0.032209452
72	0x3c380b40	0.011233151
73	0x3c8b3fc0	0.016998172
74	0x3cdc6cb4	0.026907302
75	0x3c3db159	0.0115779275
76	0x3d751f90	0.059844553
77	0x3cb24f6d	0.021766389
78	0x3d1419fd	0.036157597
79	0x3d53af6d	0.05168097
80	0x3d95a6f6	0.07307236
81	0xbc1926f8	-0.00934767
82	0x3abc588e	0.0014369653
83	0x3d3ab1d6	0.045579754
84	0x3c493b2f	0.012282177
85	0x3c825420	0.015909255
86	0xbcb23f37	-0.021758659
87	0xbbe763e8	-0.0070614703
88	0x3cb10faf	0.021613924
89	0x3d093b35	0.03350373
90	0x3d81d781	0.06339932
91	0x3d149f65	0.036284823
92	0xbcc3545c	-0.023843937
93	0xbc4ae255	-0.012383063
94	0x3d82a5a3	0.06379249
95	0x3cf1ed84	0.029532202
96	0x3cfe15de	0.031016286
97	0x3d603313	0.05473621
98	0x3d3444bf	0.044010874
99	0x3ce05c98	0.027387902
100	0x3c83f676	0.016108733
101	0xbb93ef45	-0.004514607
102	0x3d31031a	0.04321585
103	0x3cf2029c	0.02954226
104	0x3cc60c29	0.02417572
105	0x3d3128e1	0.043251876
106	0xbd05a93f	-0.03263211
107	0x3d071d47	0.032986905
108	0xbbb5f25d	-0.0055525736
109	0x3d9b22cf	0.075749986
110	0x3c4ff812	0.012693422
111	0xbc0fd23c	-0.008778151
112	0x3af01473	0.0018316641
113	0x3b9e3331	0.00482788
114	0x3db606a7	0.088879876
115	0x3d5faeea	0.05461017
116	0xbcdfc918	-0.027317569
117	0xbd453430	-0.048145473
118	0x3c8b4c3a	0.017004121
119	0x3d9b6fdf	0.07589697
120	0xbc92f0f5	-0.017937163
121	0xbaeb1dbd	-0.001793794
122	0x3d63f05b	0.055649143
123	0xbbef4b10	-0.0073026493
124	0xbc1fcc41	-0.009753288
125	0x3cc38f93	0.023872172
126	0x3c28384f	0.010267331
127	0x3d48f17d	0.049058426
