models/sl/na5_uc.pt (torch_old, 546085 bytes, 75 tensors)

encoder.0.weight f4 [128, 8]
-0.07317291 -0.11452376 0.20510909 0.029832425 0.094448276 0.12719075 0.09647277 -0.07428047
-0.046262395 0.014980028 -0.01924404 0.13862072 0.12463681 0.011094939 0.21445611 -0.08321169
-0.023367641 -0.119045705 -0.14714454 0.037719544 0.1011713 -0.31402528 0.12523791 -0.22362228
0.22954014 -0.04472683 0.0024225542 -0.077356115 0.0077545764 -0.101771064 -0.11046128 0.15512958
0.024287522 -0.09878317 -0.0094918385 0.0012976209 0.012766108 -0.030503256 -0.06341098 0.1637154
0.15053922 0.09536982 -0.09366966 0.12887755 -0.09332634 -0.031920243 -0.11478384 0.09105007
-0.052155007 0.14381973 0.1414348 0.02614983 -0.0021515358 -0.27164096 0.140844 0.1033446
-0.037956208 0.0664185 0.11134691 0.07484325 0.06942506 -0.057209462 -0.18071361 0.20806317
0.06317459 -0.022504576 0.07969158 0.26531538 0.03699969 0.033264592 0.12338318 -0.09426491
0.040754363 -0.023612948 0.20727144 0.08923311 0.11394134 -0.08895408 0.08756391 0.13766396
0.12994374 -0.09346734 0.002250625 0.10920556 0.23655973 0.09703889 0.12985216 0.035906307
-0.073969714 0.008310732 -0.17158876 0.10495807 0.150913 -0.31426665 0.010843593 0.016705064
-0.0048481333 -0.039924774 0.087763116 -0.006913568 -0.15857807 0.1788526 -0.17295632 0.09822698
-0.0043296404 -0.040202394 0.11033434 -0.10272352 -0.21935377 0.049123805 0.09135539 -0.026981413
-0.0030026021 -0.021957641 -0.006186608 0.07346358 -0.11097255 -0.12692514 0.14109737 0.22269285
-0.05319687 -0.10651054 -0.0054869 -0.02281827 -0.06079243 0.124894045 -0.2926686 0.11190796
-0.030328937 0.069377884 -0.027462315 0.07813979 -0.04067616 0.06501816 0.0241446 -0.36859146
0.07511476 -0.12676051 0.12683162 0.052410793 0.1912217 0.00027840643 0.16367377 -0.01910904
-0.0216594 0.00017629362 0.054441746 -0.08555576 0.06258161 -0.2512062 0.019058088 0.29689902
-0.10763544 0.14268318 -0.032003786 -0.03172541 -0.01599121 -0.1060786 0.07701869 0.23812474
0.18042934 -0.04373347 -0.00985938 0.06418057 -0.0329343 0.16052209 -0.010332536 0.10227357
-0.012416837 0.10922985 0.0489282 0.052980203 0.06592955 -0.2186697 0.06751493 0.18150629
-0.017659338 -0.0081810625 -0.010720326 -0.10104192 0.17216581 0.08264126 0.14808923 0.20898667
-0.04204474 0.0076034474 0.04819802 0.018999211 -0.12740973 0.09257369 0.09925074 0.17438987
-0.010655773 -0.31983432 -0.07005861 0.03564236 -0.07729745 0.06352029 -0.034035537 0.053744704
-0.061898813 -0.05306716 -0.18578155 0.04278958 0.16997859 -0.10685144 0.2397518 -0.028225312
0.029734738 0.046856374 -0.010011401 0.030657124 -0.20527452 -0.41721225 -0.0016282194 -0.02405649
-0.01892697 0.003642835 0.13305572 -0.029451838 0.13533057 0.19525866 0.32605782 -0.0030169624
-0.02367457 0.0151879685 -0.21650316 -0.11663335 0.13960443 -0.024053246 -0.11339366 -0.15975174
-0.27158043 -0.16984253 0.03567327 -0.05831273 0.059852213 -0.019320847 0.032479968 -0.024126338
-0.0020242499 0.014760617 0.08055125 -0.20564346 0.032111168 0.070919074 0.19763969 -0.12118742
0.16338572 0.18690518 0.12906818 -0.068026565 0.057057187 -0.107252896 -0.0665902 -0.07009507
00000000: aedb 95bd 6f8b eabd 1e08 523e 2163 f43c
00000010: 196e c13d 4b3e 023e 8493 c53d 5c20 98bd
00000020: a37d 3dbd cb6e 753c ada5 9dbc 97f2 0d3e
00000030: 9541 ff3d 8cc7 353c 629a 5b3e e46a aabd
00000040: 7f6d bfbc 3cce f3bd 0fad 16be cf7f 1a3d
00000050: e632 cf3d ecc7 a0be 5e3e 003e 3dfd 64be
00000060: 920c 6b3e 7b33 37bd b7c3 1e3b e26c 9ebd
00000070: 1a1a fe3b 596d d0bd 8639 e2bd 4ada 1e3e
00000080: a0f6 c63c d54e cabd a883 1bbc ef14 aa3a
00000090: f028 513c f7e1 f9bc 9edd 81bd 03a5 273e
000000a0: f426 1a3e 4151 c33d e1d5 bfbd 7af8 033e
000000b0: e121 bfbd cdbe 02bd ca13 ebbd 7678 ba3d
000000c0: 7da0 55bd 7b45 133e 49d4 103e 2b38 d63c
000000d0: c800 0dbb 8614 8bbe 6939 103e 55a6 d33d
000000e0: f877 1bbd 6c06 883d d909 e43d 6b47 993d
000000f0: ba2e 8e3d 7854 6abd fd0c 39be 830e 553e
00000100: ae61 813d 845b b8bc 5735 a33d 6bd7 873e
00000110: fd8c 173d 7440 083d 52b0 fc3d f60d c1bd
00000120: 0cee 263d f16f c1bc f73e 543e d9bf b63d
00000130: 145a e93d 8f2d b6bd b554 b33d c8f7 0c3e
00000140: f90f 053e ce6b bfbd 397f 133b 2aa7 df3d
00000150: b73c 723e 53bc c63d f7f7 043e 7e12 133d
00000160: 6f7d 97bd bd29 083c f7b4 2fbe 42f4 d63d
00000170: f088 1a3e 8fe7 a0be 53a9 313c 0fd9 883c
00000180: 17dd 9ebb 2988 23bd 26bd b33d 368b e2bb
00000190: 4a62 22be 2325 373e 761b 31be 3a2b c93d
000001a0: a8df 8dbb 44ab 24bd f8f6 e13d b560 d2bd
000001b0: 469e 60be 0b36 493d 8918 bb3d 2008 ddbc
000001c0: 4ec7 44bb 83e0 b3bc 08b9 cabb 1374 963d
000001d0: 9445 e3bd aaf8 01be d47b 103e 9809 643e
000001e0: f6e4 59bd 3322 dabd 74cb b3bb 61ed babc
000001f0: 7c01 79bd 73c8 ff3d a9d8 95be 0030 e53d
00000200: 6474 f8bc fe15 8e3d a6f8 e0bc c107 a03d
00000210: 0c9c 26bd 3e28 853d e5ca c53c 05b8 bcbe
00000220: c4d5 993d 82cd 01be 26e0 013e b3ac 563d
00000230: 9fcf 433e 14f7 9139 199a 273e 908a 9cbc
00000240: 0e6f b1bc 75db 3839 4ffe 5e3d dc37 afbd
00000250: ca2a 803d 199e 80be b51f 9c3c 2603 983e
00000260: f86f dcbd 8a1b 123e 6716 03bd 81f2 01bd
00000270: ffff 82bc bd3f d9bd fabb 9d3d f9d6 733e
00000280: 78c2 383e de21 33bd 3d89 21bc 1a71 833d
00000290: 1ee6 06bd e75f 243e cc49 29bc ce74 d13d
000002a0: fd6f 4bbc e6b3 df3d f068 483d c501 593d
000002b0: 1206 873d f3ea 5fbe 4545 8a3d c9dc 393e
000002c0: 51aa 90bc dd09 06bc 4ea4 2fbc 11ef cebd
000002d0: 3c4c 303e d23f a93d b4a4 173e 9a00 563e
000002e0: 1b37 2cbd 5726 f93b 496b 453d 3ca4 9b3c
000002f0: b277 02be 4697 bd3d f943 cb3d 4293 323e
00000300: 8d95 2ebc 53c1 a3be e37a 8fbd b9fd 113d
00000310: 204e 9ebd ed16 823d d968 0bbd 6823 5c3d
00000320: 9c89 7dbd f35c 59bd 853d 3ebe 2044 2f3d
00000330: de0e 2e3e eed4 dabd 7f81 753e c538 e7bc
00000340: 4496 f33c 78ec 3f3d dc06 24bc a624 fb3c
00000350: 7c33 52be d89c d5be fa69 d5ba 1e12 c5bc
00000360: bc0c 9bbc a1bc 6e3b c23f 083e fb44 f1bc
00000370: 1994 0a3e e3f1 473e 0df1 a63e 3bb8 45bb
00000380: 2cf1 c1bc f5d6 783c 01b3 5dbe 77dd eebd
00000390: 77f4 0e3e 500b c5bc ef3a e8bd f695 23be
000003a0: 970c 8bbe 33eb 2dbe 221e 123d 54d9 6ebd
000003b0: 9827 753d c146 9ebc b709 053d 99a4 c5bc
000003c0: 47a9 04bb 84d6 713c 0ef8 a43d 3394 52be
000003d0: 0087 033d 053e 913d 0f62 4a3e 1c31 f8bd
000003e0: 964e 273e 1264 3f3e 732a 043e 8351 8bbd
000003f0: ccb4 693d 68a7 dbbd 7160 88bd 018e 8fbd

encoder.0.bias f4 [128]
-0.030725457 0.036273357 -0.08935014 0.008569466 0.008411761 -0.018743854 -0.024140928 -0.0026402483
-0.10117107 -0.03629525 0.014323639 0.078891866 0.01023145 -0.024066728 -0.014364121 -0.045746256
0.056894492 0.0164034 -0.028942706 -0.004163305 0.021403363 -0.02867178 0.038358472 -0.036615495
0.02940535 0.037641674 0.063395076 -0.014452185 -0.004141255 0.076974496 -0.029938132 -0.062305737
-0.058723047 -0.032962047 -0.034322556 -0.071573265 0.038249124 -0.0042407103 0.024594087 -0.116557926
0.01697203 0.033724524 0.01614654 0.014424317 0.051590454 0.030634912 -0.011118922 -0.009224496
0.058453836 0.032298654 -0.031257022 0.008379093 0.012374061 0.0051894165 -0.08716889 0.024297807
-0.051759712 0.033973414 -0.012538739 0.02501376 0.02518066 0.026698744 -0.022906875 -0.0036463127
0.026806574 -0.024868708 -0.03171726 0.027942859 -0.00039477806 -0.03774741 0.10581689 -0.017440641
-0.0074321083 -0.061311547 0.039836444 0.016582862 -0.013800246 0.019838948 -0.020144004 -0.08907742
0.02238581 0.033235554 0.01911214 -0.0077209324 -0.012968314 -0.02407828 0.012296609 0.012370174
-0.018296288 -0.018744439 -0.082561225 -0.0868866 -0.033938084 -0.006803649 -0.022464808 0.00083050696
-0.08321057 -0.03288469 -0.023541765 0.039168283 0.056856625 0.029860431 -0.055692308 -0.061569545
0.062340125 -0.07190689 -0.007470571 -0.02980137 -0.039285883 0.03436602 -0.06537103 0.07530717
0.011273432 -0.010675182 0.010245603 -0.014631516 -0.058790557 -0.024497438 -0.0066643846 -0.02547679
0.038139407 -0.010488006 0.013019383 0.037171453 -0.011776821 -0.044452935 -0.06828271 0.034829378
00000000: f4b3 fbbc 5f93 143d 35fd b6bd f266 0c3c
00000010: 7cd1 093c b68c 99bc 32c3 c5bc 0408 2dbb
00000020: c732 cfbd 54aa 14bd b2ad 6a3c 0f92 a13d
00000030: d0a1 273c 9627 c5bc 7d57 6bbc 6d60 3bbd
00000040: 330a 693d 6c60 863c 4119 edbc 556c 88bb
00000050: 1b56 af3c 15e1 eabc c61d 1d3d 21fa 15bd
00000060: 7de3 f03c 282e 1a3d 47d5 813d dbc8 6cbc
00000070: 5db3 87bb cea4 9d3d d040 f5bc 4d34 7fbd
00000080: 9487 70bd 3603 07bd cf95 0cbd 0195 92bd
00000090: 1dab 1c3d a8f5 8abb 8a79 c93c ecb5 eebd
000000a0: ed08 8b3c ba22 0a3d c045 843c f853 6c3c
000000b0: 8350 533d 11f6 fa3c 242c 36bc 5722 17bc
000000c0: 4a6d 6f3d 984b 043d 5d07 00bd 7748 093c
000000d0: 93bc 4a3c fb0b aa3b 9a85 b2bd 320c c73c
000000e0: fe01 54bd b527 0b3d 486f 4dbc a8e9 cc3c
000000f0: ac47 ce3c 53b7 da3c 33a7 bbbc faf6 6ebb
00000100: 7699 db3c 76b9 cbbc f5e9 01bd 6ce8 e43c
00000110: 37fa ceb9 079d 1abd 87b6 d83d addf 8ebc
00000120: 0b89 f3bb d121 7bbd 8a2b 233d c8d8 873c
00000130: 6d1a 62bc 4a85 a23c 0a05 a5bc 396e b6bd
00000140: 7262 b73c 0122 083d 1091 9c3c e0ff fcbb
00000150: 0d79 54bc d03f c5bc b777 493c 45ac 4a3c
00000160: 19e2 95bc f08d 99bc dc15 a9bd 9af1 b1bd
00000170: a902 0bbd 25f1 debb 1e08 b8bc 61b6 593a
00000180: 4e6a aabd 19b2 06bd a9da c0bc ec6e 203d
00000190: 7ee2 683d dd9d f43c 9e1d 64bd 5930 7cbd
000001a0: 5c58 7f3d eb43 93bd b1cb f4bb 0122 f4bc
000001b0: 3cea 20bd 62c3 0c3d 3fe1 85bd a53a 9a3d
000001c0: 33b4 383c f5e6 2ebc 2cdd 273c 07b9 6fbc
000001d0: 5ece 70bd daae c8bc e960 dabb b3b4 d0bc
000001e0: 1138 1c3d e3d5 2bbc 404f 553c 1841 183d
000001f0: 91f3 40bc 4814 36bd ced7 8bbd 40a9 0e3d

messages.W_query f4 [1, 128, 128]
-0.014373137 -0.06802248 0.08685493 -0.16363676 0.26705566 0.07756248 -0.19030458 -0.17445646
0.1747647 -0.105879836 0.009815369 0.30051523 0.058880992 0.05400004 0.14094597 0.14005254
0.11033347 0.21139333 0.057246264 -0.023753678 0.016220879 -0.20265707 -0.061102465 -0.13577385
-0.17233789 0.05414835 0.016852124 -0.14495526 -0.13639623 0.09435195 -0.016941857 -0.03752351
0.0055765305 -0.028454008 0.13126613 -0.289181 -0.16175085 0.12878318 -0.0015256989 0.030620428
-0.05404819 0.11553436 -0.026505806 0.0723362 -0.12402335 -0.01682549 0.06498013 -0.0736041
-0.20699291 0.13610756 0.17326012 0.18670821 -0.1671329 0.0040477235 -0.17476754 -0.092437364
0.014705154 -0.10203211 -0.07372085 -0.10166603 -0.114631884 -0.014927227 0.03680558 -0.24998495
-0.04225317 0.06463582 -0.09070358 -0.03796135 -0.22985762 -0.014012052 -0.07850936 0.014129786
0.13339834 -0.12486241 0.004000776 -0.08965803 0.0609264 -0.116813436 -0.019010847 -0.22090545
0.01469307 -0.17081839 0.095316224 0.13404165 -0.017344683 0.19877197 0.1990366 -0.06013041
-0.13354559 0.09872857 0.049297787 -0.034285687 0.10006332 0.05973071 -0.046062957 0.186339
0.14010854 0.056153316 -0.11821231 -0.17854263 0.10404222 -0.27679804 0.014338256 0.112925164
-0.23112267 -0.208898 0.29117206 -0.24384311 -0.0041513825 0.08531019 -0.061053805 -0.06794001
0.051848434 0.14270318 -0.03657282 -0.10483303 0.17701094 -0.006979273 -0.06440899 -0.21050636
0.007639806 0.004257018 0.034154672 0.11422901 -0.287611 0.06582302 -0.1870649 -0.046845444
-0.006434596 -0.06473661 0.05317316 -0.11452171 -0.062616855 0.11264463 -0.046229023 -0.11497736
0.050571743 0.018864622 -0.106066756 -0.04997061 0.06998579 -0.022885522 0.15429702 0.09701313
0.15002333 0.06998851 0.038676765 0.04628649 0.021141028 0.07402716 0.08419665 -0.062183127
0.03207476 -0.009854787 -0.022961052 -0.13467039 0.061254002 -0.01199387 0.14142542 0.018691998
0.0143825235 -0.057910487 0.19755588 -0.02086302 0.026538454 -0.17950875 0.21747208 0.040672254
0.036379036 0.10104393 -0.038748156 -0.10997389 -0.044773992 0.07934568 -0.023972325 -0.14949383
-0.0550903 0.108695194 0.12110154 0.117063455 -0.14952002 0.07935762 0.03912212 -0.14979155
-0.0023395808 -0.014036428 0.026136968 -0.02916173 0.075605415 -0.07941165 -0.15650153 -0.18982993
-0.16197698 -0.08202441 -0.11698356 -0.046975907 -0.057560567 -0.044037405 0.0654753 -0.017782398
0.11127447 -0.12955344 -0.027710807 0.056230873 0.16426405 0.085021675 -0.056394815 -0.1499059
-0.017514465 -0.09852477 0.020388834 0.06035972 0.017673193 -0.16107751 0.07691378 0.033705816
-0.0675321 0.048955895 0.07912628 0.08476973 0.04546477 -0.03259851 0.092781715 0.11559014
0.13638888 0.056576237 0.11671729 -0.034386322 0.086119734 -0.044678263 0.12599401 -0.15907764
-0.0024108859 -0.04012918 -0.040353175 -0.1308731 -0.15108313 0.095005736 0.059795666 -0.057922542
0.18310869 0.1690499 -0.06844463 -0.1788047 -0.05247306 0.048704308 -0.012054397 -0.06929731
-0.122682326 -0.1556831 0.14749658 0.12889057 -0.011058345 -0.12767099 -0.049790084 -0.08858239
00000000: 4e7d 6bbc 5f4f 8bbd ffe0 b13d 6590 27be
00000010: 85bb 883e 14d9 9e3d 34df 42be b7a4 32be
00000020: 84f5 323e 87d7 d8bd a4d0 203c 22dd 993e
00000030: 322d 713d 252f 5d3d 2454 103e ef69 0f3e
00000040: 84f6 e13d 7e77 583e 0f7b 6a3d 1397 c2bc
00000050: a6e1 843c 5685 4fbe 9446 7abd 4d08 0bbe
00000060: 5879 30be a9ca 5d3d 770d 8a3c 276f 14be
00000070: 74ab 0bbe 983b c13d a6c9 8abc 41b2 19bd
00000080: 54bb b63b 6118 e9bc a16a 063e 880f 94be
00000090: 04a2 25be bddf 033e f6f9 c7ba b1d7 fa3c
000000a0: a361 5dbd 479d ec3d b422 d9bc 0025 943d
000000b0: f4ff fdbd 9cd5 89bc 4d14 853d bfbd 96bd
000000c0: f3f5 53be c85f 0b3e 1a6b 313e 7030 3f3e
000000d0: e324 2bbe c4a2 843b 43f6 32be cd4f bdbd
000000e0: e3ed 703c 36f6 d0bd f5fa 96bd 4836 d0bd
000000f0: 1fc4 eabd 5491 74bc 73c1 163d 0efc 7fbe
00000100: a911 2dbd c95f 843d ccc2 b9bd 5c7d 1bbd
00000110: cc5f 6bbe ce92 65bc 84c9 a0bd 9e80 673c
00000120: 9399 083e ddb7 ffbd f118 833b a19e b7bd
00000130: f68d 793d e23b efbd a3bc 9bbc 0a35 62be
00000140: 34bb 703c 04eb 2ebe 2735 c33d 3742 093e
00000150: 7016 8ebc e18a 4b3e 40d0 4b3e 4e4b 76bd
00000160: 2dc0 08be 3432 ca3d 7aec 493d 266f 0cbd
00000170: ffed cc3d 30a8 743d 83ac 3cbd a7cf 3e3e
00000180: 9d78 0f3e 0501 663d 4c19 f2bd e1d3 36be
00000190: 1614 d53d 79b8 8dbe 01eb 6a3c 4f45 e73d
000001a0: 6cab 6cbe 5be9 55be 8114 953e 02b2 79be
000001b0: 5208 88bb 1cb7 ae3d 8e13 7abd 2224 8bbd
000001c0: 065f 543d c820 123e 62cd 15bd b3b2 d6bd
000001d0: 5b42 353e 63b2 e4bb dce8 83bd fb8e 57be
000001e0: 5657 fa3b 757e 8b3b c5e5 0b3d e6f0 e93d
000001f0: c041 93be 38ce 863d f18d 3fbe 02e1 3fbd
00000200: 4ed9 d2bb a194 84bd 19cc 593d 5c8a eabd
00000210: 443d 80bd 3ab2 e63d a55a 3dbd 4079 ebbd
00000220: 5124 4f3d fb89 9a3c 8739 d9bd fbad 4cbd
00000230: b654 8f3d 6b7a bbbc 0a00 1e3e d2ae c63d
00000240: b79f 193e 2356 8f3d 876b 1e3d e796 3d3d
00000250: f32f ad3c 8d9b 973d 4b6f ac3d bcb3 7ebd
00000260: d360 033d f975 21bc d118 bcbc 09e7 09be
00000270: 7ae5 7a3d f081 44bc d3d1 103e f61f 993c
00000280: ada4 6b3c 8c33 6dbd 174c 4a3e ede8 aabc
00000290: 2c67 d93c 24d1 37be 00b1 5e3e f397 263d
000002a0: 2f02 153d 1ff0 ce3d 63b6 1ebd fe39 e1bd
000002b0: ef64 37bd fd7f a23d 9c61 c4bc e914 19be
000002c0: 5ea6 61bd 969b de3d 1604 f83d f7be ef3d
000002d0: c71b 19be 3f86 a23d 843e 203d f562 19be
000002e0: a753 19bb 0cf9 65bc 321d d63c 95e4 eebc
000002f0: 03d7 9a3d 93a2 a2bd f041 20be c762 42be
00000300: 4bdd 25be 6afc a7bd 1495 efbd cf69 40bd
00000310: a1c4 6bbd 9160 34bd ea17 863d 64ac 91bc
00000320: dfe3 e33d a8a9 04be c601 e3bc 5852 663d
00000330: d634 283e d81f ae3d 40fe 66bd ef80 19be
00000340: 7f7a 8fbc 5bc7 c9bd 7c06 a73c c13b 773d
00000350: 5fc7 903c 81f1 24be f984 9d3d 1c0f 0a3d
00000360: 454e 8abd fa85 483d f60c a23d c19b ad3d
00000370: 4439 3a3d 0486 05bd 5704 be3d 86ba ec3d
00000380: 87a9 0b3e 7cbc 673d 7909 ef3d acd8 0cbd
00000390: 8b5f b03d 8e00 37bd 9304 013e 40e5 22be
000003a0: f4ff 1dbb 7f5e 24bd 5f49 25bd 9903 06be
000003b0: 89b5 1abe 5e92 c23d 4dec 743d 3040 6dbd
000003c0: d880 3b3e 6b1b 2d3e b32c 8cbd 9418 37be
000003d0: feed 56bd 2b7e 473d ce7f 45bc c0eb 8dbd
000003e0: df40 fbbd 646b 1fbe 5809 173e e4fb 033e
000003f0: 102e 35bc 2fbc 02be b0f0 4bbd af6a b5bd

messages.W_key f4 [1, 128, 128]
0.19433194 0.0021513621 -0.09500609 0.07960547 0.07427396 -0.21620138 0.104890294 -0.14704165
-0.049067885 -0.05467942 -0.085214496 0.028228933 0.039255057 0.16139966 -0.070275396 -0.1087014
0.11922917 -0.01884146 -0.18646121 -0.1855274 0.11920609 0.045538153 -0.14774077 0.06683674
0.10994887 0.0018712566 -0.069516346 0.030657481 -0.0047295894 0.16133992 -0.19481468 0.05120605
0.093812086 -0.14780033 -0.08357658 0.10261352 0.033719465 0.25177434 -0.13788462 0.31547344
0.027779516 -0.049261767 0.008950678 -0.020519074 0.09196014 -0.1699093 0.17468148 0.14080541
-0.07853547 0.16430247 -0.061279655 0.23022836 0.1408081 -0.03939448 0.12233275 0.16473028
-0.1559554 -0.18413384 0.11292858 0.18894108 -0.10495231 0.098211296 0.09911015 0.12605731
0.042016495 0.21689692 0.14204898 -0.0042035403 -0.20450066 0.02163249 -0.16738768 0.18673596
0.095557064 0.05711652 0.2077966 0.1207054 -0.1745315 -0.07595358 0.080789365 0.016134696
0.09781562 -0.010057868 -0.087982684 -0.06531768 0.094453394 0.16257775 -0.025720749 -0.28507093
0.13315684 0.032960545 0.09598617 0.10336406 -0.095089525 0.08029983 -0.22407717 0.056899566
0.020811278 -0.14818211 -0.09446733 -0.0041954475 -0.10935076 0.022690058 -0.080419526 0.18878147
-0.014804419 -0.039323594 0.023396296 -0.012961044 -0.0014455108 0.02022791 -0.16043179 0.11764091
-0.11904752 -0.14484903 -0.034579888 0.048945986 -0.104174085 0.081044845 -0.24172783 0.061781242
0.19898745 -0.016165366 -0.09662678 0.052616686 0.041399084 0.07512929 -0.16835271 0.10821282
-0.045807026 -0.08397601 0.032277342 -0.055950895 0.014365131 0.1293492 -0.02477947 0.006939724
0.092721924 0.11157435 0.056144502 0.029387135 -0.03269638 -0.10616533 0.048681322 0.07600861
0.05774771 -0.054085188 0.024566114 -0.010962378 0.028810883 0.03863844 0.11297757 0.020712214
0.033950474 0.020171637 0.03459894 -0.07061498 0.036571044 -0.0927945 0.100140445 -0.07278989
-0.050030343 0.071871854 0.02299804 -0.02795967 0.00084068824 -0.14395733 0.12473111 -0.14322501
-0.07943431 -0.099264905 -0.017262349 -0.10411307 -0.12111232 0.0433999 -0.089918554 -0.08932668
0.024229582 0.14963779 0.121573955 0.04705882 -0.028509872 0.123740196 0.0121751325 -0.06716144
-0.051910248 0.0036442284 -0.014961037 0.02763634 0.042199958 -0.042437624 -0.12970693 -0.052348223
0.014269617 -0.090928204 -0.014291075 -0.056766912 0.030075643 -0.052105024 0.09360298 -0.039023187
-0.12357563 -0.009616273 -0.03724725 0.013597528 -0.0009165764 -0.0419125 -0.1103099 -0.16265292
0.048759967 -0.07883265 0.013368482 0.1151 -0.09829878 -0.18851233 -0.020842707 -0.009566885
-0.09515973 0.055357352 0.0970779 -0.07065583 -0.025192134 0.070865765 -0.0114300465 -0.007494231
0.07033386 0.069726884 0.123959415 -0.054466065 -0.055854633 0.048696037 0.028026309 0.030011376
0.050327223 -0.093468174 0.024501374 -0.042187653 -0.053032767 0.025947995 0.11410346 -0.10360357
0.09367287 -0.01447626 -0.109747216 -0.07721757 0.07116336 -0.11670948 -0.08808475 -0.06038696
-0.15076853 -0.029864112 0.10816984 0.06656474 -0.11890773 -0.06631052 -0.06628036 -0.14273359
00000000: f4fe 463e defd 0c3b 8e92 c2bd 3108 a33d
00000010: f21c 983d e563 5dbe b9d0 d63d 1692 16be
00000020: 68fb 48bd 87f7 5fbd f084 aebd 5d40 e73c
00000030: e9c9 203d f445 253e 8cec 8fbd d79e debd
00000040: 6c2e f43d 6859 9abc b0ef 3ebe e5fa 3dbe
00000050: 5322 f43d 3786 3a3d 5b49 17be b3e1 883d
00000060: e02c e13d f444 f53a 965e 8ebd 6625 fb3c
00000070: acfa 9abb 4b36 253e 807d 47be 6fbd 513d
00000080: 8d20 c03d f858 17be 332a abbd 0a27 d23d
00000090: 6c1d 0a3d 91e8 803e a031 0dbe bc85 a13e
000000a0: de91 e33c b5c6 49bd dda5 123c 9e17 a8bc
000000b0: 9955 bc3d b4fc 2dbe b4df 323e 4b2f 103e
000000c0: 34d7 a0bd e83e 283e 6000 7bbd fcc0 6b3e
000000d0: 0030 103e 1b5c 21bd 9889 fa3d 0eaf 283e
000000e0: c6b2 1fbe 958d 3cbe 1947 e73d c579 413e
000000f0: 3df1 d6bd 0123 c93d 43fa ca3d 2b15 013e
00000100: 7d19 2c3d 3a1a 5e3e 4a75 113e dabd 89bb
00000110: 9f68 51be 9f36 b13c ad67 2bbe b637 3f3e
00000120: 6cb3 c33d 03f3 693d a2c8 543e 6534 f73d
00000130: 63b8 32be 8d8d 9bbd e574 a53d e92c 843c
00000140: 8e53 c83d c2c9 24bc 4430 b4bd 47c5 85bd
00000150: c870 c13d c87a 263e 52b4 d2bc d1f4 91be
00000160: 445a 083e a301 073d 6694 c43d 89b0 d33d
00000170: 4cbe c2bd 3d74 a43d 7c74 65be 850f 693d
00000180: 6a7c aa3c 0dbd 17be 1678 c1bd f779 89bb
00000190: 4bf3 dfbd 80e0 b93c feb2 a4bd ee4f 413e
000001a0: 3c8e 72bc c711 21bd 97a9 bf3c 8f5a 54bc
000001b0: 4b77 bdba 00b5 a53c 3b48 24be b8ed f03d
000001c0: 30cf f3bd 4e53 14be a4a3 0dbd 967b 483d
000001d0: 3959 d5bd d7fa a53d 8087 77be 540e 7d3d
000001e0: 5ec3 4b3e 3b6d 84bc 43e4 c5bd 9884 573d
000001f0: 1692 293d 63dd 993d a764 2cbe af9e dd3d
00000200: 26a0 3bbd 9dfb abbd 3f35 043d c42c 65bd
00000210: ba5b 6b3c 1e74 043e 51fe cabc a066 e33b
00000220: fee4 bd3d 1881 e43d c7f7 653d 4abd f03c
00000230: a4ec 05bd 356d d9bd 1166 473d 67aa 9b3d
00000240: dd88 6c3d 6e88 5dbd e03e c93c 8c9b 33bc
00000250: cd04 ec3c 5743 1e3d c960 e73d a9ac a93c
00000260: a70f 0b3d fd3e a53c 9eb7 0d3d 969e 90bd
00000270: 85cb 153d 0b0b bebd 6f16 cd3d de12 95bd
00000280: 9eec 4cbd 8d31 933d 6366 bc3c ae0b e5bc
00000290: a261 5c3a 8d69 13be 0673 ff3d 94a9 12be
000002a0: 75ae a2bd 664b cbbd c569 8dbc 3c39 d5bd
000002b0: bc09 f8bd 18c4 313d 3827 b8bd e8f0 b6bd
000002c0: 1e7d c63c a63a 193e c4fb f83d c0c0 403d
000002d0: 898d e9bc 806b fd3d 357a 473c f08b 89bd
000002e0: d79f 54bd 02d4 6e3b 231f 75bc 9b65 e23c
000002f0: ddd9 2c3d 13d3 2dbd e5d1 04be 176b 56bd
00000300: 1dcb 693c 9138 babd 1d25 6abc 6c84 68bd
00000310: 3261 f63c 146c 55bd ebb2 bf3d c7d6 1fbd
00000320: 3815 fdbd 938d 1dbc 9390 18bd 2bc8 5e3c
00000330: 6746 70ba 71ac 2bbd 28ea e1bd 7d8e 26be
00000340: 88b8 473d 0373 a1bd 7a07 5b3c 8cb9 eb3d
00000350: df50 c9bd 6009 41be 53be aabc 6dbe 1cbc
00000360: 1be3 c2bd 64be 623d c7d0 c63d 01b4 90bd
00000370: bc5f cebc 1222 913d 1745 3bbc 2b92 f5bb
00000380: 330b 903d f8cc 8e3d 6fde fd3d cf17 5fbd
00000390: d4c7 64bd 7f75 473d 6e97 e53c 6bda f53c
000003a0: eb23 4e3d 3e6c bfbd 1bb7 c83c f6cc 2cbd
000003b0: e338 59bd e490 d43c 13af e93d 1c2e d4bd
000003c0: 90d7 bf3d d62d 6dbc 26c3 e0bd 3f24 9ebd
000003d0: 18be 913d 6105 efbd c765 b4bd 5158 77bd
000003e0: 1163 1abe 95a5 f4bc 2688 dd3d 1853 883d
000003f0: e585 f3bd cfcd 87bd ffbd 87bd c128 12be

messages.W_val f4 [1, 128, 128]
0.018902035 0.022239968 0.08309805 0.16101177 0.08531764 -0.07688259 0.010989865 0.0136616165
0.097549975 0.01843069 -0.04649466 0.0147281075 -0.14154387 -0.03074991 0.05464235 0.03798354
0.011253568 -0.007591161 -0.08935323 0.100655705 -0.065022506 0.002961712 -0.08110227 0.03324086
-0.09956712 0.03644066 -0.0090150675 0.08048891 0.0071350895 0.04675289 0.07395588 0.029066106
0.1383392 -0.044099703 -0.11914822 0.039264876 0.00852427 -0.07319861 -0.09835378 -0.0662652
0.019877871 -0.06256219 0.06865673 -0.06800407 -0.0018126045 0.05789399 -0.011291185 -0.0605721
-0.014308038 0.010761981 -0.09275618 0.078729115 -0.0119451 0.047440287 0.09353459 0.04046288
0.04596858 -0.027840855 0.06543998 0.0038530151 0.071211964 -0.049169973 -0.04371836 0.10631271
0.0025790802 -0.024848085 0.069399826 -0.037594445 -0.0011152143 -0.07399866 -0.08316077 0.0043325108
0.018983183 0.1269718 -0.09556992 -0.028641976 -0.0065113455 0.096910834 0.0743508 -0.08525547
0.105296485 0.037902527 -0.04157147 -0.09763302 -0.03796783 0.029874535 0.014027519 -0.06731104
0.0038299062 0.051118866 -0.04978179 -0.036304865 0.06058024 0.09695048 0.061546065 0.03304579
-0.028200252 -0.081649184 -0.011410924 0.014493743 0.045682315 -0.07079957 0.00094089896 -0.07181005
0.08779354 -0.034612652 0.077223785 -0.06611968 -0.04730672 0.1089785 0.0062961937 -0.07448147
0.07659607 0.0119333975 0.07309761 0.030669974 0.08701534 0.091319315 -0.024791896 0.03312028
0.07212669 0.070389226 0.065015465 0.042123545 -0.0008042356 -0.05680021 -0.07284838 -0.05416516
-0.05120915 0.09858235 0.0141831245 0.05335918 -0.018501788 -0.10361337 0.0063083707 -0.011666741
-0.07832573 -0.038663507 0.080676444 -0.03970882 -0.16073324 -0.03989515 -0.031466052 0.0047437456
-0.053048834 0.07147587 -0.08598399 0.03978448 0.030775078 0.108766325 -0.07305144 0.083369456
0.056048624 0.037440017 -0.08905201 0.0068102195 -0.055384062 -0.036927957 0.10951422 0.0019716942
0.06136738 0.020508314 0.0018670383 0.011676758 -0.07970979 -0.008621489 -0.095570706 -0.017952746
-0.012728592 -0.039781164 0.009083302 -0.0018466604 0.006162137 0.09436313 0.08768692 -0.12436602
-0.023756683 0.04151906 -0.016492525 -0.033021484 -0.027165819 0.011964906 0.0838845 0.015188194
-0.07512358 0.08091567 -0.07242546 0.043165177 -0.070304126 -0.07525144 -0.081624836 -0.057184674
-0.033779304 0.08635546 0.008926927 0.06067425 -0.13909835 0.015133425 -0.012880101 0.041358758
-0.061430465 -0.022163691 -0.08416597 -0.089827776 -0.058792718 0.005926109 0.05778212 0.04454411
0.06335141 -0.008214833 0.12412745 -0.060049225 -0.0440185 0.06870762 0.053780474 -0.01909022
0.09043255 0.022852123 -0.08347077 -0.08795801 -0.04449196 0.04459568 0.11528759 0.06622194
-0.1057156 0.02679406 -0.004439415 0.07000414 -0.05608174 0.07800122 0.050337806 -0.059509005
0.011990987 0.059541754 -0.08406113 0.077880934 0.117675 -0.011485651 0.059949264 -0.04727985
-0.05732186 -0.08236066 -0.08014344 0.03714258 -0.05559026 -0.012405192 -0.10520642 0.051874653
-0.01841835 -0.049708657 0.031838957 0.06937346 0.06128829 0.03876768 0.10512241 0.09158924
00000000: 71d8 9a3c 9830 b63c 4f2f aa3d 45e0 243e
00000010: 04bb ae3d 9f74 9dbd d60e 343c f9d4 5f3c
00000020: 48c8 c73d f5fb 963c 2f71 3ebd 294e 713c
00000030: e0f0 10be 3ce7 fbbc a8d0 5f3d a194 1b3d
00000040: e360 383c 46bf f8bb d4fe b6bd 9424 ce3d
00000050: 852a 85bd 4819 423b f218 a6bd 9127 083d
00000060: d9e9 cbbd cd42 153d efb3 13bc 5fd7 a43d
00000070: 78cd e93b f57f 3f3d 2e76 973d 0b1c ee3c
00000080: cba8 0d3e e4a1 34bd fb03 f4bd 35d4 203d
00000090: 61a9 0b3c 27e9 95bd b56d c9bd 0db6 87bd
000000a0: ebd6 a23c 9b20 80bd e69b 8c3d b845 8bbd
000000b0: ea94 edba 4022 6d3d aafe 38bc 731a 78bd
000000c0: 436c 6abc 0553 303c f4f6 bdbd bb3c a13d
000000d0: 61b5 43bc bf50 423d 108f bf3d 68bc 253d
000000e0: 8d49 3c3d 8112 e4bc 6505 863d de82 7c3b
000000f0: 94d7 913d 7466 49bd 0612 33bd 7aba d93d
00000100: c905 293b 368e cbbc 7f21 8e3d a2fc 19bd
00000110: 622c 92ba 9c8c 97bd 3250 aabd bcf7 8d3b
00000120: 9f82 9b3c e504 023e 2aba c3bd 94a2 eabc
00000130: 205d d5bb 3079 c63d 3b45 983d 6b9a aebd
00000140: afa5 d73d ae3f 1b3d d946 2abd d2f3 c7bd
00000150: 2884 1bbd 71bb f43c aed3 653c 5fda 89bd
00000160: 2aff 7a3b 0462 513d fde7 4bbd 69b4 14bd
00000170: fc22 783d f98d c63d ba17 7c3d 065b 073d
00000180: 3704 e7bc b037 a7bd e2f4 3abc 2a77 6d3c
00000190: 611d 3b3d 5dff 90bd a9a6 763a 2611 93bd
000001a0: 19cd b33d ffc5 0dbd 8127 9e3d c169 87bd
000001b0: b1c4 41bd 1f30 df3d 4d50 ce3b be89 98bd
000001c0: 66de 9c3d 4c84 433c 33b4 953d 993f fb3c
000001d0: 1935 b23d 9f05 bb3d 6018 cbbc 21a9 073d
000001e0: 28b7 933d 3a28 903d d426 853d bd89 2c3d
000001f0: 56d3 52ba 56a7 68bd 8831 95bd 49dc 5dbd
00000200: b0c0 51bd 8be5 c93d 5660 683c 288f 5a3d
00000210: 1091 97bc 3f33 d4bd 73b6 ce3b dc25 3fbc
00000220: 3e69 a0bd a05d 1ebd b139 a53d b7a5 22bd
00000230: 4197 24be 1969 23bd 8ce2 00bd 6c71 9b3b
00000240: bc49 59bd f161 923d 6018 b0bd 0df5 223d
00000250: 041c fc3c e1c0 de3d fe9b 95bd 9bbd aa3d
00000260: 3e93 653d b45a 193d e660 b6bd 4328 df3b
00000270: 66da 62bd c541 17bd fe48 e03d 8a37 013b
00000280: 5d5c 7b3d 0d01 a83c 69b7 f43a df4f 3f3c
00000290: e33e a3bd 2541 0dbc 93ba c3bd a311 93bc
000002a0: 968b 50bc 93f1 22bd 21d2 143c a40b f2ba
000002b0: c0eb c93b 7541 c13d 3395 b33d 9db3 febd
000002c0: 609d c2bc e40f 2a3d 551b 87bc 8941 07bd
000002d0: da8a debc 7408 443c a3cb ab3d e7d7 783c
000002e0: 64da 99bd 1db7 a53d cd53 94bd f8cd 303d
000002f0: 9cfb 8fbd 6d1d 9abd ec2a a7bd 7a3a 6abd
00000300: 2b5c 0abd 22db b03d 3f42 123c 9085 783d
00000310: cc6f 0ebe 2ff2 773c 0f07 53bc cd67 293d
00000320: 839e 7bbd a190 b5bc 355f acbd a0f7 b7bd
00000330: a2d0 70bd ce2f c23b f2ac 6c3d e273 363d
00000340: 62be 813d 8297 06bc 8836 fe3d 2df6 75bd
00000350: be4c 34bd 95b6 8c3d ea48 5c3d 1863 9cbc
00000360: b334 b93d 6034 bb3c b9f2 aabd 5423 b4bd
00000370: 343d 36bd f6a9 363d e61b ec3d 5e9f 873d
00000380: 6c81 d8bd 377f db3c 8378 91bb 555e 8f3d
00000390: f7b5 65bd 1bbf 9f3d 042f 4e3d b7bf 73bd
000003a0: d875 443c 0ee2 733d 3e28 acbd 0a80 9f3d
000003b0: 97ff f03d 502e 3cbc 5c8d 753d 84a8 41bd
000003c0: 54ca 6abd b5ac a8bd 3e22 a4bd d122 183d
000003d0: 9db2 63bd 253f 4bbc 7776 d7bd 847a 543d
000003e0: 14e2 96bc 4e9b 4bbd 9169 023d ac13 8e3d
000003f0: 6e09 7b3d dcca 1e3d 6b4a d73d 2493 bb3d

messages.W_out f4 [1, 128, 128]
-0.057152186 -0.04565757 0.011304568 -0.040838543 0.0006136051 -0.10874895 0.021942131 -0.09499123
0.07478793 -0.12203581 0.0012461338 0.0064698956 0.0007837307 0.047309022 -0.007851994 0.038428586
0.06507545 0.023815187 0.0022951844 -0.06302914 0.04299063 -0.018142702 0.017591484 -0.032534514
-0.052517533 0.06514956 -0.019055037 0.017605437 0.0628307 -0.022929017 -0.08121367 0.05451652
0.035526667 0.003328578 0.032134812 -0.021970153 0.08794966 -0.080434285 0.013586563 -0.06100719
-0.0335305 0.042870622 0.05633199 -0.036038514 0.05059333 0.08306691 -0.09307417 -0.019801248
-0.02128444 -0.07630515 0.016469099 -0.0135146165 -0.027640244 -0.026166067 0.026868451 -0.002535256
-0.028774118 0.01847005 0.02871221 0.054405905 0.018009448 0.012915317 0.0055875243 0.07921726
-0.01194355 -0.045011 0.010434286 0.042056546 0.10146679 -0.021003552 0.002806027 0.041677266
0.030374087 0.105766326 -0.08290864 0.044525124 0.025757333 0.045695662 0.09873693 0.028140765
-0.0003274659 0.021741478 0.0727882 -0.10262363 -0.0862121 0.02738204 0.17468865 0.05148688
0.021882841 0.07619921 0.033825573 -0.035268854 -0.06430596 0.1063507 -0.09548141 -0.13919017
0.06720051 -0.07216273 0.07856989 -0.046521142 0.0067722807 -0.03980392 0.05005476 0.11597632
0.08612874 -0.03438571 -0.023202958 0.018154804 0.04950901 -0.0076910164 0.026524765 0.057133563
0.009256506 0.063572474 -0.06861553 -0.051094566 -0.06875743 0.067445874 -0.022673693 0.030211836
-0.08162793 -0.02399374 0.05144074 -0.014774056 -0.020910501 -0.06958024 -0.0045700683 -0.09964552
-0.011091923 0.022488996 0.022263236 0.017557133 -0.006590841 0.050147675 -0.10642329 -0.09527743
-0.059312873 -0.122368805 -0.09675738 -0.058264878 0.038327903 0.096215785 0.03689857 -0.058621485
-0.08228475 -0.011219952 0.06740203 0.0021674794 -0.006774633 -0.05533597 -0.12245654 -0.069156975
-0.09158209 -0.022185192 0.058886953 0.07261255 -0.08594753 -0.013572871 0.028184297 -0.021674681
0.086025886 -0.15318592 -0.04088209 0.005243822 -0.045899425 0.08964268 0.015020256 0.013913801
0.043639448 -0.070946366 -0.010452938 -0.06650987 -0.011366144 -0.03035769 0.031399414 -0.051069625
0.04744665 0.024628209 -0.020452544 0.01778405 -0.0039739837 0.06894194 0.06086889 -0.03542994
0.0010085813 0.032412704 0.07707312 -0.08154608 -0.06316926 -0.069756664 -0.008198061 0.040657535
0.011812212 0.08973299 -0.04957679 -0.03504121 0.03925857 0.11362462 -0.05869836 0.04141499
0.03371085 0.085890286 -0.142526 -0.027753122 0.06443051 0.033947367 -0.06412545 0.04473152
-0.09280209 -0.16943586 0.10728565 0.026937893 -0.06854258 0.049231257 -0.009068503 -0.075108595
-0.13596979 -0.021614281 0.059722222 0.05015333 0.0074767154 0.014770215 0.00064337184 0.016268706
0.004333489 0.070512034 -0.023314727 -0.013978884 0.08985786 -0.09952363 0.019824732 0.026155932
0.041030113 -0.029338805 -0.009442049 -0.05796313 0.09514935 -0.019239716 0.077595256 0.012733556
-0.119553946 0.035465598 -0.07558879 0.050334435 -0.025109595 0.11163429 -0.054049663 0.049649727
0.057605006 0.081354 -0.022451453 -0.04309369 0.04716721 0.17093524 -0.1051942 0.028135784
00000000: 6918 6abd 6f03 3bbd cb36 393c 5146 27bd
00000010: 57da 203a c5b7 debd fcbf b33c c38a c2bd
00000020: 6a2a 993d e9ed f9bd 5055 a33a 6b01 d43b
00000030: 4773 4d3a 1bc7 413d a6a5 00bc 4b67 1d3d
00000040: 4746 853d 1118 c33c ce6a 163b 6c15 81bd
00000050: f116 303d 01a0 94bc 041c 903c e942 05bd
00000060: a01c 57bd 226d 853d 4f19 9cbc 4739 903c
00000070: 62ad 803d a2d5 bbbc 5a53 a6bd b74c 5f3d
00000080: 6984 113d 4624 5a3b cb9f 033d c0fa b3bc
00000090: f41e b43d bbba a4bd 2d9a 5e3c ade2 79bd
000000a0: 4757 09bd 1b99 2f3d 5fbc 663d 1f9d 13bd
000000b0: f43a 4f3d fc1e aa3d ac9d bebd 3a36 a2bc
000000c0: b55c aebc e045 9cbd 34ea 863c 696c 5dbc
000000d0: cb6d e2bc 385a d6bc 3a1b dc3c 8a26 26bb
000000e0: b3b7 ebbc 814e 973c de35 eb3c bad8 5e3d
000000f0: 8d88 933c c49a 533c 8d17 b73b a93c a23d
00000100: e1ae 43bc 745d 38bd 91f4 2a3c 7c43 2c3d
00000110: d2cd cf3d a40f acbc 52e5 373b c8b5 2a3d
00000120: 14d3 f83c 049c d83d 01cc a9bd fa5f 363d
00000130: 0b01 d33c 602b 3b3d 9636 ca3d 7687 e63c
00000140: bbaf abb9 2f1b b23c fb11 953d 562c d2bd
00000150: f88f b0bd 4d50 e03c 95e1 323e e8e3 523d
00000160: a543 b33c 550e 9c3d af8c 0a3d 1376 10bd
00000170: d8b2 83bd 65ce d93d c28b c3bd de87 0ebe
00000180: 6ca0 893d 0eca 93bd 40e9 a03d f48c 3ebd
00000190: 02ea dd3b 6f09 23bd 3806 4d3d fe84 ed3d
000001a0: 4464 b03d 08d8 0cbd 2114 bebc 62b9 943c
000001b0: f6c9 4a3d ec04 fcbb 774a d93c e204 6a3d
000001c0: 9aa8 173c 4932 823d 4d86 8cbd 8948 51bd
000001d0: b2d0 8cbd 1021 8a3d 2ebe b9bc d07e f73c
000001e0: 8b2c a7bd 858e c4bc 86b3 523d e20e 72bc
000001f0: 804c abbc 1680 8ebd 83c0 95bb f312 ccbd
00000200: e6ba 35bc d83a b83c 6461 b63c fad3 8f3c
00000210: fbf7 d7bb a667 4d3d 74f4 d9bd d020 c3bd
00000220: 0ef2 72bd 7f9c fabd bc28 c6bd 27a7 6ebd
00000230: b8fd 1c3d c80c c53d f422 173d 151d 70bd
00000240: e884 a8bd e4d3 37bc 130a 8a3d 450c 0e3b
00000250: befd ddbb f8a7 62bd 7fca fabd 2ca2 8dbd
00000260: 648f bbbd b8bd b5bc 7233 713d e3b5 943d
00000270: 4205 b0bd bf60 5ebc c1e2 e63c 1a8f b1bc
00000280: 572e b03d c5dc 1cbe fa73 27bd 5ed4 ab3b
00000290: 0901 3cbd 9596 b73d 8517 763c b6f6 633c
000002a0: 47bf 323d 544c 91bd cd42 2bbc 5436 88bd
000002b0: 1039 3abc b1b0 f8bc ac9c 003d 622e 51bd
000002c0: 6b57 423d 19c1 c93c 188c a7bc dbaf 913c
000002d0: 3138 82bb 6f31 8d3d a851 793d fc1e 11bd
000002e0: 5f32 843a 2fc3 043d 83d8 9d3d a201 a7bd
000002f0: e35e 81bd 95dc 8ebd 2951 06bc 8488 263d
00000300: 0288 413c eec5 b73d 0811 4bbd 5f87 0fbd
00000310: 98cd 203d 06b4 e83d b16d 70bd c4a2 293d
00000320: 6314 0a3d 3fe7 af3d 56f2 11be 845a e3bc
00000330: 25f4 833d 650c 0b3d 3454 83bd 6638 373d
00000340: 060f bebd 9880 2dbe 94b8 db3d dbac dc3c
00000350: 0d60 8cbd b7a6 493d 0f94 14bc 89d2 99bd
00000360: aa3b 0bbe 6f10 b1bc 4a9f 743d 946d 4d3d
00000370: 3cff f43b c6fe 713c f4a7 283a f345 853c
00000380: f1ff 8d3b 9d68 903d 87fe bebc b007 65bc
00000390: 6607 b83d 0cd3 cbbd 7a67 a23c f744 d63c
000003a0: 310f 283d ef57 f0bc d3b2 1abc bf6a 6dbd
000003b0: aadd c23d 9c9c 9dbc 43ea 9e3d 68a0 503c
000003c0: b3d8 f4bd 6044 113d 4cce 9abd 7b2b 4e3d
000003d0: a3b2 cdbc 85a0 e43d 2e63 5dbd 835d 4b3d
000003e0: 3af3 6b3d ed9c a63d 1cec b7bc 0283 30bd
000003f0: 6832 413d a609 2f3e 0f70 d7bd 047d e63c

update.0.weight f4 [128, 256]
-0.19687153 -0.21807346 -0.037943617 0.12454504 0.08018373 0.04481107 0.004515523 0.052776847
0.035845008 0.017542552 0.01323468 -0.09175142 0.06921354 -0.048829835 0.07547014 0.19178627
-0.13171512 -0.21005918 0.09471324 -0.13397373 -0.049719907 0.029408256 -0.17565125 -0.02467479
0.0929895 -0.21648124 0.18274204 -0.044235438 0.112538956 -0.13669668 -0.22229877 0.08141926
-0.16582568 0.10857737 0.01629789 -0.048307527 0.026824744 -0.0046333987 0.06236441 -0.03324972
-0.080234304 -0.28263313 -0.011550673 -0.073728256 0.090613514 0.08968709 0.036395036 0.012931821
-0.1847636 0.00018208566 0.06436368 -0.037328407 0.091864645 -0.11236914 0.118369356 0.21832934
0.026299639 -0.15681851 -0.04717841 0.02845395 0.21650544 -0.14139782 -0.08198452 0.17485854
0.007185346 0.034319367 -0.04788397 -0.06802276 0.009361212 -0.043338913 0.11228202 0.04080523
-0.10319626 0.10880498 0.1086427 -0.100471415 -0.00607127 -0.17141524 0.12559322 0.12680589
0.09560944 -0.12658872 -0.093199186 0.024109818 -0.104815654 -0.051144786 -0.17681208 -0.034562707
0.11856958 0.08123496 -0.065052986 -0.2703683 0.06978067 -0.1734084 0.0029712731 0.08130709
-0.11463273 0.013213522 0.087860644 0.05502707 0.0580731 -0.26018867 -0.05277755 -0.0144396955
0.17588766 0.16546299 -0.06803379 -0.13526279 0.111348435 0.057665765 -0.17130217 -0.06987617
0.22971718 0.021673378 0.12684098 0.037499625 0.03543523 0.13454838 -0.1504131 0.015802886
0.07332119 0.15265884 -0.05168265 -0.019351589 -0.12830335 -0.05272832 -0.105059564 -0.027869225
0.0038037507 -0.006297379 0.023199642 -0.18338665 -0.030689659 -0.0008967014 0.06560149 0.13424914
-0.022018882 0.043411687 0.099305 -0.16033763 0.06433817 0.030725555 -0.013248387 -0.10180398
0.008602679 0.120724276 0.028036248 -0.074356 -0.038901746 0.12597466 -0.10452684 0.015782515
0.019383842 -0.046124145 -0.077989906 -0.06057768 0.01890404 -0.12408786 -0.0055014943 0.07596934
0.028698226 0.06878432 -0.10202466 -0.010172804 -0.06661424 0.13723038 0.041446768 0.0634083
0.0006225184 -0.073987156 -0.06481218 0.10876143 0.054736383 -0.03541154 0.037208363 0.0047410615
-0.034109622 -0.08164831 -0.13027279 -0.04634914 0.062580734 0.021102302 0.07292236 -0.14790353
-0.064412124 -0.04639352 -0.1112914 0.17427003 -0.04814986 0.041750897 0.09110521 -0.042047832
0.107531674 0.13550009 -0.04545016 -0.24661872 -0.011879703 -0.020800618 -0.036985744 0.044245
-0.02316808 -0.07159217 0.069855236 0.03738828 0.018169926 -0.02350643 -0.08222884 0.042507406
-0.100176126 -0.053763032 -0.035105094 -0.0430053 0.037264276 0.10032153 -0.092659935 0.13588215
0.100227535 -0.07247792 -0.0951449 -0.052381985 0.06626065 0.06890925 -0.012594272 -0.03493095
-0.12861879 0.001743119 0.058897033 -0.062113117 -0.015689492 -0.12755623 -0.10964724 -0.05260834
-0.05894134 -0.095076844 0.022425361 0.019543126 0.0132746175 0.013683723 0.015044496 -0.04815767
-0.18141195 0.13072345 0.035600435 0.14969201 -0.07489083 -0.03430113 -0.09093267 0.05758457
-0.13062134 -0.0975434 -0.06770026 0.05574192 0.2280065 0.037145913 0.016929142 -0.10977694
00000000: b198 49be a64e 5fbe c46a 1bbd 7811 ff3d
00000010: 5e37 a43d d08b 373d f4f6 933b 892c 583d
00000020: 37d2 123d 66b5 8f3c 45d6 583c 2be8 bbbd
00000030: d4bf 8d3d cb01 48bd 1790 9a3d 9f63 443e
00000040: 54e0 06be c119 57be 04f9 c13d 6930 09be
00000050: 1aa7 4bbd 95e9 f03c ecdd 33be c922 cabc
00000060: 4771 be3d 42ad 5dbe bb20 3b3e 3830 35bd
00000070: d37a e63d 37fa 0bbe 4aa2 63be 24bf a63d
00000080: 35ce 29be d05d de3d 2783 853c 1dde 45bd
00000090: 91bf db3c c4d3 97bb d371 7f3d dc30 08bd
000000a0: e251 a4bd 4ab5 90be 093f 3dbc d7fe 96bd
000000b0: 9493 b93d ddad b73d f612 153d fddf 533c
000000c0: ab32 3dbe 3fee 3e39 1bd1 833d ace5 18bd
000000d0: 8823 bc3d cb21 e6bd a26b f23d ba91 5f3e
000000e0: 5772 d73c 0895 20be 263e 41bd 4218 e93c
000000f0: 9ab3 5d3e 97ca 10be 80e7 a7bd 1e0e 333e
00000100: 0d73 eb3b 7792 0c3d fb21 44bd 844f 8bbd
00000110: c55f 193c 2584 31bd 1ef4 e53d 6323 273d
00000120: 9058 d3bd 25d5 de3d 1080 de3d f5c3 cdbd
00000130: 81f1 c6bb 7a87 2fbe 829b 003e 67d9 013e
00000140: e2ce c33d 79a0 01be 37df bebd f481 c53c
00000150: 97a9 d6bd 327d 51bd 3a0e 35be a091 0dbd
00000160: 9cd4 f23d 845e a63d 803a 85bd b76d 8abe
00000170: 2be9 8e3d f991 31be b1b9 423b 5584 a63d
00000180: 91c4 eabd 877d 583c 48f0 b33d 1164 613d
00000190: 0fde 6d3d 7337 85be 462d 58bd 7994 6cbc
000001a0: e51b 343e 216f 293e 4d55 8bbd 5482 0abe
000001b0: a60a e43d f032 6c3d d669 2fbe 3d1b 8fbd
000001c0: fb3a 6b3e 5e8c b13c 9ae2 013e 3599 193d
000001d0: 8824 113d 0dc7 093e e405 1abe 0e75 813c
000001e0: 6c29 963d 9952 1c3e 30b1 53bd 3987 9ebc
000001f0: f461 03be a7f9 57bd 7829 d7bd 004e e4bc
00000200: 5948 793b 3e5a cebb 2d0d be3c b6c9 3bbe
00000210: e168 fbbc 9d10 6bba 135a 863d 9b78 093e
00000220: f160 b4bc 74d0 313d 6b60 cb3d 8c2f 24be
00000230: bbc3 833d 29b4 fb3c c30f 59bc 9b7e d0bd
00000240: 40f2 0c3c 4a3e f73d 46ac e53c f547 98bd
00000250: 7057 1fbd 80ff 003e 2b12 d6bd 554a 813c
00000260: ddca 9e3c acec 3cbd 2cb9 9fbd 4d20 78bd
00000270: a5dc 9a3c c721 febd e145 b4bb d095 9b3d
00000280: 8b18 eb3c cbde 8c3d 4ef2 d0bd d5ab 26bc
00000290: 0c6d 88bd 1f86 0c3e 16c4 293d 36dc 813d
000002a0: 8130 233a 9486 97bd 40bc 84bd 50be de3d
000002b0: 4233 603d b10b 11bd cc67 183d e85a 9b3b
000002c0: 88b6 0bbd 3b37 a7bd 3b66 05be 99d8 3dbd
000002d0: 542a 803d bcde ac3c 5158 953d 0674 17be
000002e0: 81ea 83bd 2207 3ebd bfec e3bd d873 323e
000002f0: ca38 45bd fd02 2b3d 5e95 ba3d 593a 2cbd
00000300: 9139 dc3d 89c0 0a3e f229 3abd 9e89 7cbe
00000310: 16a3 42bc 0f66 aabc 5d7e 17bd 3f3a 353d
00000320: fcca bdbc ea9e 92bd 4310 8f3d 7424 193d
00000330: 19d9 943c 8f90 c0bc 9867 a8bd 3f1c 2e3d
00000340: 2429 cdbd a036 5cbd 5cca 0fbd 5326 30bd
00000350: 6da2 183d 6075 cd3d 7ec4 bdbd b124 0b3e
00000360: 1844 cd3d 4e6f 94bd 54db c2bd 7e8e 56bd
00000370: aab3 873d 4b20 8d3d 3558 4ebc c113 0fbd
00000380: a5b4 03be 5e79 e43a 043e 713d 536a 7ebd
00000390: 4087 80bc 1a9e 02be bb8e e0bd d87b 57bd
000003a0: 796c 71bd a6b7 c2bd 64b5 b73c e818 a03c
000003b0: c87d 593c b231 603c 317d 763c fa40 45bd
000003c0: 0ec4 39be 5edc 053e c3d1 113d dd48 193e
000003d0: 5d60 99bd 577f 0cbd e83a babd ccdd 6b3d
000003e0: 9ac1 05be d6c4 c7bd 6fa6 8abd a451 643d
000003f0: 897a 693e 5026 183d fcae 8a3c bbd2 e0bd

update.0.bias f4 [128]
0.01774763 -0.042751018 0.016359113 -0.048289713 0.09318658 0.047849786 -0.0041956184 -0.030595815
-0.008078947 0.0007537148 -0.09753561 -0.019949699 0.0189253 0.044829693 0.026499856 0.0322052
0.040201884 -0.014806587 -0.010648122 0.016097885 0.009789666 -0.01143374 0.0061182864 -0.027821677
0.0484005 -0.014875159 0.021877721 0.019047966 -0.0057160547 -0.037521936 0.05742853 0.03879816
0.010355591 0.053683236 -0.028540544 0.028142529 0.002839841 0.026399093 0.033095792 -0.026561903
-0.029735588 -0.055142503 0.04786834 0.03234797 -0.0033699917 0.048571866 0.057022743 -0.04181841
0.01986207 -0.022819856 -0.011528849 0.099138245 -0.026296861 -0.01589037 -0.021961989 0.011332694
0.03081797 0.0033983234 0.027184201 -0.086523995 0.065549724 -0.007807156 0.038993645 -0.020206949
-0.058918025 0.019530036 0.010421844 -0.021105492 0.06194615 0.040245347 0.033832815 0.04766561
0.0054198424 0.022812396 0.048870333 0.016870722 0.06510189 0.022729505 0.04278412 0.057877462
0.081112705 -0.014750129 -0.012675163 0.077784576 -0.0042716437 -0.02078393 -0.016343724 -0.020973342
0.039230857 0.05333972 0.06107908 0.04530497 -0.039212756 -0.0022559913 0.07106376 0.011611939
0.022400219 0.045429185 0.06829548 0.03145713 0.013565828 -0.0066504837 0.03624264 0.021499997
0.04206686 0.013810409 -0.0371143 0.012894859 -0.018110462 0.08394365 0.018222177 -0.010283197
0.025351522 -0.0027505253 0.109394215 0.079846315 -0.034326844 -0.08078274 0.024604728 0.07152794
-0.02525741 -0.013806711 0.08298389 -0.018249346 0.016588956 0.0021869752 0.010820324 0.040039334
00000000: 7a63 913c b11b 2fbd 8c03 863c 6fcb 45bd
00000010: 9bd8 be3d 23fe 433d 667b 89bb 13a4 fabc
00000020: 8f5d 04bc f294 453a c0c0 c7bd 8d6d a3bc
00000030: 3b09 9b3c 579f 373d 3a16 d93c 9ae9 033d
00000040: bbaa 243d 5497 72bc 7675 2ebc b6df 833c
00000050: d664 203c 9554 3bbc e87b c83b 49ea e3bc
00000060: 9a3f 463d f0b6 73bc e838 b33c 7b0a 9c3c
00000070: be4d bbbb 9ab0 19bd 2e3a 6b3d d2ea 1e3d
00000080: 7faa 293c f4e2 5b3d dccd e9bc 298b e63c
00000090: a01c 3a3b e942 d83c 748f 073d 5998 d9bc
000000a0: 0c98 f3bc 1bdd 61bd 9811 443d 4e7f 043d
000000b0: 14db 5cbb 4bf3 463d ae90 693d c849 2bbd
000000c0: c8b5 a23c b5f0 babc 7fe3 3cbc fe08 cb3d
000000d0: 846c d7bc 852c 82bc a1e9 b3bc c4ac 393c
000000e0: f875 fc3c 68b6 5e3b 67b1 de3c 7e33 b1bd
000000f0: ef3e 863d 2cd3 ffbb cdb7 1f3d 0b89 a5bc
00000100: 0754 71bd 74fd 9f3c 62c0 2a3c 6de5 acbc
00000110: 3fbb 7d3d 4ed8 243d 4794 0a3d 043d 433d
00000120: ef98 b13b 10e1 ba3c 422c 483d 7834 8a3c
00000130: 2454 853d 3a33 ba3c 673e 2f3d eb10 6d3d
00000140: 6b1e a63d 86aa 71bc 7dab 4fbc 854d 9f3d
00000150: 25f9 8bbb 0f43 aabc 46e3 85bc 49d0 abbc
00000160: 89b0 203d c07a 5a3d 0f2e 7a3d b491 393d
00000170: 8e9d 20bd 41d9 13bb e089 913d 0140 3e3c
00000180: aa80 b73c f413 3a3d 80de 8b3d 31d9 003d
00000190: 3543 5e3c 4dec d9bb 2a73 143d c320 b03c
000001a0: 4d4e 2c3d 0e45 623c 2a05 18bd f544 533c
000001b0: 645c 94bc a6ea ab3d ad46 953c db7a 28bc
000001c0: ffad cf3c 2842 34bb 130a e03d 7786 a33d
000001d0: 4e9a 0cbd 6c71 a5bd db8f c93c 3e7d 923d
000001e0: a1e8 cebc 8b35 62bc 75f3 a93d a77f 95bc
000001f0: 90e5 873c 5b53 0f3b ba47 313c 4900 243d
