models/sl/na7_uc.pt (torch_old, 551233 bytes, 105 tensors)

encoder.0.weight f4 [128, 8]
000000 0d c7 ad bd 8f 5a c0 bd 5c ca 5d 3e 39 59 da 3c
       -0.084852315 -0.09392273 0.21659225 0.026653873
000010 bf ee b5 3d c9 e9 e6 3d b3 2c cb 3d 6f 9c 82 bd
       0.08883428 0.1127506 0.09920635 -0.063774936
000020 b6 d4 20 bd b2 52 31 3c 99 61 9c bc 32 f1 08 3e
       -0.039265357 0.010822939 -0.019089507 0.13373259
000030 e1 cc 02 3e 7d 00 00 3c a5 d9 61 3e 06 a8 a5 bd
       0.12773468 0.007812616 0.22055681 -0.080886886
000040 d6 20 5f bc bd db fa bd 93 aa 19 be c4 63 11 3d
       -0.013618669 -0.12248943 -0.15006475 0.035495535
000050 a7 b8 d7 3d 89 75 a3 be 67 21 12 3e 52 d4 66 be
       0.105332665 -0.3192561 0.14270554 -0.22541931
000060 62 33 74 3e 93 48 50 bc 43 8b d9 3a ed fa b2 bd
       0.23847726 -0.012712616 0.0016597289 -0.087392665
000070 5a 18 72 3b c0 f6 b5 bd 64 ac d7 bd c9 eb 12 3e
       0.0036940784 -0.088849545 -0.10530928 0.14347757
000080 6c 41 e0 3c f8 ba cc bd 71 00 04 bb 14 4a 12 ba
       0.027374946 -0.09996599 -0.0020141865 -0.00055804965
000090 c6 31 15 3c cd d5 fd bc 9e 3e 65 bd cc 14 33 3e
       0.009106105 -0.030985737 -0.05596792 0.17488402
0000a0 6f c3 1a 3e aa 36 9a 3d c5 37 d8 bd 22 42 f5 3d
       0.15113614 0.075299576 -0.10557512 0.119755045
0000b0 1c f3 b9 bd 2b 4c da bc 72 85 fc bd 21 7e b3 3d
       -0.090795726 -0.026647648 -0.1233014 0.087642916
0000c0 75 86 18 bd d0 4a 0f 3e 3b db 06 3e 53 6c f3 3c
       -0.037237603 0.13993382 0.13169567 0.029714739
0000d0 86 9a 80 bb 89 da 90 be b2 66 11 3e 3b ca ce 3d
       -0.0039246706 -0.2829173 0.14199331 0.10097166
0000e0 ef e1 0f bd ee 84 89 3d 07 0d e5 3d ba 67 90 3d
       -0.035127576 0.067148075 0.111841254 0.07051034
0000f0 52 20 8b 3d af 23 65 bd 49 02 35 be 51 88 59 3e
       0.06793274 -0.055942234 -0.17676653 0.21243407
000100 91 fa 73 3d 1f c2 29 bd 9b 8c 99 3d dc 90 8d 3e
       0.05956513 -0.041444894 0.074975215 0.2764958
000110 5a 1d 3c 3d c2 72 89 3c 4e 61 04 3e a1 76 d1 bd
       0.04592643 0.016778354 0.12927744 -0.10227705
000120 08 c0 80 3d 75 fd dd bc e5 0b 46 3e b4 75 b4 3d
       0.06286627 -0.027098397 0.19340475 0.088115126
000130 31 ea fa 3d b2 94 be bd fa 91 c8 3d c9 85 07 3e
       0.122517 -0.09305705 0.09793468 0.13234629
000140 05 48 08 3e a4 c5 c9 bd b1 4f f3 3b 47 2f da 3d
       0.13308723 -0.0985215 0.0074252714 0.10653549
000150 d9 9c 79 3e ba 3b d3 3d df 37 f9 3d af 32 32 3d
       0.24376239 0.10314126 0.1216886 0.043505367
000160 2b 95 6e bd 64 50 53 3c 6e 95 2f be b1 54 c1 3d
       -0.058247726 0.012897585 -0.17146847 0.09439982
000170 41 6f 1c 3e ff c8 a3 be c3 8f 95 3c 9e 15 63 3c
       0.15276815 -0.31989285 0.018257027 0.013860134
000180 ea 85 70 bb 93 c7 a9 bc 1d a8 a3 3d c9 d2 78 bc
       -0.0036700913 -0.020725047 0.079910494 -0.015186974
000190 ee d1 1f be a8 5f 4b 3e d9 26 32 be b4 81 d2 3d
       -0.15607426 0.19860709 -0.17397632 0.10278645
0001a0 b8 b0 7f 3c 3b 11 f9 bc 3c 81 d8 3d 62 d1 cb bd
       0.015606098 -0.030403724 0.105715245 -0.09952046
0001b0 6b 26 64 be 23 58 65 3d e8 c8 c5 3d 62 43 cb bc
       -0.2228028 0.055992257 0.096574605 -0.024812404
0001c0 cd 2d 07 3b 80 b8 df bc 60 41 98 bb 3e ff 85 3d
       0.0020626665 -0.027309656 -0.004646465 0.06542824
0001d0 a9 c1 ec bd a4 10 03 be bc 84 12 3e 19 dd 6d 3e
       -0.11560375 -0.12799317 0.14308447 0.23228873
0001e0 17 90 53 bd 2f 98 e7 bd 97 4e 45 ba 43 10 fa bc
       -0.051651087 -0.113083236 -0.00075266644 -0.030525332
0001f0 98 97 8d bd db c8 06 3e dc a5 98 be 0a a3 e7 3d
       -0.0691368 0.13162558 -0.2981404 0.11310394
000200 8f dd f2 bc c8 bf 7c 3d a9 27 c6 bc 40 f4 9b 3d
       -0.029646663 0.061706334 -0.024188833 0.07614946
000210 a9 9a 3a bd 13 e9 89 3d c1 e3 de 3c e4 36 c4 be
       -0.04555765 0.067339085 0.02720821 -0.38323128
000220 62 29 68 3d 3f 50 10 be 4e 8e 03 3e 1f d7 35 3d
       0.05668009 -0.14093111 0.12847254 0.04439461
000230 42 93 47 3e 3d f8 81 3b 85 64 29 3e c7 cf 9c bc
       0.19489768 0.00396636 0.16542251 -0.019142045
000240 5a 1c c4 bc 7a b1 96 b8 72 b6 5c 3d 4b 06 a9 bd
       -0.0239393 -7.185615e-05 0.05388493 -0.082531534
000250 40 25 78 3d 94 45 85 be 68 80 b1 3c 4b b8 9c 3e
       0.0605824 -0.26029646 0.021667674 0.30609354
000260 24 7d d4 bd b8 e3 10 3e 63 50 d8 bc d5 07 1a bd
       -0.10375431 0.14149368 -0.026405519 -0.037605125
000270 c3 6c d7 bc 45 8d d5 bd f2 78 c2 3d b4 54 75 3e
       -0.026296979 -0.10427336 0.09495725 0.23958093
000280 a5 3c 2f 3e b8 a9 0e bd e3 6b 3f bc 1b cd 8a 3d
       0.17112978 -0.034829825 -0.011683437 0.06777402
000290 a9 24 07 bd 62 73 2c 3e de 51 e5 bb 19 37 e1 3d
       -0.032993946 0.1684089 -0.0069982847 0.10996837
0002a0 97 7c d9 bb c7 02 ce 3d 20 bf 4b 3d 5d 6e 59 3d
       -0.0066371667 0.100591235 0.049742818 0.053083766
0002b0 ac b8 7e 3d 22 16 67 be a9 e5 8f 3d 3b 74 3e 3e
       0.062187836 -0.22567037 0.07026226 0.18599026
0002c0 f3 7d 78 bc f2 6f 29 bc a9 4c 99 ba 4e ad db bd
       -0.015166747 -0.010341631 -0.001169582 -0.107264146
0002d0 e7 1c 2c 3e 51 55 bc 3d 1a 72 1f 3e 6e 2a 62 3e
       0.168079 0.0919596 0.1557087 0.22086498
0002e0 91 14 12 bd 89 5d 20 3a b3 88 51 3d 3e 68 d8 3c
       -0.035664145 0.00061174534 0.051155757 0.026416894
0002f0 de ef 06 be e6 c9 b1 3d ae 43 c5 3d f8 4c 3b 3e
       -0.1317744 0.08681087 0.096320495 0.1829108
000300 22 8e 78 bc 86 b7 9e be 1e 63 8d bd 2a 04 20 3d
       -0.015170606 -0.30999392 -0.06903671 0.03906647
000310 55 73 aa bd 64 30 6d 3d 3d b5 f6 bc e2 6d 34 3d
       -0.08322779 0.057907477 -0.030115718 0.044050105
000320 ce ab 8b bd 2b c1 41 bd 85 db 3b be a1 ad 1e 3d
       -0.068198785 -0.04730336 -0.18345459 0.038739804
000330 b9 b8 32 3e d2 46 d6 bd 63 3e 78 3e 9f 82 02 bd
       0.17453279 -0.10462727 0.24242549 -0.03186285
000340 24 25 0c 3d 9a 8c 29 3d 82 4b 9c bc 42 6e ed 3c
       0.034215108 0.041393854 -0.019078974 0.02898324
000350 58 b0 55 be 26 5a dc be ba 3b 14 bc 37 9e 1c bd
       -0.20868051 -0.43037528 -0.009047443 -0.038236823
000360 c8 61 dc bc 8a a9 c6 3b fd 01 fe 3d 94 4c 1c bd
       -0.026902094 0.006062691 0.12402723 -0.038158968
000370 3b ec 1b 3e 14 24 52 3e e5 da a1 3e 2c c6 fb 39
       0.15226834 0.20521575 0.31612316 0.000480221
000380 70 98 e8 bc 19 66 85 ba 82 77 57 be 69 45 cf bd
       -0.028393 -0.0010177522 -0.21041682 -0.10120661
000390 66 eb 11 3e 89 6c 68 bc 4f 9a e5 bd d9 87 32 be
       0.14249954 -0.014186033 -0.11211073 -0.17434634
0003a0 4e 93 88 be 1d be 25 be 05 3b 08 3d bc e7 78 bd
       -0.26674885 -0.16185804 0.03325941 -0.060767874
0003b0 f2 c4 82 3d 0c 4c 84 bc 94 d9 d0 3c 9b 51 ad bc
       0.063852206 -0.016149543 0.025494374 -0.021157077
0003c0 d9 bc 58 bc de 88 ff b9 8d 82 9a 3d 25 04 5a be
       -0.013228619 -0.00048739364 0.07544432 -0.21290644
0003d0 78 2c 1b 3d 9d 74 a5 3d c3 8c 4d 3e c7 33 f0 bd
       0.037884206 0.08078883 0.20073228 -0.11728626
0003e0 91 84 18 3e 92 9f 5a 3e fa 43 0a 3e fb e6 87 bd
       0.1489432 0.21349934 0.13502494 -0.06635853
0003f0 d0 4f 5b 3d ef d3 dc bd 03 e7 b4 bd 48 0d 40 bd
       0.053542912 -0.107826106 -0.088331245 -0.046887666

encoder.0.bias f4 [128]
000000 c9 af 16 bd 63 65 06 3d 18 46 b4 bd d5 e8 7d 3c
       -0.036788736 0.032811534 -0.08802432 0.015497406
000010 34 a7 55 3c bb 5f ec bc 4f 01 aa bc b2 ac 0f bc
       0.013040353 -0.028854242 -0.020752577 -0.008769201
000020 6c b1 cd bd 0c ff 11 bd 96 9f de 3b 1c 89 a9 3d
       -0.10043606 -0.035643622 0.0067939265 0.08278105
000030 a8 87 f7 3b c5 82 e2 bc fd 79 47 bc 8b 6f 34 bd
       0.0075540133 -0.027650246 -0.01217508 -0.04405169
000040 a9 73 86 3d 86 09 b2 3c 9d e7 c5 bc 12 38 02 3c
       0.06565029 0.021733057 -0.024158293 0.0079479385
000050 c5 fc 64 3c 61 8a ce bc 9e 12 1c 3d 2f 35 07 bd
       0.013976281 -0.025212469 0.038103692 -0.033009704
000060 b7 75 24 3d d3 4c 19 3d 06 6f 82 3d 20 1b ef bc
       0.040151324 0.03742678 0.06368832 -0.029187739
000070 57 98 97 bb 6e 06 a4 3d b5 27 d5 bc fd 5a 86 bd
       -0.0046263146 0.08009039 -0.02601991 -0.065603234
000080 08 1d 69 bd 57 d8 10 bd 9c a1 0c bd 23 b5 91 bd
       -0.056912452 -0.035362568 -0.03433381 -0.07114627
000090 48 16 21 3d 85 25 2a bc 48 26 d0 3c b1 53 e4 bd
       0.03932789 -0.010384922 0.025408879 -0.11148775
0000a0 a4 46 57 3c e5 8a cd 3c ca 75 46 3c 03 b2 d0 3c
       0.013139401 0.025090644 0.012113044 0.025475508
0000b0 a5 67 5c 3d 96 17 07 3d d3 db fb bb 9f 3b 74 bb
       0.05380978 0.032981478 -0.007686117 -0.0037266982
0000c0 ef 30 8c 3d be 7f 0d 3d 9a 1b 3b bd 6b ad 83 3b
       0.06845271 0.034545653 -0.04568062 0.004018476
0000d0 6b 72 80 3b 5e b5 b3 3b a6 76 9b bd 50 c2 ff 3c
       0.0039198897 0.005484267 -0.0759099 0.031220585
0000e0 7e 28 78 bd b9 32 06 3d 56 97 54 bc dd c7 85 3c
       -0.06058549 0.032763217 -0.012975534 0.016330654
0000f0 a3 f4 ca 3c eb ff 0d 3d 77 61 99 bc 53 ef ef bb
       0.024774855 0.03466789 -0.018723233 -0.007322231
000100 92 d3 d0 3c 67 b2 d5 bc 7e 93 9a bc b3 02 f8 3c
       0.02549151 -0.026086045 -0.018869158 0.030274725
000110 88 4c 8f 3b 13 7c 13 bd 05 35 f3 3d 03 7e d6 bc
       0.004373137 -0.036007 0.11875347 -0.026183134
000120 c7 ba 72 bc c2 ff 7f bd ac 18 e9 3c b8 af aa 3c
       -0.014815039 -0.06249977 0.028454147 0.020835742
000130 0a 07 46 bc cb 7a f1 3c 20 44 bd bc c8 b9 b5 bd
       -0.012086639 0.029477498 -0.023103774 -0.088733256
000140 14 df f5 3c 93 af 0f 3d 20 76 96 3c 6a 3d e9 bb
       0.030013599 0.03507955 0.018366873 -0.007117917
000150 e5 6e 5c bc 85 a0 c4 bc 7f 50 f7 3b c1 48 1e 3c
       -0.013454174 -0.024002323 0.0075474377 0.009660901
000160 bf d2 c3 bc 30 5d b6 bc 96 5d d1 bd fb 2d b4 bd
       -0.023904203 -0.022261232 -0.10222928 -0.087978326
000170 56 75 23 bd 41 2b ba bb f2 0f 9e bc a9 f9 e0 3b
       -0.039906822 -0.005681426 -0.019294713 0.0068656993
000180 89 dd a1 bd ed c6 06 bd 4f 25 ba bc b1 59 53 3d
       -0.079035826 -0.032904554 -0.022722868 0.05159921
000190 e4 18 60 3d c1 45 da 3c 2a d5 94 bd a5 1b 85 bd
       0.054711238 0.02664459 -0.0726722 -0.064994134
0001a0 fe d8 8f 3d fd 70 aa bd 5f 3b 17 bc 2c ef 37 bd
       0.0702381 -0.08322332 -0.009230464 -0.044905826
0001b0 19 22 29 bd dc 29 21 3d a5 db 8c bd 52 9c a6 3d
       -0.041292284 0.03934656 -0.06877831 0.081352845
0001c0 d8 5e 3a 3c 01 f2 14 3b 4e 6f 67 3c 06 ef af bc
       0.011375152 0.0022727253 0.014125658 -0.02147628
0001d0 5d 7a 72 bd 5f 21 9b bc 67 2c de bb 99 36 f7 bc
       -0.059198726 -0.018936811 -0.0067801955 -0.030177401
0001e0 1f 90 0a 3d a6 64 2e bc 09 2e bd 3c 91 b6 f8 3c
       0.03382885 -0.010644114 0.02309324 0.030360492
0001f0 8d 63 ba bc f0 e8 7b bd 54 8f 8e bd b0 45 1f 3d
       -0.022752548 -0.061501443 -0.069609314 0.03888482

messages.W_query f4 [1, 128, 128]
000000 d3 9e 32 bc 71 6b 78 bd 17 d4 a8 3d 80 54 1d be
       -0.010902124 -0.06064934 0.08243578 -0.15364265
000010 51 6a 82 3e ad e6 9d 3d 02 18 40 be e3 5e 30 be
       0.25471738 0.077100135 -0.18759158 -0.17223696
000020 dc ac 29 3e a1 6e d8 bd 4e d6 3d ba 7a 03 97 3e
       0.16569847 -0.10567976 -0.0007241712 0.2949484
000030 c5 f9 62 3d ee 4c 5f 3d 2c fb 0e 3e 35 1f 04 3e
       0.05541398 0.054516725 0.13963002 0.1290253
000040 30 3e d3 3d 22 66 52 3e 5c 13 57 3d ac d7 3a bd
       0.10314596 0.20546773 0.052508697 -0.045615837
000050 d7 50 8c 3c 04 bd 47 be 39 87 8b bd 1c 92 07 be
       0.017128391 -0.19505697 -0.06812901 -0.1323933
000060 de 16 22 be 0e 52 71 3d a9 c6 61 3c 9d 71 07 be
       -0.15829036 0.058916144 0.013780274 -0.13226934
000070 b0 24 01 be be 51 bd 3d 3b 9c ab bc 16 e9 02 bd
       -0.12611651 0.09244107 -0.02094852 -0.03196057
000080 1c 0f 0d 3c cd 47 03 bd 45 99 05 3e 5c 08 91 be
       0.008609559 -0.032050896 0.13046749 -0.2832669
000090 f5 cc 1d be 7d b3 07 3e e9 20 12 bb 23 ef 06 3d
       -0.15410216 0.13252063 -0.0022297448 0.032942902
0000a0 4c 8d e7 bc e6 2d e8 3d ce e2 9c bc 6d 5b 95 3d
       -0.028265618 0.113368794 -0.019151118 0.07292829
0000b0 d7 29 e9 bd 24 e3 d5 bc 48 91 8d 3d 05 b1 7e bd
       -0.113849334 -0.026109286 0.06912476 -0.062180538
0000c0 3c 54 4e be ae ed 14 3e 3c 74 2b 3e ab d2 40 3e
       -0.2014932 0.14543793 0.16743559 0.18830363
0000d0 86 47 19 be 4a 04 a9 3b c8 d5 26 be 2f 0f b7 bd
       -0.1496869 0.005157982 -0.16292489 -0.08938443
0000e0 54 86 24 3b 05 93 dd bd 0b 2a 97 bd d1 3e c7 bd
       0.002510448 -0.108190574 -0.07381066 -0.09728778
0000f0 23 42 ee bd 14 51 07 bc ac 07 0e 3d 32 b0 76 be
       -0.11633708 -0.008259077 0.034675285 -0.2409065
000100 28 ab 18 bd 2b 23 8a 3d fd ad 94 bd 55 11 36 bd
       -0.037272602 0.06744989 -0.07259748 -0.044450123
000110 2d 5d 68 be a5 c2 e6 38 b4 17 a5 bd 5f 23 ab 3c
       -0.22691794 0.0001100351 -0.08061162 0.02089089
000120 b0 3c 05 3e 0f b7 f0 bd 80 76 6c 3b 7a 62 97 bd
       0.13011432 -0.11753666 0.0036081374 -0.0739183
000130 6a 48 57 3d 53 2e dc bd c0 de 8f bc c1 85 61 be
       0.052559294 -0.10751023 -0.01756227 -0.2202368
000140 ed 71 c3 3c ba 4c 20 be a3 15 bd 3d 8b 37 06 3e
       0.023858035 -0.15654269 0.092326425 0.13107125
000150 ee bf 42 bc 7f 28 47 3e f0 ca 41 3e 35 fb 7c bd
       -0.01188658 0.19449042 0.18925071 -0.061763007
000160 80 0c ff bd 14 2d b5 3d 93 0c 23 3d 45 0d 1d bd
       -0.12453556 0.088464886 0.039806914 -0.038342733
000170 30 b0 bd 3d 36 d6 61 3d 74 f1 50 bd 9b 28 31 3e
       0.09262121 0.055135928 -0.051011518 0.17300646
000180 ab 9e 0c 3e 9e f1 5e 3d 68 ec f0 bd e2 c7 33 be
       0.13732402 0.054429643 -0.11763841 -0.17556718
000190 cd 9b cf 3d 13 f9 89 be 46 e0 b7 3b 6e 58 ef 3d
       0.101371385 -0.2694784 0.0056114523 0.116867885
0001a0 2e c5 66 be 60 41 50 be 1b 76 8f 3e 28 0b 6f be
       -0.22536156 -0.20337439 0.28019795 -0.233441
0001b0 ff 58 c3 3b 3c fd 9f 3d 53 c1 88 bd 7a 41 7b bd
       0.005961537 0.078119725 -0.06677499 -0.06134174
0001c0 77 6c 44 3d ea 78 04 3e ca 19 17 bd 60 10 e0 bd
       0.047955003 0.1293675 -0.03688983 -0.10940623
0001d0 5b a9 29 3e 60 6a 9f 3b ce 31 95 bd 7c 91 4c be
       0.1656851 0.004864976 -0.0728489 -0.19977373
0001e0 ea 60 3e 3c d5 b0 2d 3c a3 0c 0d 3d 4d 41 f1 3d
       0.011619786 0.010601242 0.03443588 0.11780033
0001f0 37 69 8e be 0f 82 7e 3d ed c3 3f be 63 4f 5b bd
       -0.27814648 0.062135752 -0.18727084 -0.053542506
000200 b1 41 56 bb 16 67 8f bd 69 ad 71 3d 99 d0 ef bd
       -0.0032692964 -0.07002084 0.059003267 -0.11709709
000210 5e c9 61 bd b6 70 f7 3d 20 53 52 bd 78 f2 ff bd
       -0.05512368 0.12082045 -0.051348805 -0.12497419
000220 3a e1 71 3d ce 2e c4 3c d0 36 d9 bd e6 ac 23 bd
       0.059052683 0.0239481 -0.10606158 -0.03995981
000230 a8 a4 a1 3d 3b 3d 04 bd 9c 3c 2d 3e d0 8a d9 3d
       0.07892734 -0.032284956 0.16917652 0.106221795
000240 b2 5f 1e 3e 82 73 9e 3d a0 cb 34 3d 0a 59 47 3d
       0.15466192 0.07736875 0.044139504 0.0486689
000250 23 7a 96 3c c5 25 92 3d d2 7f b6 3d 4e ea 86 bd
       0.018368786 0.0713611 0.089110985 -0.06587659
000260 1f fe f0 3c 3d 03 f0 bb 86 23 9b bc 4d db 14 be
       0.02941805 -0.007324605 -0.018937837 -0.14536782
000270 84 31 6f 3d 20 b3 45 bc 5a 20 15 3e 88 3f 9c 3c
       0.05839683 -0.0120666325 0.14563122 0.019073263
000280 67 f2 47 3c df 4c 61 bd 6b ed 55 3e 85 55 b4 bc
       0.012203789 -0.05500495 0.20891349 -0.022013435
000290 9a 53 ca 3c 9c d3 41 be b0 d6 68 3e ee 40 0a 3d
       0.024698067 -0.18928379 0.22738147 0.033753328
0002a0 9e 8c 01 3d ae 0a dd 3d 4c ae 43 bd 60 d5 ef bd
       0.031628244 0.107930526 -0.047773644 -0.1171062
0002b0 5b 02 7d bd 58 40 ad 3d 91 f2 cb bc 4e 10 2d be
       -0.061769824 0.08459538 -0.024895938 -0.16900751
0002c0 e6 71 72 bd 55 a5 e7 3d 5a 4b 15 3e f8 db ff 3d
       -0.059190653 0.113108315 0.14579526 0.124931276
0002d0 0e c7 23 be 07 03 b8 3d 96 9e 01 3d d3 5c 21 be
       -0.15993902 0.089849524 0.03164538 -0.15758066
0002e0 93 38 47 bb bc 1b fe bb 5a 19 bc 3c a1 de 04 bd
       -0.003039871 -0.007754771 0.022961307 -0.032438878
0002f0 aa dd ab 3d 67 15 bf bd f0 7e 26 be a5 70 59 be
       0.083918884 -0.09330254 -0.1625936 -0.21234377
000300 c3 33 30 be c9 c0 be bd 60 46 fe bd 3d 33 4f bd
       -0.17207246 -0.093141146 -0.12415767 -0.050585974
000310 64 61 81 bd 7b b4 48 bd bf 17 8f 3d b5 fb e1 bc
       -0.06317404 -0.049000245 0.06986951 -0.027585844
000320 1d d1 d3 3d 52 80 06 be 6a 00 09 bd a9 02 70 3d
       0.103426196 -0.13134888 -0.03344766 0.058596287
000330 10 6e 34 3e a9 73 a8 3d 32 de 90 bd 74 4c 26 be
       0.1762011 0.082251854 -0.070736304 -0.16240102
000340 78 96 82 bc 7a 9f cb bd e5 bd be 3c 3d 74 8d 3d
       -0.01594089 -0.09942527 0.023283908 0.06906936
000350 99 d4 3e 3c b1 5f 2a be 45 8f a9 3d 4b 74 07 3d
       0.011647367 -0.16638066 0.082792796 0.03306989
000360 95 38 a3 bd 2a 9f 77 3d 41 fa aa 3d 2a bc b5 3d
       -0.079697765 0.060454525 0.083485134 0.0887378
000370 b4 93 64 3d 37 e3 06 bd 00 47 c6 3d 14 e3 f4 3d
       0.055804923 -0.032931533 0.09681511 0.11957374
000380 93 34 19 3e 1c 4b 6c 3d 58 42 f5 3d b2 36 1b bd
       0.14961462 0.057688817 0.11975545 -0.03789396
000390 9b a0 9d 3d 0f 67 55 bd 6f ec 08 3e 56 05 25 be
       0.07696649 -0.052100237 0.13371442 -0.16115317
0003a0 f1 85 97 ba f1 81 2c bd 4e 79 16 bd 7e 4d 0b be
       -0.0011560303 -0.04211611 -0.03673678 -0.1360378
0003b0 c9 47 29 be 41 de c3 3d c7 1f 8b 3d 13 32 85 bd
       -0.1653129 0.09563876 0.067931704 -0.065036915
0003c0 38 ca 44 3e 81 2e 31 3e 11 2b 8c bd 1e f9 39 be
       0.19217765 0.17302896 -0.06844152 -0.18161437
0003d0 b7 87 33 bd d4 8a 12 3d 03 29 ac bc a6 cc 9f bd
       -0.0438306 0.035776928 -0.02101565 -0.078027055
0003e0 b7 4e 05 be 92 c8 14 be 97 8f 1a 3e 91 72 03 3e
       -0.13018309 -0.14529637 0.15093838 0.12836672
0003f0 e6 ee a0 bc ec b6 02 be bf 73 61 bd b3 f9 c9 bd
       -0.019645166 -0.12765092 -0.055042025 -0.098620795

messages.W_key f4 [1, 128, 128]
000000 7c 12 48 3e ca f8 89 bb 26 96 ad bd d4 84 b7 3d
       0.19538301 -0.004210566 -0.08475904 0.08960882
000010 7f 3a 77 3d b0 19 54 be e7 01 c3 3d 9c bf 1a be
       0.06035852 -0.20712924 0.09521847 -0.15112156
000020 a3 ae 4a bd 77 21 48 bd 22 5b a9 bd 2c a4 0b 3d
       -0.049482953 -0.04886004 -0.08269335 0.034092113
000030 39 e1 44 3d f8 77 19 3e 8b c6 82 bd e7 bd d9 bd
       0.04806635 0.1498717 -0.06385525 -0.10631924
000040 d6 82 bd 3d 47 22 a0 bc 6c 57 33 be 66 78 59 be
       0.092534706 -0.019547595 -0.17513818 -0.21237335
000050 0d e6 e2 3d a0 d7 30 3d cf 80 28 be 4c 30 55 3d
       0.11079035 0.043174386 -0.16455387 0.052048013
000060 b4 31 01 3e 6c f6 91 3c 3d b2 6c bd 45 c7 da 3c
       0.12616616 0.017817698 -0.05778717 0.026706347
000070 9b af af 3b db 6a 1c 3e 6a 19 41 be e5 58 57 3d
       0.00536151 0.15275137 -0.18857351 0.05257501
000080 b8 c5 a5 3d 9c 58 0b be 51 d4 95 bd 55 6b d9 3d
       0.080943525 -0.1360802 -0.07315887 0.10616175
000090 14 62 37 3d 51 f5 80 3e 4e e5 07 be 2f 7d 9e 3e
       0.04477127 0.25187162 -0.13271067 0.30954883
0000a0 66 94 22 3d 3c 4a 35 bd 75 d0 99 bb e7 5b c1 bc
       0.039692305 -0.04426025 -0.0046940395 -0.023603393
0000b0 7f 69 b5 3d 0f 44 2a be 60 92 2b 3e d1 10 0c 3e
       0.088580124 -0.16627525 0.16755056 0.1367829
0000c0 b6 1e 89 bd f1 3e 32 3e 51 fd 6a bd ca 2b 6e 3e
       -0.06695311 0.17406823 -0.057370488 0.23258892
0000d0 a7 7a 17 3e b2 f9 d9 bc 5d 8e fa 3d 8b 32 23 3e
       0.14792882 -0.026608322 0.12234185 0.1593725
0000e0 37 16 21 be 2f 64 35 be 94 7f cc 3d f5 b3 3a 3e
       -0.1573113 -0.17713998 0.09985271 0.1823271
0000f0 32 83 dd bd d1 5f c2 3d d6 a3 b8 3d 94 bc fe 3d
       -0.10816039 0.09490932 0.09015624 0.12438312
000100 a7 eb 0f 3d e4 0c 57 3e 64 1b 36 3e 8e 80 20 3a
       0.035136845 0.21001011 0.17783886 0.0006122672
000110 f8 eb 49 be 7d 18 4e 3d 98 b1 24 be 88 5a 37 3e
       -0.19718921 0.050316323 -0.16083372 0.17905629
000120 04 a3 c0 3d 9b 3a 92 3d 34 3c 4c 3e ee 3f 0a 3e
       0.09406093 0.07140084 0.1994484 0.1350095
000130 6b 76 31 be 7b f3 6f bd 49 d2 92 3d f4 98 15 3c
       -0.17330329 -0.05858181 0.07169015 0.009130705
000140 ce b4 d6 3d 28 0d 45 3c 25 a4 ad bd 48 08 94 bd
       0.104837045 0.0120270625 -0.08478574 -0.07228142
000150 17 1a b4 3d fe 59 1c 3e ed 40 e6 bc 44 54 8f be
       0.08794039 0.15268704 -0.02810713 -0.27993977
000160 0a ce 09 3e 39 c5 1c 3d ff 25 aa 3d 60 6f be 3d
       0.13457504 0.038274024 0.083080284 0.09298587
000170 35 00 ab bd cd 16 92 3d 89 79 59 be 26 8a 44 3d
       -0.08349649 0.07133255 -0.21237768 0.04798331
000180 e9 ec fc 3c 3c de 0e be 23 2c b2 bd 66 8c 72 3a
       0.030874686 -0.13951963 -0.08699825 0.00092524884
000190 1f 82 d8 bd 3a a3 ba 3c b3 cf 9f bd e1 25 3c 3e
       -0.10571694 0.02278291 -0.07803287 0.18373825
0001a0 44 55 91 bc 4e 5d 3f bd 5a 2d 5c 3c 19 9f 83 bc
       -0.017740853 -0.04671984 0.013438547 -0.016067075
0001b0 f8 50 34 bb 4c f4 e9 3b 7d 4c 20 be 0a 35 e8 3d
       -0.0027514081 0.007139718 -0.15654178 0.113382414
0001c0 1e 7c e5 bd da 5d 1e be c7 60 b6 bc bc aa 12 3d
       -0.11205314 -0.15465489 -0.022262944 0.035807356
0001d0 5c 1c d9 bd 03 bd a3 3d 34 14 86 be ac c9 81 3d
       -0.10601112 0.079950355 -0.2618729 0.06337294
0001e0 5c cd 42 3e 12 9b 8e 3b c2 c0 a2 bd fa 24 ac 3d
       0.19023651 0.004351982 -0.07946922 0.0840549
0001f0 36 3b 4a 3d 6d 32 77 3d 2d 0b 2c be ca a6 c4 3d
       0.049372874 0.060350824 -0.16801138 0.09602125
000200 12 27 2c bd 02 ac c7 bd 3f a1 4c 3d 63 6d 7c bd
       -0.042029448 -0.09749605 0.049958464 -0.061627757
000210 3a f4 96 3c 12 cc 16 3e 3f f5 1c bd 27 a4 32 bc
       0.018427003 0.14726284 -0.038319822 -0.010903395
000220 28 b1 d7 3d 7a af f7 3d fe f0 77 3d 4e 44 3a 3d
       0.10531837 0.120940164 0.060532562 0.045475297
000230 ce c1 8d bc 50 c6 f6 bd f8 6d 84 3d 26 32 ae 3d
       -0.017304327 -0.12049544 0.064662874 0.08505659
000240 11 62 7b 3d 2a 6a 38 bd b0 9d 20 3d 88 ed 5d bc
       0.06137282 -0.04502312 0.039212883 -0.013545401
000250 d3 43 97 3c 92 ca fd 3c 2b 24 d1 3d 4c c6 17 3c
       0.018464958 0.030980382 0.102119766 0.009263586
000260 bb d1 ff 3c 33 9b 20 3d bf 1c 51 3d d3 62 a4 bd
       0.031227937 0.03921051 0.051052805 -0.08026662
000270 2f 03 25 3d a4 72 b1 bd 46 75 f8 3d 2e 2f ac bd
       0.04028624 -0.08664444 0.12131743 -0.08407436
000280 80 02 84 bd 40 f4 a0 3d c5 6e 22 3d 44 d8 00 bd
       -0.06445789 0.07859087 0.03965642 -0.031456247
000290 19 8b 39 ba 88 05 1a be 17 55 0a 3e 64 82 14 be
       -0.0007077917 -0.15041173 0.13509022 -0.14502865
0002a0 4a 7d ad bd ab 46 ab bd 75 b6 ff bc 13 40 f3 bd
       -0.084711626 -0.08363088 -0.031214932 -0.118774556
0002b0 f2 2b 0f be 95 f2 67 3d 8d 91 ce bd 99 3b d6 bd
       -0.13981608 0.05662783 -0.10086355 -0.10460586
0002c0 42 39 b1 3c b7 50 25 3e d6 ff 0a 3e 7c 63 58 3d
       0.021633748 0.16144072 0.13574156 0.05282925
0002d0 1e 4c 1f bd 89 bb 0f 3e f2 71 30 3a f3 5d a1 bd
       -0.03889095 0.14036383 0.00067308464 -0.078792475
0002e0 98 a8 41 bd 36 da 8f 3c d4 6f 06 bd 0f 70 65 3c
       -0.047279924 0.017560106 -0.03282149 0.014003768
0002f0 d4 60 05 3d 12 d6 6f bd 74 46 15 be 9e 11 8b bd
       0.032563046 -0.058553763 -0.14577657 -0.067904696
000300 e1 4a e0 bb 74 36 cf bd a6 3b 59 bc 51 2c 76 bd
       -0.0068448638 -0.10117808 -0.01325885 -0.060100857
000310 8e cc 5e 3c 33 cf 48 bd 8f fb d4 3d 7a e2 51 bd
       0.013598574 -0.049025726 0.103995435 -0.051241376
000320 34 9d e2 bd 41 31 5b bc 6d 8f 57 bd 0b 2a 29 3c
       -0.1106514 -0.013378442 -0.052627016 0.010324965
000330 05 c3 4c 3c 8a 34 f6 bc cc f9 fa bd f3 5f 3b be
       0.012497668 -0.03005435 -0.12254676 -0.1829832
000340 ca ae 44 3d 29 5a 9d bd f4 1f b1 3c 17 f3 ec 3d
       0.048018254 -0.07683212 0.021621682 0.11569803
000350 bb 8f e2 bd 97 97 48 be da 91 36 bc b4 53 18 3b
       -0.11062571 -0.19589077 -0.011143172 0.002324325
000360 51 97 dc bd a7 91 90 3d 7e 84 d3 3d 1e 05 92 bd
       -0.10771049 0.07059031 0.10328005 -0.07129882
000370 62 16 30 bc 89 bb 88 3d f6 e4 ac bb ae d2 0d 3b
       -0.010747524 0.066763945 -0.0052763177 0.0021640467
000380 77 3f b9 3d 47 32 a9 3d 95 a7 09 3e 6c 69 83 bd
       0.09045308 0.08261543 0.13442834 -0.06416592
000390 2e 89 3e bd 56 38 0d 3d 9d 1f 26 3d f1 de 6a 3c
       -0.046517543 0.034477554 0.040557493 0.01433538
0003a0 8b 8f 17 3d e2 8d e2 bd c0 e3 ec 3c 81 37 58 bd
       0.037002128 -0.11062218 0.028917193 -0.052787308
0003b0 9e 05 86 bd d3 3c 02 3d c6 f0 05 3e 13 f3 ed bd
       -0.0654404 0.031796288 0.13080129 -0.11618628
0003c0 bd f0 e5 3d 07 9e ba bb 5f 87 d2 bd cf 1f c1 bd
       0.11227558 -0.005695108 -0.10279726 -0.09429895
0003d0 c4 b2 97 3d 28 92 00 be 67 2a c4 bd 73 b5 87 bd
       0.07407144 -0.12555754 -0.095784 -0.066264056
0003e0 e2 62 2e be 28 d0 80 bc 9b 87 f5 3d d5 62 9e 3d
       -0.17029908 -0.015724257 0.11988755 0.077336945
0003f0 b1 92 01 be f7 dc a2 bd f8 eb 95 bd 58 37 1f be
       -0.12653615 -0.07952302 -0.07320398 -0.15548456

messages.W_val f4 [1, 128, 128]
000000 cb 4d c7 3c 77 9d 49 3c 9e 7f a2 3d 3e 55 24 3e
       0.024329087 0.012305609 0.07934497 0.16048142
000010 a8 e0 a6 3d a5 a6 a8 bd 78 41 34 3b 6e a3 07 3c
       0.081483185 -0.0823491 0.0027504843 0.008278711
000020 83 6d b4 3d 9a 28 87 3c 04 5c 4b bd 65 d5 65 3c
       0.0880995 0.016498853 -0.0496483 0.014027928
000030 ae 0e 0f be f2 0e e7 bc 27 95 56 3d b8 ac 31 3d
       -0.13970444 -0.028205369 0.052388337 0.043377608
000040 87 8b b6 3b 5c 9b 04 bc 57 b8 ac bd 07 13 c4 3d
       0.005570832 -0.008093681 -0.084335975 0.09573942
000050 df a3 80 bd a2 5d 95 3b ef 4b aa bd 0b f2 12 3d
       -0.06281256 0.004558281 -0.083152644 0.03587536
000060 6b b5 c7 bd a5 68 01 3d 96 97 7f bc 99 f5 9f 3d
       -0.097513996 0.031593937 -0.015600106 0.07810516
000070 eb 01 54 bb 13 b3 25 3d 38 d6 aa 3d 0d 4a e8 3c
       -0.0032349776 0.04045398 0.0834164 0.028355623
000080 bc 6a 10 3e 23 47 3c bd bd 5d e8 bd e5 f0 1c 3d
       0.14103216 -0.04596628 -0.11346004 0.038315672
000090 58 96 c6 3b ce 5f a2 bd a2 ef b9 bd fa d0 7e bd
       0.006060403 -0.079284295 -0.090789095 -0.062211014
0000a0 22 8f cc 3c e0 0a 90 bd 2f 26 8e 3d 60 3d 83 bd
       0.024970595 -0.07033324 0.06940877 -0.06408191
0000b0 53 91 06 3b f8 d4 69 3d 9c ab d5 bb 0e f9 7a bd
       0.0020533397 0.05708787 -0.0065207016 -0.061272673
0000c0 56 db 74 bc c2 13 bc 3c f8 92 c9 bd 8e 28 89 3d
       -0.014944872 0.02295864 -0.09842485 0.06697188
0000d0 3b ec a2 bc 0e 2b 4c 3d 9e 63 be 3d 14 76 3d 3d
       -0.019888034 0.049845748 0.09296344 0.046255186
0000e0 b5 63 4e 3d 5c af cb bc b4 5c 88 3d 55 bd 71 bb
       0.050388057 -0.024863891 0.06658307 -0.0036886532
0000f0 8e 22 92 3d 52 22 2e bd fd 59 3f bd ac bb cd 3d
       0.07135497 -0.0425132 -0.04671668 0.10045561
000100 9a e3 c9 3b 10 5f bc bc 32 2c 91 3d bc 7b 26 bd
       0.0061611654 -0.022994548 0.07088508 -0.040645346
000110 a8 f0 c8 bb 46 83 9e bd 3b 2a aa bd 39 72 84 3a
       -0.006132204 -0.07739882 -0.08308836 0.0010104842
000120 ec de be 3c b7 0c 02 3e a8 12 be bd 9f 67 01 bd
       0.023299657 0.12700163 -0.09280902 -0.03159296
000130 fd 4b 09 bc 37 4c c5 3d 8c 4d a5 3d a9 bb c6 bd
       -0.008379933 0.096336775 0.080714315 -0.09703762
000140 15 22 cd 3d 24 b1 10 3d 44 f3 12 bd 79 a8 c7 bd
       0.10016266 0.035325184 -0.035876527 -0.097489305
000150 6d e6 23 bd 79 96 ed 3c 61 a7 56 3c f3 d2 79 bd
       -0.040014673 0.029002415 0.01310143 -0.060992192
000160 72 bf d2 3b 8f 32 49 3d c7 d7 4b bd 28 92 0c bd
       0.0064315135 0.049120482 -0.04976633 -0.034319073
000170 a6 e8 84 3d 0d ba b4 3d 67 ee 82 3d 81 cb 04 3d
       0.06489687 0.08824549 0.06393128 0.03242064
000180 90 f9 9b bc b5 4d 99 bd 2b a9 4c bc 94 6e 02 3c
       -0.0190399 -0.074855246 -0.012491505 0.007960934
000190 9b 96 3b 3d 96 d6 99 bd 7d ed 3b 3b da b2 7e bd
       0.045797925 -0.07511632 0.002867549 -0.062182285
0001a0 6b cb b4 3d c0 7b 02 bd c4 e9 9d 3d 1f 5b 80 bd
       0.088278614 -0.0318563 0.07710603 -0.0626738
0001b0 f7 88 4d bd fb 12 c4 3d 52 ae 48 3c 03 83 7f bd
       -0.050179448 0.09573933 0.012248592 -0.062380802
0001c0 fa 34 91 3d c3 55 9b 3b da 3b 9b 3d be b3 1d 3d
       0.070901826 0.004740448 0.07579775 0.038501494
0001d0 ed ae c0 3d 5c 56 b5 3d 3f cf eb bc 35 5e f0 3c
       0.094083644 0.08854362 -0.028785346 0.029341796
0001e0 b4 6e 9d 3d fe c9 86 3d cc 9b 89 3d 28 e8 20 3d
       0.076871306 0.06581496 0.06719169 0.0392839
0001f0 ab 6e 27 bc d6 48 76 bd 51 c7 89 bd d5 b8 79 bd
       -0.010219256 -0.060128056 -0.0672747 -0.060967285
000200 3e c5 6a bd 7b 85 d6 3d 9f be 41 3c 49 f0 58 3d
       -0.05731701 0.10474678 0.011825233 0.05296353
000210 4e 8b 89 bc e4 85 be bd bf 4f 97 ba c9 f7 74 bc
       -0.016790058 -0.09302881 -0.0011544152 -0.014951655
000220 0d 34 8f bd 0a 8c 03 bd 98 4a a9 3d 8a 2f 05 bd
       -0.0699235 -0.032115974 0.08266181 -0.03251604
000230 a3 c9 1d be 05 48 ca bc e8 87 01 bd 23 30 82 ba
       -0.1540895 -0.024692545 -0.03162375 -0.0009932559
000240 bb 3b 35 bd db 2c 9c 3d 87 82 c6 bd 0d dc 0e 3d
       -0.044246417 0.07625743 -0.09692865 0.034877826
000250 11 3f 24 3d e4 0f ee 3d 7b e8 9c bd 5a d3 b1 3d
       0.040099207 0.11624125 -0.0766153 0.0868289
000260 ed e5 7d 3d b5 75 00 3d 4e 03 bd bd 09 e1 9e 3c
       0.061986852 0.031362254 -0.09229146 0.019394414
000270 29 b4 58 bd a0 ad ee bc 6d 37 d3 3d 2b 24 80 3c
       -0.05290619 -0.029135525 0.10313306 0.015642246
000280 a0 04 89 3d 19 87 11 3d c2 84 55 bb 1f 26 a0 3c
       0.06690335 0.03552923 -0.003258035 0.019549428
000290 27 09 9d bd 7e be d0 bc 4e f7 c1 bd 8a 7a 7b bc
       -0.07667761 -0.025481459 -0.09470998 -0.01534904
0002a0 38 7c aa bb 22 29 16 bd ba 7a 5c 3c be fa a7 bb
       -0.0052027963 -0.03666032 0.013456995 -0.0051263263
0002b0 4d bf df ba 74 af d0 3d 1d 44 b1 3d 73 1d fd bd
       -0.0017070562 0.10189715 0.0865557 -0.123591326
0002c0 ba 8b c5 bc 50 40 1c 3d e2 f0 82 bc 81 86 fb bc
       -0.024114478 0.03814727 -0.015984003 -0.030703785
0002d0 6e 6b 9c bc 7d 09 9f ba 50 0d 8f 3d 4f 6c 98 3c
       -0.019094195 -0.0012133565 0.06984961 0.018606333
0002e0 22 b4 ad bd e1 bc bc 3d 17 cb 8e bd 14 ab 17 3d
       -0.08481623 0.09215713 -0.0697233 0.037028387
0002f0 06 de 87 bd b5 99 99 bd 8c fb a5 bd 1b 92 48 bd
       -0.066341445 -0.075000204 -0.081046194 -0.048967462
000300 30 dc 2c bd 58 93 ac 3d 85 9a f2 3b 5e cd 67 3d
       -0.042202175 0.08426541 0.007403674 0.056592338
000310 03 c3 0e be 5d 50 ef 3c 00 f3 c8 bc f6 65 30 3d
       -0.13941579 0.029213125 -0.024529934 0.043065988
000320 c8 cc 76 bd db e7 51 bc b8 3e 9d bd 5c b4 b3 bd
       -0.06025389 -0.012811626 -0.07677978 -0.08774635
000330 a0 8f 76 bd f0 d8 b9 3c 9b ff 62 3d 06 d3 36 3d
       -0.060195565 0.022686452 0.055419546 0.04463484
000340 1d 68 52 3d f0 4c 09 bc c0 e3 f2 3d 22 ea 54 bd
       0.05136882 -0.00838016 0.11859846 -0.0519811
000350 d4 04 2d bd bd da 9f 3d 60 e5 71 3d d4 c4 76 bb
       -0.042240933 0.07805393 0.05905664 -0.003765394
000360 42 ee c8 3d de b1 f9 3c 9e a2 99 bd b8 af a9 bd
       0.09811069 0.030480321 -0.0750172 -0.08285469
000370 ed 68 35 bd 71 e2 49 3d da e6 ec 3d be 20 8b 3d
       -0.04428952 0.049288217 0.11567469 0.067933545
000380 00 f4 c5 bd 2c 36 a5 3c 6f e8 fe bb e2 b8 75 3d
       -0.0966568 0.020167433 -0.007779173 0.05999077
000390 a1 ce 82 bd c5 32 a9 3d 95 aa 28 3d 1d 84 8c bd
       -0.063870676 0.08261637 0.041178305 -0.06861136
0003a0 2e e8 66 3c 9f c6 63 3d ce e5 b2 bd 0d ba a5 3d
       0.014093442 0.05560934 -0.08735238 0.08092127
0003b0 da a7 e8 3d 96 64 6d bc ff dc 70 3d dd 29 17 bd
       0.1136014 -0.014489314 0.05880451 -0.03690516
0003c0 05 ff 48 bd b1 cc a6 bd 83 a0 93 bd bd ab 0c 3d
       -0.04907133 -0.081445105 -0.072083496 0.03434347
0003d0 7f 5f 88 bd c6 2d 12 bc 93 2c e6 bd 8e 2a 20 3d
       -0.066588394 -0.008922046 -0.112389706 0.039103083
0003e0 17 e6 a5 bc 03 b3 66 bd ed ed 01 3d d6 5c 72 3d
       -0.020251317 -0.056323063 0.031721044 0.059170566
0003f0 51 51 81 3d 4b 31 db 3c dd e9 e0 3d 70 cf d5 3d
       0.06314338 0.026756903 0.10982106 0.10439956

messages.W_out f4 [1, 128, 128]
000000 d9 20 82 bd dd 95 27 bd 0d 74 14 3c ca 2f 01 bd
       -0.063539214 -0.040914405 0.009060872 -0.031539716
000010 2f 9d f7 3a 23 1b d5 bd 97 b5 b3 3c 55 47 cd bd
       0.0018891449 -0.104055665 0.021937175 -0.10023371
000020 fe d1 a4 3d 22 9b fd bd 46 66 66 3b a8 79 bb 3b
       0.08047865 -0.12383105 0.0035156175 0.0057212897
000030 58 65 bc ba 83 6e 4b 3d fd 8f 83 bc 94 6c 26 3d
       -0.0014373465 0.04966594 -0.01605987 0.040630892
000040 92 f9 8b 3d 2f a8 eb 3c 2a 12 27 3a 1d 25 7e bd
       0.06834711 0.02876672 0.0006373251 -0.062047113
000050 d3 68 11 3d bc b1 62 bc 98 4c 89 3c 42 44 f7 bc
       0.03550036 -0.0138363205 0.016760156 -0.030183915
000060 a6 77 7e bd f3 fb 50 3d 12 b0 b3 bc 46 d8 ac 3c
       -0.062125824 0.051021527 -0.021934543 0.021099221
000070 ef 4d 78 3d 84 19 92 bc 46 44 b8 bd 11 47 79 3d
       0.0606212 -0.017834432 -0.08997397 0.06085879
000080 a4 a6 0e 3d fa c8 b1 bb f2 1d 0c 3d bb 43 d6 bc
       0.03482689 -0.0054255696 0.034208246 -0.026155343
000090 23 24 c4 3d cb ef b0 bd f3 f3 2e 3b ff 42 8b bd
       0.09577205 -0.08639487 0.0026695698 -0.06799888
0000a0 80 4e 17 bd fa 54 29 3d d3 d1 80 3d 23 17 14 bd
       -0.036940098 0.041340806 0.06290021 -0.036154877
0000b0 21 f0 62 3d 5a 61 a5 3d a5 c2 bf bd 7d 3f cb bc
       0.055404786 0.08075209 -0.093632974 -0.024810547
0000c0 33 f9 fd bc 2b 26 8f bd 2f 99 80 3c 4e dd da bc
       -0.031002617 -0.06989702 0.015698044 -0.026716854
0000d0 54 2c eb bc 54 ee 0f bd eb b7 b9 3c dd 7c a7 ba
       -0.02870766 -0.035139397 0.022670707 -0.0012778301
0000e0 f5 06 7d bc 62 89 6c 3c 01 09 19 3d 2a 22 6c 3d
       -0.015443553 0.0144370515 0.037362102 0.05764977
0000f0 a2 54 88 3c 74 16 d3 3b 52 26 a5 3c b4 e8 9a 3d
       0.016641919 0.0064418856 0.020159874 0.07563916
000100 b8 e1 4d bc 40 0e 0d bd bb ca 4c 3c 3c 02 35 3d
       -0.012566023 -0.034437418 0.012499507 0.044191584
000110 66 1b dc 3d 15 45 22 bc b8 69 f1 3b f5 bc 1f 3d
       0.10747413 -0.009904166 0.007367339 0.038998563
000120 ab 5d e2 3c ee a5 d8 3d de 35 b9 bd 6f a0 4a 3d
       0.027632555 0.105785236 -0.090434775 0.049469408
000130 e1 b8 ed 3c 80 3a 4b 3d 1e 04 ce 3d 10 4e 09 3d
       0.029018821 0.049616337 0.10059379 0.03352171
000140 73 47 7e 3b a4 01 e7 3c 8c 98 96 3d 3e 2d da bd
       0.0038799911 0.028199024 0.07353315 -0.106531605
000150 e2 a6 b7 bd e5 5b e4 3c 95 c3 36 3e 69 d7 7d 3d
       -0.08967377 0.02787585 0.17848046 0.06197301
000160 08 3b c0 3c a7 99 9a 3d 2a 11 0b 3d fb 03 20 bd
       0.023465648 0.07548838 0.033951916 -0.039066296
000170 e7 b8 8a bd cd 76 da 3d 99 8e c2 bd 7f 98 09 be
       -0.067735486 0.10667191 -0.094998546 -0.13437079
000180 ff 3c 97 3d b6 33 8a bd 33 b2 a9 3d 76 a1 48 bd
       0.07384681 -0.06748144 0.08285942 -0.048982106
000190 b9 5b 0e 3c db 90 1d bd dc 87 3d 3d 3e 27 ea 3d
       0.008688861 -0.038468223 0.046272144 0.11433266
0001a0 9e 8a bd 3d 36 63 02 bd f3 81 57 bc 95 33 53 3c
       0.09254955 -0.031832896 -0.013153541 0.012890716
0001b0 11 e8 47 3d b3 47 fe bb 62 88 d4 3c 8a f4 6a 3d
       0.0488053 -0.007760012 0.025943939 0.057362117
0001c0 45 8b 18 3c a4 ca 93 3d 97 3b 8e bd 12 cd 46 bd
       0.009310548 0.07216385 -0.069449596 -0.048535414
0001d0 c7 9e 92 bd 31 da 91 3d 87 0e 92 bc 03 14 b3 3c
       -0.071591906 0.07121695 -0.017829193 0.021860128
0001e0 8c 44 9c bd 86 93 c5 bc 7b 83 4e 3d 73 61 83 bb
       -0.07630262 -0.024118196 0.05041836 -0.0040094196
0001f0 3f 60 ca bc 80 7e 82 bd 69 06 c6 bb 9e 07 c5 bd
       -0.024704097 -0.06371784 -0.0060432446 -0.096205935
000200 f4 b2 8f bc c8 d0 8c 3c c6 22 ea 3c 6c 28 4d 3c
       -0.017541386 0.017189398 0.028581034 0.012521844
000210 66 5d 90 bb e8 92 1d 3d 73 5d de bd a4 e9 c7 bd
       -0.004405665 0.03847018 -0.10857668 -0.0976136
000220 ce a0 70 bd 79 a0 f7 bd 8a 37 be bd 7a 2c 69 bd
       -0.058747105 -0.120911546 -0.09287937 -0.05692718
000230 02 a6 11 3d f3 ec ce 3d f8 7b 37 3d 8b d7 4d bd
       0.035558708 0.10103788 0.04479596 -0.050254386
000240 48 7f a1 bd a4 9d 31 bc 35 dc 8f 3d 44 bd a0 bb
       -0.07885605 -0.010840807 0.07024423 -0.0049053747
000250 45 4c 1d bc 3a b3 73 bd d0 2e fe bd 43 c5 8f bd
       -0.009600704 -0.059497096 -0.124112725 -0.070200466
000260 6a f1 c3 bd c9 bc d4 bc eb 83 82 3d 73 c4 91 3d
       -0.095675305 -0.025968926 0.063728176 0.07117548
000270 5b 85 a3 bd 43 98 8d bc 74 ba aa 3c f6 8a ad bc
       -0.0798442 -0.017284518 0.02084086 -0.021184426
000280 a1 25 a1 3d 6e 7d 19 be e9 77 24 bd eb 81 d6 ba
       0.07868505 -0.14989254 -0.040153418 -0.0016365623
000290 a1 6c 57 bd b3 4b b9 3d cf 75 9b 3c 01 68 69 3c
       -0.05259383 0.090476416 0.018977074 0.014245988
0002a0 53 e5 37 3d db a2 82 bd df 39 85 bc 48 d3 88 bd
       0.044896435 -0.063787185 -0.016262947 -0.06680924
0002b0 9d a9 08 bc c2 4d d4 bc 2e 2d da 3c e7 1a 32 bd
       -0.00834122 -0.025915984 0.026632871 -0.043482687
0002c0 0e bd 43 3d 9b 9c d7 3c de 6b 3a bc 0e 33 c8 3c
       0.04778772 0.026319792 -0.011378257 0.024438407
0002d0 a2 86 f4 3b 91 01 7b 3d a3 71 82 3d 88 34 fc bc
       0.0074623385 0.06128079 0.06369331 -0.030786768
0002e0 75 46 f9 ba d9 df f3 3c c6 00 a2 3d ce 23 9a bd
       -0.001901819 0.029769825 0.07910304 -0.075263605
0002f0 13 b2 81 bd 24 af 99 bd e4 55 57 bc 65 d9 ff 3c
       -0.06332793 -0.075041085 -0.0131430365 0.031231591
000300 14 7a 42 3c 21 93 ce 3d e2 8a 5b bd 2f 3a 0e bd
       0.011869926 0.10086656 -0.053599246 -0.034723457
000310 7a 80 02 3d da 70 e2 3d 3c 63 63 bd 19 bd 22 3d
       0.031860806 0.11056681 -0.05551456 0.03973112
000320 35 9c 32 3d 6f e5 af 3d ee 1c 16 be 23 e7 fe bc
       0.043606002 0.08588683 -0.14659473 -0.031116074
000330 3b 85 85 3d 30 38 d2 3c eb 59 6c bd 3c 85 3c 3d
       0.06519552 0.025661558 -0.05770294 0.0460255
000340 3a 50 be bd c4 0b 24 be fa 34 d0 3d 60 e1 9e 3c
       -0.09292646 -0.16020113 0.101663545 0.019394577
000350 aa 88 84 bd 9e 95 45 3d cf 30 a6 ba cc 97 94 bd
       -0.06471379 0.04823839 -0.0012679341 -0.072555155
000360 0d 7e 07 be bf c9 e8 bc e6 aa 6a 3d e3 16 59 3d
       -0.13231678 -0.028416513 0.057291888 0.053000342
000370 de 1c 58 3c 7a 6a 8b 3c 9e fc 1b 3b 44 e0 57 3b
       0.013190476 0.017018545 0.0023801695 0.003294007
000380 0c fb 6f 3b 87 5a 5d 3d 2d b1 ad bc ee b4 18 bc
       0.0036618141 0.05404141 -0.021202648 -0.009320481
000390 fc 4c b6 3d 75 53 cf bd 55 fd fd 3c 66 86 1a 3d
       0.08901402 -0.1012334 0.031004587 0.03772583
0003a0 0e f3 10 3d 7f fe d1 bc 1f 5c f0 bb d7 6d 4c bd
       0.035388045 -0.025634049 -0.0073352004 -0.04990944
0003b0 57 33 ba 3d 2f 7f 67 bc ac ed 8a 3d 3b ed 83 3c
       0.090918235 -0.014129444 0.067836136 0.016104331
0003c0 ca 5b fb bd e4 48 19 3d 9d 10 99 bd 37 77 1c 3d
       -0.12273367 0.03742303 -0.07473872 0.03819963
0003d0 10 84 8b bc 0d dc de 3d 4b 54 4b bd 48 9b 52 3d
       -0.017030746 0.10881815 -0.049640935 0.05141762
0003e0 ad f2 6b 3d 62 09 a5 3d cf 6a 76 bc 6f 97 2b bd
       0.05760448 0.0805843 -0.015040114 -0.041892465
0003f0 91 36 59 3d 9d ea 17 3e f0 e4 d4 bd b6 b5 db 3c
       0.053030554 0.14835592 -0.10395229 0.026820045

update.0.weight f4 [128, 256]
000000 ee 44 41 be a7 be 69 be 8c 7e 2a bd e2 33 f6 3d
       -0.18873951 -0.22826634 -0.04162459 0.120216146
000010 e1 3d be 3d b6 11 4b 3d 3a 43 da bb be 6b 44 3d
       0.09289146 0.049577437 -0.006660846 0.047954313
000020 2f fd 0b 3d ae 9f 76 3b 6c b6 ab b5 75 ad b6 bd
       0.034177 0.0037631798 -1.2793585e-06 -0.08919803
000030 6a d3 a0 3d 1e 44 1e bd c7 01 99 3d 56 b7 43 3e
       0.07852824 -0.03863918 0.07471042 0.19112906
000040 2f 7c 01 be ff 21 60 be af bb b1 3d bf 15 0c be
       -0.12645029 -0.21887968 0.08678376 -0.1368017
000050 fd 6a 2a bd 48 39 be 3c b2 da 33 be 58 8e 01 bd
       -0.04160594 0.023220673 -0.17563894 -0.03162989
000060 30 50 a0 3d 4c cd 5b be 92 85 34 3e c4 9b 1b bd
       0.078277946 -0.21465033 0.17629078 -0.037990347
000070 1d 78 e4 3d 74 14 f5 bd cc 32 68 be 18 93 ca 3d
       0.11155722 -0.11966792 -0.22675627 0.09891337
000080 23 87 2b be 64 fc ee 3d a6 eb 22 3d a0 49 04 bd
       -0.1675077 0.116692334 0.039775513 -0.032296777
000090 61 fb 17 3d 0a 72 98 bb 29 f2 62 3d 41 fe f6 bc
       0.037104968 -0.0046522664 0.055406723 -0.030150535
0000a0 24 f8 9b bd 38 08 94 be b6 0a 7c bb 6a 0c 56 bd
       -0.076156884 -0.2891252 -0.0038458533 -0.052257933
0000b0 b7 0b bc 3d 00 ce be 3d 9c 28 16 3d 20 24 50 3c
       0.09181922 0.09316635 0.036659822 0.012703925
0000c0 38 8b 35 be 59 46 36 3b 73 64 67 3d c6 b2 16 bd
       -0.17728889 0.0027812927 0.05649228 -0.036791585
0000d0 33 f3 d2 3d 22 59 de bd 0d c7 e3 3d cf 37 5b 3e
       0.10300293 -0.108568445 0.1112195 0.21408008
0000e0 57 ec b7 3c c2 c3 2a be 1d 36 35 bd a3 c0 ba 3c
       0.022451563 -0.16676238 -0.04424106 0.022796934
0000f0 e9 46 5a 3e d4 ac 20 be 9a 43 b3 bd c7 96 30 3e
       0.21316113 -0.15690929 -0.08753128 0.17245017
000100 21 40 3a 3b e6 d4 0f 3d 47 99 49 bd 9b b5 47 bd
       0.0028419571 0.035115145 -0.049218442 -0.048757177
000110 a8 96 a2 3c e7 c0 4b bd 26 cf f0 3d 03 05 4b 3d
       0.01984723 -0.049744513 0.117582604 0.049565326
000120 e0 d1 e4 bd 1f bc c7 3d 6b 3d cb 3d 06 4a ed bd
       -0.11172843 0.09752678 0.09923824 -0.115863845
000130 d3 aa 6f bc 0e 9f 34 be 65 b2 08 3e 7a 6e f5 3d
       -0.01462813 -0.176388 0.13349302 0.11983962
000140 79 6f c4 3d 81 3d 09 be b7 83 b5 bd d3 41 d0 3c
       0.09591574 -0.13402368 -0.08863013 0.025422012
000150 75 5c d2 bd 00 5c 60 bd ac 3e 3d be d8 46 0d bd
       -0.10271541 -0.054775238 -0.18480939 -0.03449139
000160 1b 22 e8 3d e0 3a b5 3d 4f 6c 89 bd 93 e5 86 be
       0.1133463 0.0884912 -0.06710111 -0.26347026
000170 37 7f 7f 3d e9 ad 31 be e6 96 87 3c 05 08 8e 3d
       0.06237718 -0.17351498 0.016551446 0.06935123
000180 1b 71 e7 bd bf a3 06 3c 77 84 c2 3d c7 b6 72 3d
       -0.1130087 0.008217751 0.09497922 0.05925634
000190 79 3c 5d 3d 95 cb 84 be 90 21 60 bd 47 b9 8c bc
       0.05401275 -0.2593657 -0.054719508 -0.01717819
0001a0 b3 b4 30 3e b8 cb 2b 3e 56 e5 80 bd cc fc 14 be
       0.17256431 0.16776931 -0.06293742 -0.1454956
0001b0 72 b3 db 3d b7 99 67 3d bc bd 32 be b2 09 a0 bd
       0.10727586 0.05654308 -0.1745519 -0.07814349
0001c0 66 81 69 3e cf 6b 81 3c 5f f4 00 3e 47 5b 53 3d
       0.22803268 0.015798477 0.1259322 0.05160072
0001d0 05 f1 10 3d 2b f9 06 3e 7a dc 2c be 88 91 e3 3a
       0.035386104 0.13180988 -0.1688098 0.0017362097
0001e0 60 06 ba 3d 0e b7 20 3e 29 33 87 bd 13 ef a6 bc
       0.09083247 0.1569483 -0.06601555 -0.020377671
0001f0 3c 1f e4 bd 6d 43 36 bd e8 c0 d0 bd 72 13 23 bd
       -0.1113877 -0.044497896 -0.10193044 -0.039813466
000200 f9 d6 35 3c c2 44 0e 3c 29 21 e1 3c d3 68 3b be
       0.011098617 0.008683385 0.027481632 -0.18301706
000210 7d d6 1f bd 65 2a 73 bc e9 34 9c 3d f5 c1 04 3e
       -0.03902291 -0.014841651 0.07627279 0.12964614
000220 f9 b0 9e bc da da 4e 3d ef f4 c3 3d 1e 79 25 be
       -0.019371497 0.050501682 0.09568202 -0.16159484
000230 be fa 7f 3d 0c 61 c6 3c 5f 59 84 bc c7 10 d5 bd
       0.062494986 0.024216197 -0.016155897 -0.10403591
000240 33 ae 19 3c b2 e1 f3 3d a6 f3 c0 3c d8 9f a7 bd
       0.009379911 0.11908282 0.02355368 -0.08184785
000250 ed e1 33 bd 9c 81 02 3e da 92 d8 bd 7c 83 08 3d
       -0.04391663 0.12744755 -0.10574885 0.03332852
000260 fa 84 e0 3c 39 ce 5c bd 82 6c b0 bd fd 46 7c bd
       0.027407158 -0.053907607 -0.08614446 -0.061591137
000270 3d aa 1f 3c 81 9a 06 be 05 57 de bb 95 b7 a9 3d
       0.009745178 -0.13144876 -0.006785276 0.082869686
000280 13 07 74 3c cf 94 98 3d ce 5b c2 bd 82 2d dd bc
       0.014894265 0.07450258 -0.094901666 -0.026999239
000290 8b 99 a3 bd d8 86 fc 3d 04 ae 30 3d b9 12 90 3d
       -0.0798827 0.12330407 0.043134704 0.07034821
0002a0 61 b0 0c 3b a4 44 92 bd c0 7c 9c bd c6 b2 df 3d
       0.0021467435 -0.071419984 -0.07640982 0.1092277
0002b0 8d 01 60 3d bd d5 f8 bc 0c a3 65 3d 25 62 0e bc
       0.05468898 -0.030375356 0.056063697 -0.008690392
0002c0 ab 52 0f bd 54 f2 c5 bd 99 7a 05 be 0d 3c 53 bd
       -0.034990948 -0.09665361 -0.13035049 -0.05157094
0002d0 ba 27 9f 3d b6 f6 e7 3c 43 f3 92 3d c6 57 16 be
       0.07771249 0.028315883 0.07175305 -0.1468192
0002e0 43 5e 68 bd 54 ca 17 bd 0e 36 ea bd 18 63 31 3e
       -0.05673052 -0.03705819 -0.11436091 0.17322958
0002f0 9d 6e 2f bd 53 06 43 3d a7 fa a9 3d 45 da 23 bd
       -0.0428301 0.047613453 0.08299761 -0.04000308
000300 ea bc d1 3d e0 5a 0b 3e 4d 7b 0f bd 24 7a 78 be
       0.102411106 0.13608885 -0.0350297 -0.24265343
000310 3e 42 c5 bc 32 84 85 bc b8 2a 11 bd 71 8f e8 3c
       -0.024079438 -0.016298387 -0.03544113 0.02838871
000320 d7 31 ea bc 0c 04 98 bd dd 47 87 3d c3 5d 03 3d
       -0.028588219 -0.07422647 0.06605504 0.03207184
000330 82 73 0c 3c 4a 15 d7 bc 13 3d a9 bd f8 a1 12 3d
       0.008572461 -0.026255269 -0.08263602 0.035798997
000340 94 bc d1 bd 61 5f 45 bd 67 ef d7 bc bc e2 07 bd
       -0.102410465 -0.048186664 -0.026359273 -0.033175215
000350 54 1d 0e 3d 66 a7 d9 3d 6b 22 d7 bd 28 4a 08 3e
       0.03469594 0.10627632 -0.105046116 0.13309538
000360 3b ff c8 3d 4b af a0 bd 13 11 c6 bd 70 12 78 bd
       0.09814306 -0.078459345 -0.096712254 -0.06056446
000370 48 5e a4 3d 3e a0 87 3d 93 86 5f bc d1 d1 06 bd
       0.08025795 0.06622361 -0.013642925 -0.03291494
000380 8c dc e8 bd de 37 e3 3b 72 94 63 3d e8 eb 64 bd
       -0.11370191 0.00693415 0.05556149 -0.05588904
000390 d3 e9 ab bc 84 49 0a be e2 93 d1 bd 25 8b 78 bd
       -0.02098552 -0.13504606 -0.102332845 -0.060679574
0003a0 c0 03 58 bd 03 72 c8 bd 64 c7 ce 3c 76 d2 ae 3c
       -0.05273795 -0.09787371 0.025241561 0.02134059
0003b0 51 de 90 bb a7 f7 35 3c d2 05 05 3c eb d5 36 bd
       -0.0044210334 0.011106408 0.008119063 -0.0446376
0003c0 0b 56 42 be 81 f1 02 3e 05 06 03 3d 70 8c 1c 3e
       -0.18978135 0.12787439 0.031988163 0.15287948
0003d0 28 d7 50 bd b4 2c 2d bd 8f 01 b2 bd 19 27 8b 3d
       -0.05098644 -0.04227896 -0.086917035 0.06794567
0003e0 f0 6a 16 be 96 bd bb bd 00 0d 7c bd e0 69 24 3d
       -0.14689231 -0.0916702 -0.061535835 0.040140033
0003f0 d1 65 62 3e 4a 50 d8 3c 0a d9 90 3c f2 a5 f3 bd
       0.22109152 0.026405472 0.017681617 -0.11896886

update.0.bias f4 [128]
000000 ba e4 81 3c 90 a1 3b bd 34 7e b4 3b 81 ec 63 bd
       0.015856136 -0.045808375 0.0055082086 -0.05564547
000010 5d 31 d4 3d 0e f3 75 3d 04 46 36 bb 9a 47 15 bd
       0.10360978 0.06004625 -0.0027812729 -0.036445238
000020 9f 09 7a bc 60 e2 ec 3b 3d da c5 bd d8 07 91 bc
       -0.015261083 0.0072291344 -0.09660766 -0.017703936
000030 bd 67 84 3c ce d3 55 3d a7 4d 00 3d e8 6f de 3c
       0.016162748 0.052203946 0.031324055 0.02715297
000040 35 6e 27 3d ae 56 e1 bb 83 93 67 bc 81 95 ed 3c
       0.040876586 -0.006876788 -0.014134291 0.029001953
000050 99 1f 15 3c f2 02 84 bc 65 b4 41 3c 12 6f bd bc
       0.009101772 -0.016114686 0.011822795 -0.023124252
000060 b8 13 52 3d 28 2a 86 bc 01 6d dd 3b e1 18 79 3c
       0.051288337 -0.016377524 0.006757379 0.0152036855
000070 b7 54 4f bb 57 2e 1c bd f4 96 58 3d 4d 46 32 3d
       -0.0031636187 -0.03813013 0.052878335 0.043524075
000080 7c 33 21 3c f2 0d 58 3d 3b b5 0f bd 95 88 e5 3c
       0.009838935 0.052747674 -0.035084944 0.028019229
000090 9b 4f 51 3b 8d a0 eb 3c 71 db 32 3d 4a ee f0 bc
       0.0031938318 0.02876308 0.043666307 -0.0294105
0000a0 83 b4 02 bd a1 51 74 bd 78 c0 76 3d 2d 38 eb 3c
       -0.03191043 -0.05964816 0.060242146 0.02871331
0000b0 7d 2a 03 bc ba a9 59 3d 8b 82 5c 3d 06 4f 39 bd
       -0.008005735 0.05314038 0.053835433 -0.04524138
0000c0 ec 5b c0 3c 70 66 91 bc 21 7a 78 bc 69 63 dc 3d
       0.023481332 -0.017749041 -0.015165837 0.107611485
0000d0 09 e8 b5 bc ad d4 05 bc ef a1 d4 bc f9 a1 0d 3c
       -0.02220537 -0.008168382 -0.025956122 0.008644574
0000e0 96 d9 18 3d ae 7f 2e 3a d7 7d e3 3c 0b 0b c4 bd
       0.03731688 0.0006656599 0.027769966 -0.09572419
0000f0 07 79 95 3d 83 6b 0d bc 69 6e 45 3d df 27 d5 bc
       0.07298475 -0.00863159 0.048201 -0.026019989
000100 15 a5 72 bd fb 0d 82 3c 44 2a 84 3c 16 12 a2 bc
       -0.059239466 0.015875807 0.016133435 -0.019784015
000110 ef d7 67 3d 08 af 05 3d 75 7c 08 3d 4f a9 5f 3d
       0.056602415 0.032637626 0.033321816 0.054604825
000120 57 14 b7 3a 62 bd 76 3c 13 f7 30 3d b3 92 92 3c
       0.0013967854 0.015059801 0.04320438 0.017892217
000130 b1 2b 85 3d 54 63 01 3d 30 6b 2b 3d d7 35 6b 3d
       0.06502474 0.031588867 0.04185027 0.057424393
000140 7c b2 9d 3d d9 77 9b bc 18 55 e4 bb 92 fc a8 3d
       0.07700059 -0.018978046 -0.006968152 0.08251299
000150 43 9e 78 3a 1a 3b 93 bc 33 d7 b6 bc 2a de 86 bc
       0.0009484032 -0.017972518 -0.022319412 -0.016463358
000160 ce 11 19 3d df c2 52 3d 17 c4 71 3d f7 66 28 3d
       0.037370495 0.051455375 0.059024896 0.04111382
000170 44 96 11 bd 35 3e c2 bb c5 a8 90 3d c0 cc 0e 3c
       -0.035543695 -0.005927826 0.0706344 0.008715808
000180 39 55 a4 3c 20 da 4e 3d 8a 0a ad 3d f9 6a 08 3d
       0.020060169 0.05050099 0.08449276 0.033305142
000190 0f cd 9d 3b 54 dc 28 bc 94 28 35 3d eb 53 f1 3c
       0.0048157047 -0.010306437 0.04422815 0.02945896
0001a0 84 db 02 3d ed b9 8b 3c 72 f8 12 bd 3c cf a7 3b
       0.031947628 0.01705643 -0.035881467 0.00512114
0001b0 1a 3f a6 bc 68 d4 b0 3d fb 9f a8 3c 87 9a f1 bb
       -0.020293761 0.08634263 0.020584097 -0.0073731574
0001c0 53 4a 01 3d 7d 62 04 bc 64 a9 f1 3d af 9b af 3d
       0.03156502 -0.008080122 0.11799887 0.08574616
0001d0 03 64 15 bd ff 31 c3 bd 81 e9 ea 3c c9 73 99 3d
       -0.03647233 -0.095310204 0.028675796 0.074927874
0001e0 15 7d 11 bd 4a 2d 9a bc d9 90 ac 3d 93 62 cf bc
       -0.03551968 -0.018820424 0.08426065 -0.025315559
0001f0 e8 56 53 3c 05 e8 9c 3b d0 f9 96 3c e3 c5 3a 3d
       0.012899138 0.004788401 0.018429667 0.045598876
